notebooks/lstm_model_pytorch.pth (torch, 129141 bytes, 9 tensors)

lstm.weight_ih_l0 f4 [200, 1]
000000 c1 eb 83 bd 92 11 27 3e 41 d8 53 3d 1e 32 ba bd
       -0.06441451 0.16315296 0.051719908 -0.0909159
000010 35 8e f5 3d 4f d9 ad 3d 24 4d 0c be a3 5f fe 3d
       0.119900145 0.08488714 -0.13701302 0.12420585
000020 bd 23 22 3e 2d 12 01 3e a7 9f 59 3d 2f 3f c4 3c
       0.15833946 0.1260459 0.053130772 0.02395591
000030 20 39 d5 bd 5c da b1 bd f6 cf e2 bd 98 04 1b 3d
       -0.10411286 -0.08684227 -0.11074822 0.037846178
000040 ec b0 84 bd ff 46 b3 bd 7b 37 ae 3d 09 23 ca bd
       -0.06479058 -0.08753776 0.08506676 -0.09869964
000050 d5 ae 9c 3d c8 51 27 be cb c4 3c 3e af c2 e7 3d
       0.07650534 -0.16339791 0.18434446 0.1131643
000060 6a 65 a5 3d 00 ac d0 3b 12 a6 2e bd a8 fc 8c bd
       0.08075984 0.0063681602 -0.042638846 -0.06884128
000070 78 3d 0c 3c 2b fb cf bb 59 a4 1b 3e cd bf c8 bd
       0.008559577 -0.00634708 0.15199412 -0.09802208
000080 27 ad 14 bd e5 6e 34 3e 30 1b ad 3d b2 4c 42 3d
       -0.036297943 0.17620428 0.08452451 0.047436424
000090 29 b2 62 bd 59 09 e6 bd 7c 74 1f 3d 1a dc 33 3e
       -0.055345688 -0.11232252 0.038929448 0.17564431
0000a0 0c 76 2f bd 7a aa b4 bd ae 15 ef bd 31 42 86 bc
       -0.042837188 -0.08821578 -0.11674057 -0.016388984
0000b0 fa f4 d4 bd a4 ea 78 bd 15 79 c1 3d a1 90 59 be
       -0.10398288 -0.060770646 0.09446923 -0.21246578
0000c0 42 d5 1e 3b ab 76 08 bd 3a a0 04 3e 1e c5 dd bd
       0.0024235998 -0.033316296 0.12951747 -0.10828613
0000d0 1b 84 b2 bd 8f ac 78 bb 46 6b 2a 3e df 9b 2b 3c
       -0.08716603 -0.003794465 0.16642484 0.010474174
0000e0 d3 9b 9f bd 24 0f 17 3d 1c 08 48 bd e0 b6 3d bd
       -0.07793393 0.036879674 -0.04883586 -0.04631698
0000f0 56 1f 31 bd 82 ba db 3d 46 89 f5 3c 82 8d 2b bd
       -0.043242775 0.10728933 0.029972684 -0.041883
000100 70 ad 13 bd 70 f1 81 3d c4 27 5e bd 23 e0 d4 3d
       -0.036054075 0.06344879 -0.054237142 0.10394313
000110 1f 3a e8 3c 6a 77 74 bc 23 50 eb 3d ec d9 c9 3d
       0.028348027 -0.014921049 0.11489894 0.098560184
000120 3a d6 2a 3e 9d 61 51 3d a2 dc a3 bc 69 19 9e 3d
       0.16683283 0.051118482 -0.020002667 0.0771969
000130 72 42 e6 3d c4 ab 63 3c 4b a9 01 3d 6d 4b c2 bc
       0.11243142 0.013895933 0.03165559 -0.023717606
000140 9b f0 b0 bd c2 e6 10 be 18 7b f4 bd 8e 49 f2 bc
       -0.08639642 -0.14150527 -0.11937541 -0.02957609
000150 fe 9b a1 bc 07 e0 b7 bd 8c ea 22 bd e6 06 55 3d
       -0.019727703 -0.08978277 -0.039774463 0.052008532
000160 81 b0 e7 3b 71 55 7e bd 99 9c 8c bd 75 cf af 3d
       0.0070706015 -0.062093202 -0.06865806 0.08584491
000170 96 6e c1 bd cc a4 97 3d 05 9a ba bd 1a 48 9a 3d
       -0.09444921 0.074044794 -0.09111408 0.075332835
000180 3f ef 0b 3d 68 d8 d6 bc fe 0f dc 3d f1 e1 c4 3d
       0.03416371 -0.026226237 0.10745238 0.096134074
000190 14 e3 1b 3e 42 15 b1 3c 39 b5 11 3d 31 c2 06 be
       0.15223342 0.021616582 0.035573218 -0.13160016
0001a0 be 02 3a 3d d4 f1 1c be 55 b3 c9 bd f4 75 15 3e
       0.04541277 -0.15326625 -0.09848658 0.14595777
0001b0 31 d5 29 bd d3 25 2f 3e 1d d8 05 be 01 6a 54 3d
       -0.04146308 0.17104273 -0.13070722 0.051858906
0001c0 91 d1 4e bb c1 84 0c 3e bf d0 00 3e 47 09 04 be
       -0.0031558017 0.13722517 0.1257963 -0.12894164
0001d0 67 95 38 3d 56 af b1 bd 48 a1 24 be 18 e1 07 be
       0.045064356 -0.08676021 -0.16077149 -0.1326946
0001e0 78 cb 1f 3e 14 b0 a8 3d a3 20 11 be ce b1 0e 3d
       0.15604961 0.08236709 -0.14172606 0.034837537
0001f0 36 74 09 3e 22 6f e2 bc 40 6f 0e be 88 0d 2d be
       0.13423237 -0.027640883 -0.13909626 -0.16899693
000200 d2 ca 41 3c 49 21 07 be 11 88 fa bd 00 93 2b 3e
       0.011828141 -0.13196291 -0.12232984 0.16755295
000210 0b 00 a0 3c e0 3a 01 3c 46 f4 e6 3d 6b 17 4c 3d
       0.01953127 0.007887572 0.1127706 0.04982702
000220 22 85 ae bb 39 86 15 be 7c ae 3c be 52 22 03 3e
       -0.0053259293 -0.14601983 -0.18425936 0.12806061
000230 a5 38 f2 3d 8d f8 1a 3d 8a 77 cc 3d 4b b5 d8 3d
       0.1182721 0.037834693 0.09983738 0.10581454
000240 fc 48 59 3c a6 26 1f be aa 2c e8 3a c7 6b c0 bd
       0.01326203 -0.15542087 0.0017713506 -0.09395557
000250 9f 39 85 3d d4 0b d6 bd e3 2e b9 bd 8d 87 0f 3d
       0.06505131 -0.10451475 -0.09042146 0.03504138
000260 20 8f c9 bd aa 65 29 3e 30 2a bf 3d 56 4f e4 bd
       -0.09841752 0.16542688 0.093342185 -0.11147945
000270 d9 67 99 3d 93 f1 e6 3c 88 af f9 3d b5 c3 9a 3c
       0.074905105 0.028191363 0.12191683 0.018892149
000280 40 99 0e bc 82 2a c7 3c cd b7 c1 3d ae f4 de 3d
       -0.00870353 0.024312261 0.09458885 0.10886513
000290 66 86 22 be a9 92 08 3d 20 d3 33 3e b7 31 0f 3e
       -0.15871581 0.03334299 0.17561007 0.13983808
0002a0 c4 a6 02 be 87 12 39 bd a0 89 3a 3e 60 00 09 be
       -0.12758929 -0.045183685 0.18216562 -0.1337905
0002b0 7d cf 45 bd 4a 32 e1 bc 2b 2c 05 3e a3 2f 00 3e
       -0.04829358 -0.0274898 0.1300513 0.12518172
0002c0 a7 13 7a bd 55 5f 1c 3e fb 47 89 bd 42 a9 d9 3d
       -0.0610539 0.15270741 -0.06703182 0.106279865
0002d0 58 7e 0d 3e 15 e7 2a bc 73 e4 07 3e bf 5d 81 bd
       0.13817728 -0.010431071 0.1327074 -0.06316709
0002e0 d7 06 f2 bd 06 84 89 bd c0 03 1c 3e e0 ab 7d 3d
       -0.11817711 -0.067146346 0.15235806 0.06193149
0002f0 03 ca 1f 3e 61 b7 c2 3d a3 f7 a3 bd 57 32 80 bd
       0.15604405 0.09507633 -0.08006217 -0.062596016
000300 4a fb c9 3d 1a f9 c3 bc 5b d7 05 3e c2 8e 7d bc
       0.09862383 -0.023922492 0.13070433 -0.015475931
000310 4f 08 e7 bd 55 40 42 3d 0e 0b 1a 3e 26 51 1a 3e
       -0.112808816 0.047424633 0.1504328 0.15070018

lstm.weight_hh_l0 f4 [200, 50]
000000 9f 0f cf bd 9c bb f7 3d 77 d0 9f bd c8 f0 96 3d
       -0.10110401 0.120963305 -0.078034334 0.07370144
000010 a1 aa 0e be cc ab 10 be 24 2d ef 3d 4c fb f1 3b
       -0.13932277 -0.14128035 0.11678532 0.0073846933
000020 8b 62 ad bd a9 c3 01 3e 3f 26 17 3e c7 2d 72 3c
       -0.08466061 0.12672295 0.14760683 0.014781422
000030 fc 33 55 bc 64 53 7f 3d f8 02 88 bd 13 ae 17 3d
       -0.013012882 0.062335387 -0.06641191 0.037031244
000040 9c 98 dc bd bd c1 84 3d 78 b7 60 3d d3 52 29 bd
       -0.107712954 0.06482265 0.05486247 -0.041338753
000050 f6 a7 9f bd 8d 9f 1f bd 0b 33 53 3d f6 c0 b8 bd
       -0.07795708 -0.03897052 0.05156235 -0.090211794
000060 29 23 49 bd 09 94 1a bd 8e 02 cd 3d aa 86 a7 3d
       -0.049105797 -0.037738834 0.10010253 0.08179982
000070 e0 10 15 bd cf 7f 4b bc e4 f2 45 bd a6 64 e6 bc
       -0.036393046 -0.012420609 -0.04832734 -0.028124165
000080 89 4d 1b 3e 0c 86 ce 3c a2 82 3d bd 1f 79 f6 bd
       0.15166296 0.025210403 -0.04626716 -0.12034821
000090 f7 e3 ff 3c 8c 12 fd 3d 17 1f b1 3d ee 6f 96 3d
       0.031236632 0.12357053 0.08648508 0.07345568
0000a0 c8 6e f9 3d 12 01 b9 3b 8b dd 99 3d f8 6f ff 3d
       0.12179333 0.0056458795 0.07512959 0.12472528
0000b0 8d 1d f3 3b f5 65 6e bd 22 67 c5 bd ff e8 7a 3d
       0.007419294 -0.058202703 -0.09638812 0.06125736
0000c0 c5 b8 01 be e7 bd 4b 3b b9 ad 06 3e 39 30 ce 3d
       -0.1266814 0.0031088532 0.13152207 0.100677915
0000d0 63 a0 98 3d 18 59 d7 bb 01 70 7b bd e2 90 2f bd
       0.07452466 -0.0065719 -0.061386112 -0.04286278
0000e0 64 98 e0 bd e1 d2 ce 3d 81 2a e4 3c 9b 75 0b 3e
       -0.10966566 0.10098816 0.027852299 0.13619082
0000f0 77 9b 74 bd c4 ea 01 3e ff f1 b1 3d de 68 97 3c
       -0.059718575 0.12687212 0.08688735 0.018482622
000100 d6 c8 85 3d 08 44 9c bd 3c 00 b6 bd a6 d8 e8 bd
       0.06532447 -0.076301634 -0.088867635 -0.113694474
000110 d1 f1 a3 bd b5 9e 30 bc 11 d5 f7 3c d5 71 79 bd
       -0.08005107 -0.010780026 0.030252965 -0.060899574
000120 a8 6e 5d 3d c7 f6 67 3d a8 a9 a3 3c 58 bc f5 bd
       0.05406061 0.05663183 0.01997836 -0.11998814
000130 d5 fc a7 3d 02 53 be 3d 4f 60 ce 3d ba 26 c6 bd
       0.08202521 0.09293176 0.10076963 -0.09675355
000140 74 47 94 bd 22 2c 04 3e 30 bd 11 3d 7e 46 0c 3e
       -0.07240191 0.1290746 0.035580814 0.13698766
000150 79 55 c4 3d 31 72 ca bd 6c 0c d7 3d f3 16 6c 3b
       0.09586615 -0.098850615 0.10500416 0.003602442
000160 e9 48 d6 3d c8 b6 c8 3c cc 0b 1c 3e da ca 1c bd
       0.10463125 0.02450122 0.15238875 -0.03827939
000170 7e fa bb 3b 66 61 00 3e 1b 3d a6 3d 19 16 b4 3d
       0.005736648 0.12537155 0.08117124 0.08793277
000180 5a 10 a8 3c ea e5 ed 3c 08 47 08 bd 18 12 86 3d
       0.02051561 0.029040296 -0.033270866 0.0654642
000190 51 dd ce 3d 24 80 b4 3d 7f 04 56 bb 10 6e 2d 3c
       0.101008065 0.088135034 -0.0032656488 0.010585323
0001a0 77 85 ec bd ce 58 05 bd 47 05 2e bc fa a5 3d bd
       -0.11548894 -0.032555394 -0.010621375 -0.046300866
0001b0 c8 12 b2 3d 9f 42 08 3e 8c 4e 12 3e 88 52 04 3e
       0.086949885 0.13306664 0.14287776 0.12922108
0001c0 5d a0 e5 bd 1c 5d 72 bd fe 9d d4 bd 20 53 0b bb
       -0.112122275 -0.059170827 -0.10381697 -0.0021259263
0001d0 9f 2c 29 3d 8e 42 64 3d 74 5d 7f bb 90 67 0d 3d
       0.04130232 0.055727534 -0.0038965615 0.034522593
0001e0 38 cb 41 3d d0 26 86 bb b3 fe 18 bd d9 36 23 bc
       0.047312945 -0.0040939823 -0.037352275 -0.009961807
0001f0 de 58 25 bd f8 f1 db 3b c4 36 87 bd 7c c1 b9 3d
       -0.040367953 0.0067121945 -0.066022426 0.09070107
000200 93 e3 14 3e 92 7d b5 3d 7d 5f d4 3c 95 c7 87 3c
       0.14539938 0.08861841 0.025924439 0.01657466
000210 20 3e fc bd 22 a7 b8 bd 0c dd 95 3c c0 1c 45 3d
       -0.12316537 -0.09016253 0.01829388 0.04812312
000220 13 14 a8 bd 58 6e ff 3c d2 78 b4 bc e1 1a 6d bd
       -0.08206954 0.031180546 -0.022030268 -0.05788696
000230 56 8c 96 3d 5c 84 b6 3d 9e f4 c0 bd 97 4f b4 bd
       0.07350986 0.08911964 -0.09421657 -0.08804243
000240 3b 27 f8 3d b0 9a d2 3d fd a5 b5 bd 27 80 97 3d
       0.121168576 0.102834105 -0.088695504 0.0739749
000250 50 97 4c bd 39 17 16 3b 99 44 e9 3d b9 d3 b7 bd
       -0.04994899 0.0022902025 0.11390037 -0.0897593
000260 85 8a 37 bd 1f 73 44 3b 82 6f bb bd 89 a1 ee bd
       -0.044809837 0.0029975844 -0.09152128 -0.11651904
000270 d3 98 79 bc b5 14 1a 3e 65 3d ba bd bb 24 8a bd
       -0.01523419 0.15046962 -0.09093741 -0.06745287
000280 bd 54 2c 3e a6 2a 8e bd fd 41 68 bd ac 0a 3d be
       0.168292 -0.06941728 -0.056703556 -0.18461102
000290 0a 90 fc bd f3 d1 5b 3d a6 aa 4c 3d b7 6b a5 3d
       -0.12332161 0.05366702 0.04996743 0.080771856
0002a0 4f cf 51 bb fb 9a 4e 3d 3e 73 9a 3d 8b 34 d2 bd
       -0.0032014435 0.05044077 0.07541512 -0.10263928
0002b0 26 e2 87 bd a6 8e b1 bd c7 e8 58 3c 52 9a 50 bd
       -0.06634931 -0.08669786 0.013239092 -0.05092842
0002c0 22 98 9a bd fb d5 29 3d c1 b3 c6 3c 80 1f de 3d
       -0.07548548 0.041463833 0.024255635 0.10845852
0002d0 7e 88 4d 3d 30 e3 c3 3b b4 f6 13 3e 9e f6 a5 bc
       0.050178997 0.0059780106 0.14449579 -0.020259198
0002e0 a4 f6 34 be 1d 0f 92 3c 04 83 8d bd d0 98 27 3e
       -0.17672211 0.017829472 -0.06909755 0.16366887
0002f0 f7 5a e1 bd b7 26 b9 3c 15 74 e8 bd f4 13 c4 bd
       -0.11003678 0.022601468 -0.11350266 -0.09574118
000300 ca e9 0b bc 61 6a 90 bd 06 5e dc bd 78 4a 74 3d
       -0.008539626 -0.0705154 -0.10760121 0.05964133
000310 e6 7c 2d bd f0 cf ec bc 96 3d b3 3c dc 48 41 bd
       -0.04235544 -0.028907746 0.021879952 -0.047188625
000320 05 6a 87 bc b0 08 ad 3d e7 33 e0 3d 66 aa 0f 3d
       -0.016530046 0.08448923 0.109473996 0.035074614
000330 07 2e f8 bd da 70 25 3d 14 ab 78 3d fd be b7 3b
       -0.12118154 0.040390827 0.060710028 0.0056074844
000340 be 3d 29 bd ea 8b 50 3d 4b 8d dd bc d6 cc b1 3d
       -0.041318648 0.050914682 -0.027044913 0.086816475
000350 67 45 24 3c 2b 10 a7 3d ba 65 7f 3d b3 02 34 bd
       0.010026312 0.08157381 0.062352873 -0.043947887
000360 61 14 c7 3d 1b 10 37 be 5c cd 89 3d 22 10 bc bd
       0.09720684 -0.17877237 0.06728622 -0.091827646
000370 22 e0 41 bd 9a cc 3b 3e 02 90 bb bd 81 db 26 3e
       -0.04733289 0.18339768 -0.09158327 0.16294672
000380 ad 9d 23 bd 30 8d d3 bd e4 4d e7 3c 45 9b 01 be
       -0.039945293 -0.10329664 0.028235383 -0.12656887
000390 2c 79 07 3c db f5 95 bd fe c1 81 3d b8 3c 26 3e
       0.008268636 -0.07322284 0.06335829 0.162341
0003a0 36 7d c9 3d 70 be df 3d 76 dd 00 3e 77 5f 98 3d
       0.09838335 0.10924995 0.1258448 0.074400835
0003b0 fc c2 04 3e b4 ba a8 bd 96 d3 ac 3d 17 22 33 bd
       0.12965006 -0.08238736 0.08438794 -0.043733682
0003c0 8c 68 e5 3c a3 2c ec 3d f1 ee fa bb 7e df 74 3d
       0.028003953 0.11531951 -0.0076578786 0.05978345
0003d0 c8 5f 10 3e b2 01 9f bb 06 2d 17 3e 2e 5c 64 3d
       0.14099038 -0.004852497 0.14763269 0.055751972
0003e0 6b 7d df 3b 3d 57 d5 bd e1 7e 08 3e 42 5c 81 bc
       0.006820371 -0.1041703 0.1332965 -0.015791062
0003f0 b3 62 a8 3d 8a 5a c1 bc 13 0d c4 bd 6c ac 4f bd
       0.082219504 -0.023602743 -0.09572806 -0.050701544

lstm.bias_ih_l0 f4 [200]
000000 79 1d 1e 3e 30 ed c9 3d 0e fd b4 bd 83 61 3c 3e
       0.1544093 0.09859693 -0.08837329 0.18396573
000010 58 ed 3c bd 30 d2 ec bd ae 15 c6 bd 9f dc fd 3d
       -0.046124786 -0.115635276 -0.09672104 0.12395596
000020 1c 81 c2 3d d3 e5 f1 3d ab 9c c2 3d 5a b3 a8 3d
       0.09497282 0.118114136 0.09502538 0.082373336
000030 86 da 5e 3c c1 c2 22 bd 1a 9e ec bb 39 4d 46 bd
       0.013601905 -0.039736513 -0.0072209956 -0.04841349
000040 55 4b 83 bd f6 94 03 bb ad 4b dc 3d e7 44 8f 3d
       -0.06410853 -0.0020077801 0.107566215 0.06995564
000050 82 b8 ae 3d 03 cf d2 bd 89 d6 e0 3d e9 97 cd bd
       0.08531286 -0.102933906 0.10978419 -0.1003874
000060 10 8a 89 3d e6 46 81 bc 30 17 f3 3d 8f 52 c8 bd
       0.067157865 -0.015780877 0.11869657 -0.09781372
000070 36 22 03 be a5 35 ae 3d 93 aa e6 3d 66 91 41 3d
       -0.12806019 0.08506326 0.11263003 0.047257803
000080 49 18 94 3d eb 4c b3 3d 9e 14 c1 bd de f6 9c bd
       0.072311945 0.08754905 -0.094277605 -0.07664274
000090 c2 05 cf bd df 94 09 3e f3 47 b4 3b 64 41 62 bd
       -0.1010852 0.13435696 0.005501741 -0.055238143
0000a0 cb 69 19 be a1 6d e8 bd 7f ff 4a 3d 6a ff f1 3d
       -0.14981763 -0.11349035 0.049560066 0.118162945
0000b0 c4 f8 0c be 82 ae 80 3d fc a3 a2 bd b7 46 99 bd
       -0.13766772 0.06283285 -0.07941434 -0.07484191
0000c0 8e 5f c8 3d c0 2b ab bd 67 96 d2 bd 2f 44 9e bd
       0.097838506 -0.08357954 -0.10282593 -0.07727849
0000d0 99 d6 c0 3d 0b 60 92 ba 11 bb f1 3d 05 db 02 be
       0.09415931 -0.0011167539 0.11803258 -0.12778862
0000e0 a0 13 0b 3e af 25 24 bc 0e 1a bd 3d 30 7d 91 3c
       0.13581705 -0.01001875 0.09233485 0.01775989
0000f0 79 5b 6a 3c 8a 05 04 3d 2b d6 b9 3d 9b 55 17 3e
       0.014304035 0.032231845 0.090740524 0.1477875
000100 1d 2b 91 bd f6 1f 13 3d 7d 1d 0d 3e 3a ce 65 3d
       -0.07088301 0.035919152 0.1378078 0.056104876
000110 70 80 00 be 94 1a 25 3b ff 39 45 bd 1c f2 0a be
       -0.12548995 0.0025192844 -0.048151013 -0.1356892
000120 52 ac b4 3c ea 50 88 bc 24 c6 54 3d ab 8d b9 3d
       0.022054825 -0.016640145 0.051946774 0.09060224
000130 88 d8 0c bd c1 a2 0f 3e cd 52 cf 3d 90 06 8e bd
       -0.034386188 0.1402693 0.10123215 -0.069348454
000140 a4 27 51 3d 94 21 da 3d 34 1c e1 bd 36 fb ac bd
       0.051063195 0.10650936 -0.109917074 -0.08446352
000150 72 1a c6 3c 35 ba e2 3d 98 37 92 3d 6d 8f 82 bc
       0.024182532 0.110706724 0.0713951 -0.015937531
000160 87 2d 7c 3d 91 dc 1d 3d 2e 25 c0 bd 0c 75 2f 3d
       0.061566856 0.038540427 -0.093820915 0.042836234
000170 01 7f 2e 3c 80 e0 8e bd 0e 48 d0 bd 03 5d 1f bd
       0.010650397 -0.06976414 -0.10169993 -0.038907062
000180 0a 09 28 bd a4 ee 08 bd d6 b2 02 3e 30 d1 9b 3d
       -0.041024245 -0.03343071 0.12763533 0.07608259
000190 c3 61 50 bd f1 5e 0d 3e 5d a6 e5 3d 5b f1 9d bd
       -0.050874483 0.13805749 0.11213372 -0.077120505
0001a0 8c 08 f4 bd a9 b4 47 bc f6 8f 50 3d 37 7f ad 3d
       -0.11915693 -0.012189069 0.05091854 0.0847153
0001b0 3e b7 a1 3c d9 dc 00 bd 07 4a 86 3d ee 16 67 bd
       0.019740697 -0.031460617 0.06557088 -0.05641835
0001c0 24 4e e7 3c 4c 29 5e bd cd e8 00 be ce c1 d0 bc
       0.028235503 -0.054238603 -0.12588806 -0.025483038
0001d0 77 2f db bb bb 66 ab bc 64 3e 11 3e 89 3e db bd
       -0.006689008 -0.02092301 0.14183956 -0.10705287
0001e0 0e 01 19 bd b5 26 b1 bd 85 98 a8 3b 99 58 05 bc
       -0.03735452 -0.08649961 0.005145135 -0.008138799
0001f0 8f 5e 86 3d e3 7d 59 3b b4 37 96 bd 0c 52 07 be
       0.06561004 0.0033186607 -0.07334843 -0.13214892
000200 8b 9e 95 3d 6a 6a 8e bd cd 19 84 bc a2 7b cb 3c
       0.0730563 -0.069538906 -0.016125584 0.024839226
000210 70 46 6e 3d 85 42 e9 bd ba d8 07 3d 2f c2 f3 bd
       0.058172643 -0.11389641 0.03316567 -0.11902272
000220 ba 71 31 3d 27 e3 89 3d 06 d8 47 3d d7 46 f2 3d
       0.04332135 0.06732779 0.04879 0.11829918
000230 84 3f d8 bd 4f d8 ff bd 7e d8 a6 bd d1 fc c5 3d
       -0.1055899 -0.124924295 -0.08146761 0.096673615
000240 0b 2e 97 3d 3e 2b 11 bd 51 88 99 bd b0 d8 36 bb
       0.07381829 -0.03544163 -0.074967034 -0.0027900152
000250 54 cc 9b bd f9 a3 00 be ca 67 b2 bc 21 46 52 3c
       -0.07607332 -0.1256255 -0.021778006 0.012834103
000260 8e ba 0f 3e 5f 19 46 3e 8f 83 1e 3d 5e b5 ab bd
       0.14036009 0.19345616 0.038699683 -0.083842024
000270 86 ad 21 bd 5c 49 54 bd 0b f7 31 bc 80 16 b5 3c
       -0.039472125 -0.051827773 -0.010862122 0.022105455
000280 64 84 3c bd 7b d7 f3 bd 8f 82 91 3c bd 48 0f bd
       -0.046024695 -0.11906334 0.01776245 -0.034981478
000290 bd c3 04 3e 74 f9 0e 3e ba 45 95 bd 4b 19 aa bd
       0.12965293 0.13962346 -0.0728869 -0.083056055
0002a0 95 c9 86 3d af 46 22 bc f9 c0 be bd c0 86 ef bd
       0.065814175 -0.009904548 -0.0931415 -0.116956234
0002b0 bd 97 ae 3d 34 d9 cb bc 07 f6 b6 3d 6b 8d ee bc
       0.085250355 -0.024883844 0.08933645 -0.029120168
0002c0 33 3c ec 3d 1f 0d 91 3d 84 b1 d5 bd 42 0d 19 3e
       0.115349196 0.07082581 -0.10434249 0.14946464
0002d0 fd ea 30 3d d9 f7 82 3d 5f ea 98 bd b6 ef c1 bd
       0.043192852 0.063949294 -0.07466578 -0.09469549
0002e0 f1 b6 55 3d 09 73 fe bd aa af f3 3d 12 f3 93 bd
       0.05217642 -0.12424285 0.1189874 -0.07224096
0002f0 b5 c8 2a 3e 83 0a 87 3d c9 a4 96 bd 7f 55 2d 3d
       0.16678126 0.06593802 -0.07355649 0.042317864
000300 76 21 cd bb 1e 62 eb 3c e4 f4 31 3d 73 ba 00 3e
       -0.0062600924 0.02873331 0.043446437 0.12571125
000310 08 36 5a bd be 81 b8 bc f8 c1 25 bd 53 7b 06 bd
       -0.053274184 -0.022522803 -0.040468186 -0.032832455

lstm.bias_hh_l0 f4 [200]
000000 ab 93 0d bd de 39 9f bd de 6d 79 3d c0 94 44 3d
       -0.034564655 -0.07774709 0.060895793 0.04799342
000010 43 19 81 3d a8 09 03 3e c5 56 a8 bd 7b 35 5e 3d
       0.063036464 0.12796652 -0.08219675 0.05425022
000020 e0 95 ef 3c 31 9d 34 3e fd 49 f2 bd 2a db b4 bd
       0.02924627 0.17638089 -0.118305184 -0.08830865
000030 c9 27 9b 3d 39 0c 86 bd 33 f0 ee 3d 17 b0 38 3d
       0.07575948 -0.065453 0.11666908 0.045089807
000040 e4 bb 92 bd 5e 17 bf 3d a8 55 63 bd b7 3a fe bc
       -0.071647435 0.09330629 -0.05550161 -0.031033857
000050 cc a0 fb 3d 50 3f 3b bd 9d 16 b9 3d d9 29 fc bd
       0.12286529 -0.045714676 0.09037516 -0.12312669
000060 50 98 95 3d 62 b5 c1 bd 42 fa a3 3d 98 d3 c1 bd
       0.07304442 -0.09458424 0.08006717 -0.094641864
000070 53 f5 be 3c cf 18 bc 3d 0f 7b 21 3e d5 1d b5 3c
       0.02331034 0.09184419 0.157696 0.022108952
000080 c8 39 51 3c b7 d2 1e bd 2c 43 17 3c 59 d7 91 bc
       0.012770124 -0.038775172 0.009232324 -0.017802881
000090 36 bf e9 bd e3 f1 50 bd a2 41 9f bd 2b 63 e9 3d
       -0.11413424 -0.05101193 -0.0777619 0.11395868
0000a0 71 8d 4f bd 77 fb 84 bd 79 4a d3 3d 9a f1 34 3a
       -0.050672 -0.064932756 0.10316939 0.00069024565
0000b0 ff f7 2f bd 01 a1 9c bd 85 64 3b bc 12 e2 b3 3d
       -0.042961117 -0.076478966 -0.01143754 0.08783354
0000c0 76 d9 0b bd 76 c3 d9 bc ea 1c 3c bd dd 99 bb bd
       -0.034142934 -0.02658246 -0.045926012 -0.091602065
0000d0 df bc a1 3d 81 8e 54 3d 4f eb ed bd dd 6a 58 3d
       0.078973524 0.051893715 -0.11617147 0.052836288
0000e0 0c 27 04 bd 48 85 66 3d 42 70 bc 3d 58 d0 f4 bc
       -0.0322638 0.05627945 0.09201099 -0.029884502
0000f0 40 4c 07 be a5 94 fa 3d ee b6 3d 3d 40 ea b2 bd
       -0.13212681 0.12235383 0.046317033 -0.08736086
000100 31 78 c8 3d 40 7a e1 3d 08 9f 48 3d 3b 9b fa bc
       0.0978855 0.110096455 0.04897979 -0.030591598
000110 79 39 be bd 81 cb cb bd fb 33 4c bd 22 e8 ed 3d
       -0.09288306 -0.09950925 -0.04985426 0.116165414
000120 41 54 f8 3d 0a d2 8b 3d 88 a8 49 bd 28 b5 28 bd
       0.12125445 0.06827171 -0.04923299 -0.04118839
000130 08 66 c0 3c 9e 79 cc ba c2 5b 93 bc 78 54 10 3e
       0.023486152 -0.001560021 -0.01798809 0.14094722
000140 bc 3c 95 3d dc 7f 95 bd 68 8c e2 3d b8 90 07 be
       0.07286975 -0.07299778 0.110619366 -0.132388
000150 34 f2 61 3d 7f 54 91 3d f4 50 85 bd d6 44 ff 3a
       0.055162624 0.070961945 -0.06509581 0.0019475471
000160 75 44 8e 3c 09 25 3d bd 85 d2 8b 3c f0 0c d9 3d
       0.017366627 -0.046177898 0.017068157 0.10598171
000170 59 00 96 3d 7d ed 01 3e 3d 5f 09 be c5 95 de bc
       0.07324285 0.12688251 -0.13415237 -0.027171025
000180 93 43 29 be 47 ef b4 bd 93 50 b0 3d 40 a2 0f 3c
       -0.16529684 -0.08834701 0.08609118 0.008766711
000190 23 ef d7 3d 5c a7 a6 bd df 8e d6 bd 2f 87 09 3e
       0.105436586 -0.0813739 -0.10476469 0.13430475
0001a0 8b f4 28 bd c1 ef 4e bd 4c 56 15 bd 12 68 5e bd
       -0.04124884 -0.050521616 -0.036459252 -0.054298468
0001b0 4e 75 04 be a9 75 36 bd a3 e9 f4 3d 6f d5 bc 3d
       -0.12935373 -0.044545803 0.11958625 0.09220397
0001c0 d3 6f 75 3d fc 2c 04 bc d0 8a 94 3d 1a 64 d9 3d
       0.059921097 -0.008067366 0.07253039 0.10614796
0001d0 9c 88 4f 3d c1 ee ad 3c ad 78 0d 3c e3 6b d5 bc
       0.05066739 0.02123201 0.008634728 -0.026052421
0001e0 19 53 cc 3c 99 66 60 3d 2a b9 e8 bd b0 8f c3 3d
       0.024941968 0.054785345 -0.11363442 0.095488906
0001f0 68 5c 7a b9 02 ec 9b bd 1c 40 20 3d fa 0e 4f bd
       -0.00023876282 -0.07613374 0.03912364 -0.050551392
000200 7d c7 00 3c ae ab 31 3d 4c 10 93 3c ad 30 09 be
       0.007860062 0.043376617 0.017952107 -0.13397475
000210 2d d4 b9 bd 69 cd 29 bd 16 14 e8 bd 51 06 bc 3d
       -0.090736724 -0.04145566 -0.11331956 0.09180892
000220 56 97 46 3d 83 f6 36 3d 75 a6 ed bd 5b a4 08 be
       0.04848417 0.044668686 -0.11604015 -0.13343947
000230 ce c7 aa bd 18 f0 c2 3d e5 39 e3 3d 2b 16 30 3d
       -0.08338891 0.095184505 0.11095027 0.04298989
000240 cd 70 4d 3d fe e7 9c bd 74 fe 92 bd da 4d d5 3d
       0.050156403 -0.076614365 -0.07177439 0.1041524
000250 bc ec 8c bd 2d aa ba 3d 31 4a 73 3d 6c bf a8 bd
       -0.06881091 0.0911449 0.059396926 -0.08239636
000260 6f 96 a7 3d 89 0f d2 3d 50 0d c7 3d c8 b9 08 3e
       0.0818299 0.10256869 0.09719336 0.1335212
000270 c2 9f b3 3d 70 63 00 3e 46 60 0a 3d 6a 52 dd ba
       0.08770706 0.12537932 0.03378322 -0.0016885523
000280 fa 11 04 3e aa 60 27 3d cf f4 05 3d ac 51 ff bc
       0.12897483 0.04086367 0.03270417 -0.031166874
000290 9c db 65 3d 5c cd b2 3d 92 55 d9 bd f1 41 e3 bd
       0.05611764 0.087305754 -0.10612024 -0.11096562
0002a0 be e3 e6 3d cf 08 04 be 15 de 84 bd 53 89 8e bc
       0.11273907 -0.12893985 -0.06487671 -0.017399466
0002b0 33 25 f9 3c e9 5b c3 bd 96 d5 a0 bc 78 d4 b0 3d
       0.030413246 -0.09539015 -0.019633096 0.08634275
0002c0 8a 1e 19 3e 20 91 da 3d c8 f2 bc 3d 4a 49 bc 3d
       0.14953056 0.10672212 0.09225994 0.09193666
0002d0 c8 fa 11 3e b7 bf 9b bd 32 7b 6e 3d 08 1a 15 be
       0.14255822 -0.07604926 0.058222957 -0.14560711
0002e0 b0 f0 f4 3d 31 1a 24 3d 0b 3f 59 bd 82 8b 9c 3d
       0.1195997 0.04006404 -0.053038638 0.076437965
0002f0 55 bd 97 bc 27 3e 99 bd 67 97 12 bc 11 2d d8 bc
       -0.018522898 -0.07482558 -0.00894723 -0.026388677
000300 41 8e df 3d 76 f1 02 3e 0f 2f 92 3d 77 97 1f 3e
       0.10915805 0.12787423 0.07137882 0.15585123
000310 3c 84 3a 3d 64 40 e8 bd 24 86 b7 3a 43 cd a0 bc
       0.045536265 -0.113404065 0.0014001769 -0.019629126

lstm.weight_ih_l1 f4 [200, 50]
000000 b0 07 04 3e 46 72 88 3c 06 13 e9 bd 50 d7 95 3d
       0.12893558 0.016656052 -0.113805816 0.07316458
000010 88 df 11 be e6 42 c5 3d 86 50 a6 3c 23 4b cc bd
       -0.14245427 0.096319005 0.020302068 -0.09975269
000020 d4 e1 a6 3d 26 de 4d 3c f8 68 05 3e f0 1d d1 3c
       0.08148542 0.012565171 0.13028324 0.02552697
000030 e9 86 e9 bd 86 54 bd bd 0e 02 8a bd 62 dd 85 3d
       -0.11402685 -0.09244637 -0.06738673 0.06536366
000040 63 67 83 3d dc 76 b4 bd 95 09 f2 39 04 75 e8 bd
       0.06416204 -0.08811733 0.00046164976 -0.11350444
000050 68 ba c2 3d 9d 09 20 be 31 cb 19 3c be d2 ce bd
       0.095082104 -0.15628667 0.0093868235 -0.1009879
000060 7c 22 c4 bc 06 16 de bc 0a 63 de 3d a7 de 6a 3d
       -0.023942225 -0.027110111 0.10858734 0.057341244
000070 34 9a 86 3b d8 12 0d 3e 88 c0 e6 3c dc fb cc bc
       0.004107738 0.1377672 0.028167978 -0.02502244
000080 40 77 0a 3d 05 6c 00 3b f9 14 30 bd 6c e2 d7 3c
       0.033805132 0.0019595635 -0.04298875 0.026353084
000090 8d 74 98 3d 6e b9 e3 bd 51 d1 b5 3d 2d 54 e9 3d
       0.07444105 -0.11119352 0.088778146 0.113930084
0000a0 b8 2d 95 bd b7 70 b4 bd c0 8c 62 3d 8b c6 98 3d
       -0.07284111 -0.08810561 0.05531001 0.07459744
0000b0 8c ea aa 3d 89 a8 51 3d a9 7a c7 3d 74 4e df bd
       0.083455175 0.05118612 0.097401924 -0.109036356
0000c0 08 bf 5b bd 32 40 a2 bd 60 0d ef 3d a7 ed d9 bc
       -0.05364898 -0.079224005 0.11672473 -0.02660258
0000d0 f0 73 b4 bd dc 6b 15 be e4 bd bc bd b4 20 4e 3c
       -0.08811176 -0.14591926 -0.09215906 0.012581039
0000e0 fe 08 c2 bc 01 1b 42 bd 32 0f 30 3d 32 31 c5 bd
       -0.023685928 -0.047389034 0.04298324 -0.09628524
0000f0 c1 b7 a5 3d d6 91 3d bd ad 73 ed 3d 5b 79 d7 3d
       0.08091689 -0.046281658 0.11594329 0.105211936
000100 06 7f b3 3d d4 5d 9b 3d ec bc 75 3d 84 88 97 3b
       0.08764462 0.07586256 0.059994623 0.004624428
000110 83 a3 63 3d 43 79 21 bd 97 8f ed 3d 81 14 c2 bd
       0.05557586 -0.039422285 0.11599653 -0.09476567
000120 d4 c1 03 be e8 15 11 bd 8c 3d 0a bd 7b 68 ee bd
       -0.12866908 -0.035421282 -0.033750102 -0.11641022
000130 93 28 e3 bd c0 c4 c7 bd 3d 0b c1 bd 8d 5a f2 bd
       -0.11091723 -0.09754324 -0.09425972 -0.118336774
000140 f9 7c 40 bd 81 3e 94 bd 6c b9 13 3e fd b9 a1 3d
       -0.046994183 -0.07238484 0.14426202 0.078968026
000150 ff 4a 82 3d d6 ca bc 3b 6c 65 c9 3a e0 a4 c2 3c
       0.063619606 0.0057614846 0.0015365309 0.02376026
000160 ac d1 ca bd 3e fe b1 bd 0f f9 08 3d 37 62 9a 3d
       -0.09903273 -0.08691071 0.033440646 0.07538264
000170 62 55 18 3e 02 aa 29 bc e8 b5 08 3e 3d 9f 36 bd
       0.14876321 -0.010355474 0.13350642 -0.044585455
000180 4d a0 9b 3d 1f be 62 3c 4d e5 78 bc 4a bc 78 3d
       0.07598934 0.013839274 -0.015191388 0.06072644
000190 e3 81 92 3d a6 81 d7 3c e2 1e c4 3d 97 f7 25 be
       0.0715368 0.026306938 0.09576203 -0.1620773
0001a0 40 cb e2 bd 55 ed 39 bc 0e 29 e0 bd b7 57 3d bd
       -0.11073923 -0.011348088 -0.109453306 -0.04622623
0001b0 fb 60 f0 bb f1 3e 52 3a 8d 15 ca bd fc 63 a4 bc
       -0.0073357797 0.0008020243 -0.09867392 -0.020067208
0001c0 e1 1a 8e 3d 9c 94 32 3e 9d 87 49 3e fd 6e 0c 3d
       0.069387205 0.17439502 0.19680639 0.034285534
0001d0 df 90 de bc 82 26 29 be 31 88 b2 bd 93 67 d2 bb
       -0.02716869 -0.16518596 -0.08717383 -0.0064210384
0001e0 df bb cc 3d dc 4c 09 3e c4 4d ba 3c 88 d2 90 3d
       0.09996771 0.13408226 0.02274216 0.07071406
0001f0 62 c2 4d 3c df b8 00 3e 36 98 02 39 09 c2 01 be
       0.0125585515 0.12570523 0.00012454469 -0.12671675
000200 a1 91 d2 3d 31 e3 fa bd 34 1d be bd 79 db c9 bd
       0.10281683 -0.122503646 -0.09282914 -0.09856314
000210 7a 99 1a 3e dc 4c 3c 3d 45 90 12 3e 49 54 5e bd
       0.15097609 0.045971736 0.14312847 -0.0542796
000220 5d 7d 6d bc c6 a8 67 bd b1 88 bc bd 64 ef f2 3d
       -0.014495221 -0.05655744 -0.09205759 0.118620664
000230 6a e2 19 3d 79 e0 23 bc 15 b2 8f bd c9 85 95 bd
       0.03756944 -0.010002249 -0.07016388 -0.07300908
000240 89 4c 9c 3d c3 a7 ff 3d ec c8 2a bd 2c fd 43 be
       0.076317854 0.1248317 -0.04169552 -0.19139546
000250 15 6c 8b bc 28 03 b5 bd 3c 32 4b bd a8 60 92 bd
       -0.017019311 -0.08838493 -0.049608454 -0.07147342
000260 8a 77 25 bd ff 2b 62 bd af 30 99 3d 16 55 aa 3d
       -0.040397204 -0.05521774 0.07479989 0.0831701
000270 de 51 a0 3d ad 03 9f 3d 96 43 ec bd 33 60 9b bd
       0.07828115 0.07764373 -0.115363285 -0.07586708
000280 47 4a b3 3c 49 8a 97 ba 98 f0 7a bd 8b ea 85 bd
       0.021886004 -0.0011561598 -0.061264604 -0.06538876
000290 64 69 32 3c 7e b8 e4 bd d3 57 d4 bc 8c 23 d1 3d
       0.010889385 -0.111680016 -0.025920784 0.10211858
0002a0 4c 1c d6 3c 01 12 96 3d 45 87 f8 3c f9 b5 c1 bb
       0.02613654 0.07327653 0.030337939 -0.0059115854
0002b0 c7 1b a0 3d ad 4c 05 3d 22 28 0b ba 9d b2 1f bd
       0.07817798 0.032543827 -0.00053084095 -0.0389887
0002c0 a3 2d 32 3c b4 7b 24 be 65 48 9c bd 57 7f 15 bd
       0.010875138 -0.16062814 -0.07630996 -0.036498394
0002d0 1d 2e ed 3c 31 59 b2 3b 1f 52 0f 3e 84 bc cf 3d
       0.028952653 0.0054427614 0.1399617 0.101433784
0002e0 e2 81 07 3e 0f 7a 1a 3e 70 e2 c3 b9 dd 6f 40 bc
       0.1323314 0.15085624 -0.00037362007 -0.01174542
0002f0 dd d2 07 be 5a 2e 16 3e 5f 7c d3 bd 52 e1 c8 bd
       -0.13264032 0.14666119 -0.10326456 -0.098086014
000300 e1 90 4e 3d 1b de 81 3d c7 49 11 3e 60 6b 24 bd
       0.050431136 0.063411914 0.141883 -0.040141463
000310 9f c9 c1 3d 8f 65 17 be 51 85 21 bd 4e 1f 2d be
       0.09462284 -0.14784835 -0.03943378 -0.16906473
000320 58 f3 d4 3d 05 a3 c7 bd 01 7a b6 3c 34 80 d7 bd
       0.10397977 -0.097478904 0.022274973 -0.105225
000330 da 30 29 3d 6b 67 b5 3d b0 36 64 bd 24 b5 27 3e
       0.041306354 0.08857616 -0.055716217 0.16377693
000340 ca bf 87 bd 6e e7 ad bb 0d 67 05 3e c4 ec 9a bd
       -0.06628378 -0.0053071296 0.13027592 -0.07564691
000350 54 86 55 3d 35 bc a1 bd 3c eb d1 3c 48 31 8f 3d
       0.05213006 -0.07897226 0.025624864 0.069918215
000360 d8 f9 fb bc 0a d6 92 3c 2e be 05 be f0 c2 5e 3d
       -0.030758783 0.017924327 -0.13060829 0.054385126
000370 fe b2 9c 3d 94 7a 4a 3d d8 65 85 bb 99 e8 80 3c
       0.076513276 0.049433306 -0.0040709786 0.015735911
000380 07 b0 49 bd 70 84 b2 3c 49 d7 92 bc 19 ff e7 bd
       -0.04924014 0.021791667 -0.017924922 -0.11327953
000390 85 69 da 3d 95 ad eb bc db 4c c3 3c ed ea 81 3d
       0.106646575 -0.028769294 0.023840358 0.06343637
0003a0 a9 b4 69 3c c1 49 1e bd 79 31 d2 3a 0c 9d 98 bb
       0.014264264 -0.038644556 0.0016036473 -0.0046573933
0003b0 2c ff 9f 3d ea d5 8e bb bf 56 11 be 48 45 d2 bd
       0.07812342 -0.0043589966 -0.14193247 -0.102671206
0003c0 c2 bf a4 3d 2c 87 17 bd 38 67 c9 3c dd 4d 46 3d
       0.080443874 -0.036994144 0.024585351 0.0484141
0003d0 79 1d 07 bd d2 3b b8 3c a7 a8 57 3c f8 0b be 3d
       -0.03298709 0.022489462 0.013162768 0.092796266
0003e0 bb 7c ed 3d f8 3d 17 bb 8c 23 22 be 70 cc c5 bd
       0.11596056 -0.0023077708 -0.15833873 -0.09658134
0003f0 6c 1d 05 bd eb 03 5c bd dc d3 ce bd b6 5a 17 3e
       -0.032498762 -0.053714674 -0.10099003 0.14780697

lstm.weight_hh_l1 f4 [200, 50]
000000 1c 2e e2 3d a9 ad d5 bd f8 1d 02 3e f6 31 0a be
       0.11043951 -0.10433514 0.12706745 -0.13495621
000010 15 0a 99 3d 73 96 f4 3d 5f e2 82 bd 8e 07 d8 3d
       0.07472626 0.119427584 -0.06390833 0.10548316
000020 51 39 8b bd 5d e1 b0 ba fb 2d dd 3d 36 89 ec bd
       -0.067980416 -0.0013494898 0.10799786 -0.115496084
000030 df 78 5f 3d 73 e5 58 3c c9 43 e1 3c c3 da b7 3d
       0.05455863 0.013238299 0.027498143 0.08977272
000040 c6 c1 b3 bd 4c 34 93 bc 22 cd ac 3d 59 ca 8c 3d
       -0.08777194 -0.017969273 0.084375635 0.06874532
000050 6c e9 c7 bd c4 29 61 bc 77 17 c8 bd 0b 9a 16 3d
       -0.097613186 -0.013742868 -0.097701006 0.036768
000060 ae 3f 90 3c f6 65 90 bd 1b f3 14 bd 0b bd 83 bd
       0.01760849 -0.070506975 -0.036364656 -0.064325415
000070 f5 30 02 bc 41 06 ba 3c 27 ec 16 3e cd 34 8a bd
       -0.007946243 0.02270806 0.14738522 -0.06748352
000080 30 59 c2 3d fa 15 c6 bc a6 59 ff 3d 7e f6 0c 3e
       0.094896674 -0.024180401 0.12468271 0.13765904
000090 78 0f 69 bd 5a 94 70 bd ca da 66 bd 8a 48 40 3d
       -0.056899518 -0.05873523 -0.056360997 0.04694418
0000a0 6e e4 0c be 14 0e 50 3d 1c c0 44 3c e1 97 d3 bd
       -0.13759014 0.050794676 0.012008693 -0.10331703
0000b0 30 4d cf bd 77 b6 e0 3d 2c 14 e3 3c cd 69 1e 3d
       -0.10122144 0.109723024 0.02771958 0.03867512
0000c0 70 f9 ce 3d dc 29 99 3d 48 c8 48 3d 2d d6 71 3d
       0.1010617 0.07478687 0.049019128 0.059042145
0000d0 21 80 3f bb 7a 99 0b 3e 1e 71 43 bc f6 50 89 3d
       -0.0029220658 0.13632765 -0.011928825 0.06704895
0000e0 72 d5 04 be a6 db df bd ca d1 4a 3d f5 7b 30 3c
       -0.12972048 -0.109305665 0.049516477 0.010771741
0000f0 5c df 96 bb 6a 99 e2 3d f0 49 f7 bb 38 89 db bb
       -0.004604263 0.11064418 -0.007546656 -0.0066997074
000100 b0 19 05 bd df 3c c0 bd a7 04 20 be 8a 6e f4 3c
       -0.0324952 -0.0938661 -0.15626775 0.029837865
000110 50 21 e3 bd 37 f2 14 bd 31 81 da bb 2b 22 63 b8
       -0.11090338 -0.036363807 -0.006668233 -5.415284e-05
000120 d5 d7 ff 3d 11 c7 0c 3e 09 68 98 3b dc b9 f1 bd
       0.124923386 0.13747813 0.004651074 -0.11803028
000130 fd c3 b2 3b 6a 81 dd bd a2 a3 95 3d d2 b7 c0 bc
       0.0054554925 -0.108156994 0.07306601 -0.023525152
000140 4c bb 1e be 2a 94 2f bd 63 f6 94 3d 0a 70 ce 3c
       -0.15501136 -0.04286591 0.07273557 0.025199909
000150 cc 14 b3 bd 36 ca 02 3e 1c 38 2a bd b6 6a 18 bd
       -0.08744201 0.1277245 -0.041557416 -0.037211142
000160 98 36 a4 bc b6 95 f0 bd d4 08 07 3e 2b 37 75 bd
       -0.020045564 -0.11747305 0.13186961 -0.059867065
000170 d6 46 19 bd 6b f6 dc bc 6a 82 1e bd e0 b6 c6 3d
       -0.03742107 -0.02697297 -0.03869859 0.097028494
000180 b8 28 17 3c 70 6f 2d 3d 07 0f 0a bd 9e 78 e4 3d
       0.009226017 0.042342603 -0.033705737 0.111558184
000190 5d ee e8 3d 58 a1 fb 3d 1b ff df 3d f3 73 0c 3e
       0.11373589 0.12286633 0.109373294 0.13716106
0001a0 23 1f c1 3d 47 00 5a bd 9b 76 3b bd 4e 99 d7 bd
       0.09429767 -0.05322292 -0.045767408 -0.105272874
0001b0 b9 a2 4a 3d 87 f0 2f bd e0 7d 52 3d 45 74 9c 3c
       0.04947159 -0.042953994 0.051389575 0.01909841
0001c0 f1 4c f2 3d 2f 4f e8 3d ff 3d e9 3d 01 e4 f6 3d
       0.11831082 0.11343228 0.11388778 0.12055207
0001d0 69 04 ef 3d 25 74 12 bd 9b 71 d8 3d 85 77 e9 bd
       0.11670763 -0.035755295 0.105685435 -0.1139975
0001e0 71 c5 09 be e1 50 91 bd 3c 74 12 3e 8a d5 b4 3c
       -0.13454224 -0.070955046 0.14302152 0.02207448
0001f0 93 5e 99 bd ff a5 0b be 96 db a9 bd 55 fe bc bc
       -0.07488742 -0.13637541 -0.08293836 -0.023070494
000200 a8 3f c5 3d 0b fa 77 bd 59 83 bf bd 33 92 0e 3d
       0.09631282 -0.060541194 -0.093512245 0.034807395
000210 06 bd c6 3d 4e 50 e0 bd 7d 98 3a 3d 74 ee ae bd
       0.09704022 -0.10952817 0.04555558 -0.08541575
000220 eb 39 03 be 5c e0 d6 bc 20 59 14 be 40 63 c2 bd
       -0.12815063 -0.02623003 -0.14487123 -0.09491587
000230 a8 28 93 bc 2d e5 94 bd f6 77 00 bd 6a b3 0e be
       -0.017963722 -0.07270274 -0.031364404 -0.13935629
000240 ca 14 c8 3c 93 19 b5 bc b3 33 a5 bd a5 e3 9d 3d
       0.024423975 -0.022106921 -0.080665015 0.077094354
000250 5d 65 87 3d b2 50 c6 bd 97 c2 ad 3d 6d 02 09 3e
       0.066111304 -0.0968336 0.08484381 0.13379832
000260 f7 4d db bd 61 77 3a bc 8a 7e d4 bd a3 24 e2 3d
       -0.1070823 -0.011381001 -0.10375698 0.11042144
000270 1d d0 aa bd 55 b7 b0 bc db e1 20 be 77 a5 89 bd
       -0.08340476 -0.021571795 -0.15711157 -0.06721013
000280 94 fb be 3d 74 81 7a bd a8 42 ab bd b9 ed da 3d
       0.093253285 -0.061158612 -0.08362323 0.10689873
000290 5e d4 5f bd c1 20 4e bd 70 84 0e 3c 77 80 f2 bd
       -0.05464589 -0.050324205 0.008698568 -0.11840909
0002a0 4c 1b 0a 3c 00 5b 67 3d b7 0e 12 bb aa 0f 03 3e
       0.00842936 0.05648327 -0.0022286603 0.12798944
0002b0 a8 f8 af bd 11 4e 60 bd 79 d7 10 3e a0 83 50 3c
       -0.08592349 -0.05476195 0.14144696 0.012726694
0002c0 7a 9a 91 3c 29 e4 00 3e 50 25 9c bd e2 86 2e be
       0.017773855 0.12587036 -0.07624304 -0.17043641
0002d0 b7 4c 60 3d 0a 59 be 3d 30 7a 13 bd 7b 84 bb bb
       0.05476066 0.092943266 -0.0360052 -0.00572258
0002e0 ba 80 be 3c a1 46 d3 3d 93 b6 ad bc 45 db 82 3d
       0.023254741 0.10316206 -0.021205222 0.063894786
0002f0 51 27 4e 3d df d0 ba bc a1 3b 05 be 60 81 88 3b
       0.050330464 -0.022804676 -0.13011028 0.0041658133
000300 e5 f2 01 3e a7 0c 43 bd a0 ba a9 bc fa 1c 0e 3e
       0.12690313 -0.047619488 -0.020718873 0.13878241
000310 47 60 a3 3d 66 a9 f9 3c 2e 11 d7 3d ab fc ab bd
       0.07977348 0.030476283 0.10501324 -0.08397802
000320 0c 45 bd 3d 3e 9c 93 bd 84 43 fb 3d 02 68 14 bc
       0.09241685 -0.07207535 0.12268737 -0.0090580005
000330 5a 45 20 bd 6b 8c b7 3d f5 e0 a0 3a b3 78 5d bd
       -0.03912864 0.089623295 0.0012274074 -0.054070186
000340 cf 92 0b bd dc 66 c5 3c 16 50 e1 3d 84 be 4b 3c
       -0.034075554 0.024096899 0.11001603 0.012435559
000350 e9 2d 04 be 71 32 de bc d0 e2 e6 bd 2b fe 53 3d
       -0.12908138 -0.027123662 -0.1127373 0.051756065
000360 c3 ec 0f bc f0 a5 07 3e d9 23 b7 3d cf 2e e0 3b
       -0.008784476 0.13246894 0.08942384 0.0068415175
000370 a7 33 c6 3d 39 db 09 3d 1f b9 3f 3d b2 c2 bf 3d
       0.09677821 0.033656333 0.046807405 0.09363307
000380 a1 f7 d6 bd df 61 b2 ba 9f e2 32 3c 4e 1d a1 3d
       -0.1049645 -0.001360949 0.0109182885 0.078669176
000390 84 dd af bd 41 ee 1e be db 75 c7 3d 94 6f f3 3c
       -0.085871726 -0.15520574 0.09739276 0.02971629
0003a0 00 e5 13 bd 13 0a ed bc 1d 56 0c 3e b8 3d 38 bd
       -0.036107063 -0.028935468 0.13704725 -0.044980735
0003b0 39 7c e2 3d c8 f2 8c bd e4 f2 4c be 8a 9e 12 bd
       0.1105885 -0.06882244 -0.2001453 -0.035795726
0003c0 85 ae 22 3d c9 65 4c 3d 7c b8 f0 3d 20 5b 9e 3d
       0.039717216 0.049901757 0.117539376 0.077322245
0003d0 c1 3e 04 3d da f3 5a bd 7d 77 44 bd 68 43 5d bd
       0.03228641 -0.05345521 -0.047965515 -0.05401936
0003e0 51 9d 5f 3d 50 4e 69 3d 5d 60 4a bd ef c0 c4 3d
       0.054593388 0.05695945 -0.049408305 0.09607112
0003f0 36 0f e6 bd e1 3d f4 3d eb 97 22 3d 4f 26 f7 3c
       -0.1123337 0.11925865 0.03969566 0.030169634

lstm.bias_ih_l1 f4 [200]
000000 02 d8 96 3c f5 9d a6 bc 11 e1 3b bd a2 59 41 3c
       0.018413547 -0.020338992 -0.045868937 0.011801155
000010 71 3e 1c 3d 01 36 b9 3d f1 25 59 bd cc d6 cd 3b
       0.038145486 0.090435036 -0.0530147 0.0062817093
000020 52 c5 28 3d 85 ab 04 bd fa c1 cb bd e8 55 7b 3d
       0.041203804 -0.032390136 -0.099491075 0.061361223
000030 75 7d 31 3d 7c a3 f3 3d 58 94 a6 bd 86 5f 5e 3d
       0.043332536 0.118964165 -0.08133763 0.054290317
000040 7f df 23 bd 41 b9 35 bc 01 66 f8 3c 6b af ec 3d
       -0.040008064 -0.011091531 0.030322077 0.11556896
000050 84 8d 29 3e 3e 12 89 bd 45 1d e0 bd 98 7d 9a bd
       0.1655789 -0.066929325 -0.10943083 -0.07543486
000060 d7 48 1e bd ff 75 b2 bc ad cb 20 bd ad ab 12 bd
       -0.038643684 -0.02178478 -0.03925674 -0.035808254
000070 96 5c 19 3d cd 4d 81 bd 9f 8b cd 3d 70 56 91 bc
       0.037441812 -0.063136674 0.10036396 -0.017741412
000080 36 2d 8f bd 22 b1 1f bd f4 60 cc bc 13 1a e2 3d
       -0.06991045 -0.038987286 -0.024948575 0.110401295
000090 ef 6b f9 bd d3 1b 97 3d 1d bb 0b bd 3a 4a af bc
       -0.1217879 0.07378354 -0.034113992 -0.021397699
0000a0 2e e6 71 bd 09 be 8a bc 5f d9 e0 bd 0f 78 d7 3d
       -0.059057407 -0.016936319 -0.1097896 0.10520946
0000b0 01 24 8f bc f5 c1 35 3d c9 0c 82 bd 58 9b c1 3c
       -0.017473223 0.044374425 -0.06350095 0.023633644
0000c0 18 11 9a bd c3 92 c2 3c 31 dd d2 bc bb 3f 74 3c
       -0.075227916 0.023751622 -0.025740238 0.014907773
0000d0 33 69 21 3d 4b 0e bd 3d 6a ea 0e 3d 9f b5 c7 3d
       0.039406966 0.09231242 0.034891523 0.09751438
0000e0 32 a7 cb bd 3d fd 07 3d 92 06 17 bd 1e 1e 27 3d
       -0.09943999 0.03320049 -0.0368715 0.040800206
0000f0 87 d9 89 3d 56 dd dc 3d 10 66 4a bd cf 92 ac bd
       0.06730943 0.10784404 -0.04941374 -0.08426439
000100 f3 a7 05 3e f0 75 76 3d e7 66 20 bd f9 56 22 3e
       0.13052349 0.060171068 -0.039160635 0.1585349
000110 12 90 c8 bd a2 16 a0 3c f0 21 83 bd 66 99 88 3d
       -0.09793104 0.019542042 -0.064029574 0.066698834
000120 6e d9 ca bc 54 1a dc bd 7a e7 a8 bc a7 4c e3 3b
       -0.024761882 -0.10747209 -0.02061819 0.006936628
000130 7a 14 80 3d 1f 83 08 3e 0a 33 f8 3c 12 ca 04 3d
       0.062539056 0.13331269 0.030297775 0.03241927
000140 a6 20 f6 bd 0d 38 8d 3d 17 01 2e 3c 62 b7 35 bd
       -0.12017946 0.068954565 0.010620377 -0.04436434
000150 2b e0 74 3d 07 a6 1f bd 0e 64 6f bd e3 80 fe bd
       0.059784096 -0.038976695 -0.05844503 -0.12426927
000160 14 c1 a2 bd 15 57 0a bd 2b dc b5 bd 24 ad d6 bd
       -0.07946983 -0.033774454 -0.08879884 -0.10482243
000170 2e 25 ef bb a0 ab bd bd 82 92 93 3d bb 0d 21 bd
       -0.0072981333 -0.092612505 0.072056785 -0.039319735
000180 fc 38 e6 bd 69 c2 23 3e cc ba b0 3c b5 69 2e bd
       -0.11241338 0.1599213 0.021573447 -0.04258128
000190 ff 78 ec bc ca 16 06 be da d0 82 3d bc 89 8f bc
       -0.02886629 -0.13094631 0.063874915 -0.017521732
0001a0 ab b6 bc 3c 2c b0 b1 3d c6 79 03 be e2 83 42 bd
       0.023036322 0.0867618 -0.12839422 -0.047489055
0001b0 6a d8 b3 bd f1 45 41 3d 60 82 68 3d bb 9b b6 bc
       -0.08781512 0.047185842 0.05676496 -0.022291055
0001c0 7b 04 2e bd c4 61 86 bd ad 76 cb bd 9f 93 e9 bc
       -0.04248474 -0.06561616 -0.09934745 -0.028512774
0001d0 92 45 07 be c0 2f c7 3d e1 2e a6 3d e2 75 ab 3d
       -0.13210133 0.097259045 0.0811441 0.08372094
0001e0 80 46 07 be e0 98 ba bd 98 06 ba bd 59 81 9d 3d
       -0.13210487 -0.0911119 -0.09083289 0.07690687
0001f0 fa 95 79 bd 37 ea db 3d 9f ba b2 3d f1 12 6f 3d
       -0.060934044 0.10738032 0.087270014 0.058367673
000200 d3 5d c5 3d c3 10 a6 bd 8b 3f 6c 3c c6 f7 12 bd
       0.09637036 -0.08108666 0.014419447 -0.035880826
000210 87 3e c8 bd 05 a3 94 bd 71 d9 22 3d 40 78 f1 3d
       -0.09777551 -0.07257656 0.03975815 0.11790514
000220 d3 c1 05 3d da 1e c2 3d 2a 16 c5 bd a6 f8 6c bd
       0.03265555 0.09478541 -0.09623368 -0.057854317
000230 00 17 35 bd 57 01 48 3b 6b 2c 82 3d 83 b9 e8 3d
       -0.044211388 0.0030518377 0.06356128 0.113635086
000240 aa 95 cf bd de 92 c6 bc dc b1 ec 39 b4 97 40 bd
       -0.10135968 -0.024239954 0.00045145943 -0.047019675
000250 92 0a ba 3d 14 64 f4 3c 31 7a 07 3e 87 df a5 3d
       0.090840474 0.029832877 0.13230206 0.08099275
000260 8c 56 e2 3d d0 15 01 3d 4a c1 17 bd 6e b6 97 bd
       0.11051664 0.031514943 -0.03704957 -0.074078426
000270 fd 40 b0 bd 7f 5f a7 3c ff 57 2d bc 61 37 ec 3d
       -0.086061455 0.020431278 -0.010580062 0.11534
000280 af a6 f7 3d 55 ba bc bc 6a a1 15 3e 2e 2b 84 bd
       0.12092339 -0.023038069 0.14612356 -0.06453548
000290 a2 cc ce bd 79 63 20 3c 76 f7 f5 bb 6e c2 9c 3d
       -0.10097624 0.009789341 -0.0075063063 0.07654272
0002a0 75 e5 05 bc 85 b5 62 3d 68 d6 28 3c 3e 76 65 3d
       -0.008172383 0.05534889 0.010305025 0.056020968
0002b0 26 57 e0 3c 04 63 7b bd 0f 48 2a 3d fb dc 41 bd
       0.027385306 -0.061373726 0.041572627 -0.047329884
0002c0 32 bc 71 bd 68 38 87 3d 0c b2 12 3e 63 8c 00 3d
       -0.059017368 0.066025555 0.14325732 0.031383883
0002d0 7b 00 4e bd fe 5a 0a be 40 19 e8 3d 38 15 0a 3e
       -0.050293427 -0.13511273 0.11332941 0.13484657
0002e0 39 7b ec bd 2c 9c c7 3a bf bc 0a 3e ca 3f af 3d
       -0.1154694 0.0015229038 0.13548563 0.08557089
0002f0 a0 6f e7 3d 67 f4 98 3d c3 dc 73 bd 87 1a 0d be
       0.11300588 0.07468491 -0.059536707 -0.1377965
000300 dc fb 22 39 5a 19 56 bd 4b 70 89 3d 56 82 60 bd
       0.00015543349 -0.05227027 0.06710871 -0.054811798
000310 54 b9 55 bd 7f 76 92 ba 5d 66 72 3d ae 45 9c 3d
       -0.052178696 -0.0011174231 0.059179652 0.07630478

lstm.bias_hh_l1 f4 [200]
000000 37 54 a4 3d a1 eb 94 3d 96 e8 01 3b cd 4a f1 bd
       0.08023875 0.07271505 0.001982247 -0.11781845
000010 a8 18 d4 bc fb a9 0e be 8d d3 ae bd db 90 05 3e
       -0.025890663 -0.1393203 -0.08536444 0.13043539
000020 60 c6 c9 3d 10 45 06 be c1 6a 51 3d 02 85 1d bd
       0.0985229 -0.13112283 0.0511272 -0.038456924
000030 89 f6 a2 bd 69 6f 6b bc 15 50 13 3e 14 71 91 bc
       -0.07957179 -0.014369824 0.14386018 -0.017754115
000040 17 0c 4d bd f9 ea c9 3d 59 3a f5 3d 0d b1 a0 3d
       -0.050060358 0.098592706 0.119740196 0.0784627
000050 86 c7 de 3d e5 44 df bd 84 e6 6d bd 56 1a 04 be
       0.108779 -0.109018125 -0.058081165 -0.12900671
000060 53 de 53 bd 76 eb 7b 3d 92 58 db bd ae ac a3 3c
       -0.051725697 0.06150385 -0.10710253 0.019979801
000070 39 e2 c7 3d a1 4f 52 3d 21 7c b2 3b 65 c2 af 3d
       0.097599454 0.05134547 0.005446926 0.08582
000080 5e ba 0f 3d dd eb 9d 3d 96 8c 2f 3d 2b 22 af 3d
       0.035089843 0.07711003 0.042858683 0.08551439
000090 75 2d d0 bd 1a d5 62 bd 16 fe 84 3d c9 a8 64 3d
       -0.1016492 -0.05537901 0.064937755 0.05582503
0000a0 76 9f cb bd 11 12 bd bd d2 8d 4f bd 23 ae df bd
       -0.09942524 -0.092319615 -0.05067236 -0.10921886
0000b0 29 26 af 3c 23 4c e0 bc 30 ad 0c 3e 0f 62 a3 bd
       0.0213805 -0.027380055 0.13737941 -0.079776876
0000c0 98 d4 1e 3e 7b 1d e2 3d a6 ea 0d 3e 66 2f ab bd
       0.15510786 0.11040779 0.13859043 -0.0835865
0000d0 19 fa 82 3d d0 11 d8 bc 4c 01 db 3d 9f 92 c3 bd
       0.063953586 -0.026375681 0.10693607 -0.0954945
0000e0 cd 51 9c 3d e1 d4 1e 3e 44 31 3e bd 17 1e 95 3d
       0.0763279 0.15510894 -0.046433702 0.0728113
0000f0 81 0b e5 3d c1 52 2e 3d 1a e8 2b 3d 3a 5b eb 3c
       0.11183835 0.04255939 0.041969396 0.028730024
000100 f7 3b 02 3e 11 e0 36 3d 03 93 93 3c 15 59 ab bd
       0.12718187 0.04464728 0.018014437 -0.083666004
000110 00 4a 41 bd 20 64 01 3e b6 03 54 3d 50 7a fa bd
       -0.047189713 0.12635851 0.05176135 -0.122303605
000120 05 74 13 bc 3d 09 0e 3d 54 8d e0 3d 22 a4 46 bd
       -0.008999829 0.03467678 0.10964456 -0.048496373
000130 ff c3 a0 3a e4 0d 09 3e 79 2a 04 3e 3e e5 d2 bd
       0.0012265443 0.13384205 0.12906827 -0.10297631
000140 cd 6c 88 bc 9c 22 5e bd 38 03 16 be f2 9c 2b 3d
       -0.016653443 -0.054232225 -0.14649665 0.04189772
000150 11 c1 ce 3d 12 e1 0a be 6f fb bf 3d 42 ba d6 3c
       0.10095418 -0.1356242 0.09374129 0.026211862
000160 7c 4a fd 3d 77 c4 71 bd 19 a8 c0 bd 22 03 1b be
       0.123677224 -0.059025254 -0.09407062 -0.15137914
000170 e1 c4 07 3e 35 00 08 3e 96 96 f7 3d 0f 86 2c 3d
       0.13258697 0.13281329 0.12089269 0.042120036
000180 7f 0f 84 bd f1 41 8c bd 36 b0 06 3e 39 86 0a bd
       -0.06448268 -0.06848515 0.13153157 -0.03381941
000190 c5 34 fb bc 80 17 8d 3d 6d f1 fc 3d 62 da c6 3c
       -0.03066481 0.06889248 0.12350736 0.024274055
0001a0 9a 94 7e 3d 76 10 44 3d e9 26 6a 3d 7c e9 cd 3d
       0.062153436 0.04786726 0.057166014 0.10054299
0001b0 52 10 0d 3d e0 70 c0 3d 38 39 a3 3d 3f 72 f8 3c
       0.034439392 0.09396529 0.07969898 0.030327914
0001c0 2d 2b 4c bd c2 b4 d8 3d 3e 00 c8 bc fd 08 11 bd
       -0.049845863 0.10581352 -0.024414178 -0.035408963
0001d0 65 fd dd bd aa 1d 02 be 29 50 29 bd e6 f0 97 3d
       -0.10839347 -0.12706628 -0.041336212 0.074189946
0001e0 91 5a 05 3e f7 34 fd 3c 1f d1 76 bc 4b be 06 bd
       0.1302283 0.030909045 -0.015064507 -0.03289632
0001f0 ac 1b 10 3c cf b5 ab bd d3 41 b2 bd c3 86 76 bd
       0.00879566 -0.083842866 -0.08703961 -0.060187113
000200 99 c2 b9 bd c5 bf e9 3d 53 51 9e 3b 68 de c1 bc
       -0.0907032 0.1141353 0.004831472 -0.023665622
000210 eb f4 83 3c 43 36 ae 3b 71 38 b9 3d 33 22 2d 3d
       0.016107997 0.005316527 0.090439685 0.042268943
000220 7b 4d ae 3d 58 3a 2a bd 4a 86 8c 3d 4a 33 39 3d
       0.08510872 -0.041559547 0.06861551 0.04521493
000230 f3 b7 f4 3d 85 bf 88 3d 8a 59 ab bb 3b 32 7f 3d
       0.11949148 0.066771545 -0.0052291797 0.062303763
000240 c6 ee be 3d 08 bb cd 3d 9f 9a c4 bd 7c cc 49 3d
       0.09322886 0.10045439 -0.09599804 0.049267277
000250 ed 17 01 bd de 6f e9 bd ae 3c a4 bc 16 ef 36 3d
       -0.031516958 -0.1139829 -0.020048466 0.044661604
000260 58 47 9b 3d bd a3 66 3b 0e 28 08 be d3 b5 1c 3d
       0.07581967 0.003519281 -0.1329653 0.03825934
000270 23 d1 fd bd 01 a3 aa 3a 9d 0f 5a 3d 66 de 9e 3c
       -0.12393405 0.001301855 0.053237546 0.019393157
000280 80 bd 3c bd ef b4 e3 bc c9 a1 e5 3d 90 c8 82 3d
       -0.04607916 -0.027796237 0.11212499 0.063859105
000290 78 ac ee bd 20 bc ce bc 65 32 db 3d 7c cd 55 3d
       -0.116539896 -0.02523619 0.10702971 0.05219792
0002a0 e5 56 d8 3d fc 54 47 bd 80 a1 05 bd 34 33 cf 3d
       0.10563449 -0.04866503 -0.03262472 0.10117188
0002b0 ae 9b 0f 3e cc dc ba 3c 17 ae 60 bd a9 75 db bd
       0.14024231 0.022810362 -0.054853525 -0.10715801
0002c0 c2 dc 81 bd 84 2e f3 bd 07 f4 29 3c 8d 0f 76 bd
       -0.06340934 -0.118741065 0.010373122 -0.060073424
0002d0 06 42 75 3d 3e 6c 8b 3d 74 c2 e6 bd c6 24 e9 ba
       0.059877418 0.06807755 -0.11267558 -0.0017787449
0002e0 c2 01 ce 3c 00 62 e4 bd c2 a1 ee bb ca f7 49 bd
       0.025147323 -0.111515045 -0.0072824666 -0.049308576
0002f0 a8 b3 f4 3d 33 c7 01 3e eb 33 4b 3d d8 c5 db 3d
       0.11948329 0.12673645 0.04961006 0.10731095
000300 70 01 14 3d ba 26 0f bd 74 0b 36 3e 23 6f 08 3e
       0.036134183 -0.034949042 0.17777807 0.13323645
000310 20 8f fd 3d 64 3f 11 3e b1 19 7c 3d 19 2a d2 bd
       0.123808146 0.14184338 0.06154794 -0.10261936

fc.weight f4 [1, 50]
000000 29 79 ef 3d 0e 6a 11 bd 3e c7 00 3e 8a 88 06 3e
       0.11693031 -0.035501532 0.12576005 0.13138023
000010 65 ec 0b 3e 76 a7 ca bc f9 53 09 be 5a 81 31 bd
       0.13664396 -0.024738055 -0.1341094 -0.04333625
000020 18 59 cf 3d e0 65 a9 3d 38 5f 98 3d fa 98 35 3d
       0.10124415 0.08271384 0.074400365 0.044335343
000030 57 cf 01 bd 8f ba e5 3d fa 44 ec 3d 02 b0 f2 bd
       -0.031691875 0.11217224 0.11536594 -0.11849977
000040 4b 38 40 bd 81 5d 51 bd cf a2 ac 3d 6b 9b 87 bd
       -0.046928685 -0.051114563 0.08429491 -0.066214405
000050 b3 21 75 bd f5 59 be 3c 92 55 a9 3d 81 a6 01 be
       -0.05984659 0.023236254 0.08268274 -0.12661172
000060 32 e5 c7 bd c2 73 db 3d f9 4f 0f 3d 7c e4 b1 3d
       -0.097605124 0.107154384 0.034988377 0.08686158
000070 ae 3b a5 bd ba 68 2f 39 7a dc f8 bd 4f ef be 3d
       -0.080680236 0.00016728314 -0.121514276 0.09322988
000080 95 e4 8b 3d d0 f5 c9 3d c8 7a 60 3d fc 16 04 be
       0.06830708 0.09861338 0.054804593 -0.12899393
000090 5a c3 cc bd ac 0f 0d be a1 54 30 3d 5b 97 ac bd
       -0.09998198 -0.1377551 0.04304946 -0.08427306
0000a0 64 ea 83 3d 3b b1 af bc c9 fb 9c bd d5 b0 ef 3d
       0.06441191 -0.021446815 -0.07665212 0.1170365
0000b0 25 a2 95 bd e7 80 8b bd 30 88 13 be 08 cc 2a 3d
       -0.07306317 -0.068116955 -0.1440742 0.041698486
0000c0 54 82 01 3d f2 b7 de 3d
       0.03161843 0.108749285
