notebooks/treinando_modelo/lstm_model_pytorch.pth (torch, 129141 bytes, 9 tensors)

lstm.weight_ih_l0 f4 [200, 1]
00000000: b28a 3b3e ee53 d8bd 797a 06bd 25ea ffbc
00000010: c915 423d dd2f 563d fb49 77bd d046 4f3c
00000020: 7d46 d03d 7251 663d 563d 1cbe eb54 543c
00000030: 4579 3e3e 09c1 ec3c a1bd 2c3e bcbe 0f3e
00000040: 3943 abbc e9c2 2f3e d3e9 b53d ccea a8bc
00000050: 9291 0e3e 1463 e43d 3cff 6a3c 77ac e5bd
00000060: 3efa 383e 2fd7 74bd 20b1 5fbd 22bf 0f3e
00000070: 1c18 e1bc effd e13d 36d9 113c 6b8c 0a3e
00000080: 292e 02be 0529 f13c fc5e 2c3e be2a c03c
00000090: 4a48 cf3d 0e9e 153c 3d30 48bd 5dca 2ebe
000000a0: e332 8b3a 0e19 723d 9c51 b63d 7072 0e3d
000000b0: cf9d a63d ec0f 093e 83cb ff3c 84e0 343e
000000c0: dbac 2e3c 0771 ad3d 3818 83bc cc21 993d
000000d0: 7671 a03d 9fc5 86bd d264 b6bd ddfb 4a3d
000000e0: 7bf2 4c3d e5bd c4bd 4d41 bbbd a467 76bb
000000f0: 9d52 253d 6c4c d33d d3fc 423e efce 883d
00000100: 4ca6 343e 6a27 3c3e 80e7 28bc ad85 3d3e
00000110: a9e2 52bd 394e 393e 279c 8fbc 6349 83bc
00000120: ed31 08bd ce5a b33c 5ee2 1d3e 38c7 0b3b
00000130: c6f8 1e3e dbf0 113e a410 fdbc a8c5 7a3d
00000140: 8f32 49bd 1940 1dbd 66a0 6dbe f377 c53d
00000150: 272c 283e 83b5 443d 10e2 04bc c7e9 343c
00000160: 0e2f 343e b432 10be df7a 90bd 8855 75bc
00000170: d221 373b 0d0a 003d 27ba b03d fcd1 2e3e
00000180: a800 40bd bc5f e03d cd2a e23d a146 09bd
00000190: f1c6 82bd 3f9d 24be 6322 2a3c 5b88 4a3e
000001a0: 9f0e 92bd dfa0 213e b5b8 bd3d 2d09 24be
000001b0: fe9d 213e d44b 28be 1efd cfbd e9a5 a43d
000001c0: f41c 1a3e e05b 11be 59cc a23d 6e20 e3bd
000001d0: 46b0 c8bc fd5b 263d ac78 18be 962d d23d
000001e0: e43c e93d bda6 09be 90f0 47be e08c dc3c
000001f0: fdd9 24be 9d2c 41be 01c3 503d c865 ccbc
00000200: 5fff 023e a505 7cbd 1561 aa3d 646c 013e
00000210: 9546 09be 8fa8 5ebc 0003 67bd 681d 0f3d
00000220: b5ce c13d 9367 893c da36 24be 361f a8bd
00000230: 95ed 9f3d f8f5 15be 5901 3fbe 4b4c f53c
00000240: bdea c0bd fa33 383e 079b 3a3e ea43 123e
00000250: b6e5 ab3d 7eb8 6a3d 20ea 093e 8edb ecbc
00000260: 0e11 383e 12fe a63d 309a 0f3e b85e d0bd
00000270: 0ac9 87bc 65fe f7bd ee9a a6bc 5f24 4a3e
00000280: be7d a9bd 2446 ca3c e3bb 40bd 6a83 7cbb
00000290: ddc8 d2bc ece5 b4bd ba5a b83c c4a4 7ebc
000002a0: c542 cbbd 3c1b 133b 9961 b83d eb7f 423d
000002b0: 97ba 813d f1fc 39be c159 423e b1e5 a43d
000002c0: 6972 bd3c 5fe1 373e f81c 4cbd 9386 a43d
000002d0: bdfe 2dbd 5c71 84bd 862b 51be 585a 2c3d
000002e0: 8167 2a3e cb1c 333d 79f5 9e3d 5ed4 283e
000002f0: d66a 073e a304 3fbd cbf7 2c3e eeb3 92bd
00000300: df1b 7c3d 4207 113e 6c08 473e 37cd 243e
00000310: b782 7b3d 80ee 89bd 2370 cf3d dfcd dcbd
0.18314627 -0.10562883 -0.032831643 -0.031239579 0.047384057 0.05229174 -0.060373288 0.01265116
0.101696946 0.056230016 -0.15257773 0.012959699 0.18600948 0.02890064 0.16869213 0.14037603
-0.020906078 0.17164196 0.08882489 -0.020619772 0.13922718 0.1115171 0.014343079 -0.11214536
0.1806421 -0.059775528 -0.05461228 0.14037755 -0.027477317 0.11034762 0.008901885 0.13530128
-0.12712921 0.029438505 0.16833109 0.023457881 0.1012121 0.009131921 -0.04887413 -0.17069383
0.0010620024 0.059105925 0.089022845 0.034777105 0.08135568 0.1338498 0.031224972 0.17663771
0.010661329 0.08468824 -0.01600276 0.07477149 0.07834141 -0.06580662 -0.08905949 0.0495566
0.050035935 -0.09606532 -0.091433145 -0.0037598396 0.04036199 0.10317311 0.19041757 0.066800945
0.17641562 0.1837441 -0.0103091 0.18508025 -0.05148569 0.18096246 -0.017530514 -0.016026204
-0.033250738 0.021893885 0.15418383 0.002132846 0.15524587 0.14252035 -0.030891724 0.061223656
-0.049120482 -0.038391206 -0.23205718 0.09642019 0.16423093 0.048024666 -0.008110538 0.011042065
0.17596075 -0.14081842 -0.07054686 -0.0149740055 0.0027943742 0.031259585 0.08629256 0.1707229
-0.046875626 0.1095576 0.1104332 -0.033514623 -0.06385601 -0.1607561 0.010384175 0.19778578
-0.07131695 0.15784024 0.09263746 -0.16019125 0.15782925 -0.16435176 -0.101557 0.08039457
0.15050107 -0.14195204 0.079491325 -0.1109017 -0.024498116 0.04061507 -0.14889783 0.10262601
0.11388567 -0.13442512 -0.19525361 0.026922643 -0.16098781 -0.18864675 0.05096722 -0.024950877
0.12792729 -0.06152882 0.08319298 0.12639004 -0.13405831 -0.013589992 -0.056399345 0.034940153
0.09463254 0.01677302 -0.16036549 -0.08209078 0.07808987 -0.14644611 -0.18652858 0.029943606
-0.09419773 0.17988577 0.182232 0.1428372 0.08393423 0.05730485 0.13468218 -0.028913286
0.17975256 0.08153929 0.14023662 -0.10174316 -0.016575355 -0.12109069 -0.020337548 0.19740437
-0.082759365 0.024691649 -0.047054183 -0.0038530477 -0.025730545 -0.088329166 0.0225042 -0.015542213
-0.09924845 0.0022446653 0.0900299 0.047485273 0.06334417 -0.18162896 0.18979551 0.08051623
0.023125844 0.17957066 -0.049832314 0.080334805 -0.042479265 -0.06466934 -0.20426759 0.042078346
0.16641046 0.04372863 0.07761664 0.16487262 0.13224348 -0.04663528 0.168914 -0.07163225
0.061550017 0.14162925 0.19436806 0.16093908 0.061403956 -0.067349434 0.1012881 -0.10781454

lstm.weight_hh_l0 f4 [200, 50]
00000000: e7ac e6bc 51ce 823d 0b3a fd3d 70f8 56bd
00000010: 55e6 f0bd 06fa 763d 9b2b 2d3e 61bc 893d
00000020: 26a4 193c 7a0a ef3b 3a4c 86bd eafe ba3d
00000030: 8cf4 143d 2a12 3b3d 6b6d dd3d 18b3 a1bd
00000040: d6fd 073e aa70 12bd 10bc 8c3c be99 2b3c
00000050: 7ed6 8d39 b21b dabc 7253 15be ebcd 6d3d
00000060: 33df 14bd b5ff cc3d f9f5 02be 3ed7 c0bd
00000070: d18c 97bd c5db 47bd 28e7 1f3e b9dc 38bd
00000080: e737 9ebc cb71 05be 16de 993d 8fbb a33b
00000090: 1e03 0a3d c4f3 aabd 1cd6 443d 4967 e5bd
000000a0: b328 dfbc 9058 0abe d1d6 293d fd68 ffba
000000b0: 4c82 dfbc d3aa f6bc 8c67 55bc aff8 523d
000000c0: 0abe 90bc 1cf3 453c 6ad7 c23c 8d14 043e
000000d0: 569f 2a3d 61b4 a73d d131 1fbd 8942 7d3d
000000e0: 705e 62bc caf4 083e f755 8a3b d4f2 1b3e
000000f0: c250 1f3d 02fb 093d e27e 6b3d 04ee 3a3d
00000100: 2ac0 0cbd 0302 aabd 334d b13d cd90 e8bd
00000110: 5f1b a1bd 1193 253c f067 b03c d914 01bc
00000120: 4298 903c 5140 c03d a2d1 e93d 478a d5bd
00000130: f3ef 0abe c704 c8bd 29ce a63b 4b41 ed3c
00000140: 0802 e93d 26a8 4ebd 0085 9ebd 86ef a23c
00000150: 5f4b f33d 7073 663d 0971 023d ab48 f7bd
00000160: 3bbb 52bd 9364 073e dcb8 8b3d c29c 9e3c
00000170: 890a dfbd f6f6 f8bd 7cbb 44bd 8b48 a7bc
00000180: 9414 073e af74 e13d 02f5 f1bd 1ddf fabd
00000190: e411 c6bc 51fe 723d 4730 57bd 14fb 0e3d
000001a0: 5902 633d 7767 2d3d edce c1bc d756 813c
000001b0: 82c1 353e 718f 13be a62c 6bbd db55 d4bc
000001c0: 9feb 7fba 96bb 833d 9d1c bf3d ac1b cabd
000001d0: bd0e 19be f6e8 353d 53c5 e33d 9cc6 0f3e
000001e0: 9bb1 b2bd 16c3 573d 6ebf b9bd 323e b7bd
000001f0: 319b 12be 81e0 dcbd 28ef 0f3d c156 593d
00000200: fc3f 2cbd 06b3 1abe 631e 4dbc 8b8d 7abd
00000210: 9192 27be ef23 4f3d 5074 e4bb 1942 8dbd
00000220: 3617 febd 2fa9 e63d 9216 2ebe dcc7 d6bc
00000230: 4bbb 75ba 96a9 84bb caaa 4ebd 392a 10be
00000240: 46d0 25bd c9dd bc3d e50d 56bb ec67 8f3d
00000250: 1696 d2bc a66b 02bd 1a3c 443d fed8 1e3e
00000260: 9d08 febd 1147 39be 998d 03bc 2b07 f93c
00000270: 4a19 f63c c326 ccbc c265 75bd ceae 093e
00000280: 4a8c 183e cc1b 193b f0b5 5bbd 9580 133e
00000290: e8ee 80ba c518 213d c6cf 7f3d 92b0 8fbd
000002a0: 4e48 1a3e 9e8c ad3d 211a f43d 9a47 2a3e
000002b0: 4817 f43d 26a1 f13d d3d9 f2bb ac74 213d
000002c0: 1900 a43d 6793 053c 9c6f 11be c131 c8bc
000002d0: ac45 ddbd ed25 e43d a7dd 17bd d927 d63d
000002e0: 8ed4 0fbe 3177 a9bd 7be0 5a3d caf4 6abb
000002f0: a101 97bd 37ad af3d 58da 1fbe 556e ce3c
00000300: eced 993d 1f01 e33d b727 f2bd 1dc4 2bbe
00000310: fc53 6dbd 1b3f 89bc ba7f fbbc 6eac 6a3d
00000320: 7572 fe3d fbd3 d9bd 6c47 d6bc ff26 043e
00000330: 1701 493c ceae 5ebd 6e7e 733d cc8d 513d
00000340: 3cbc 963d db85 203d f262 f83d 1bfd ddbd
00000350: 6d10 70bc da0d 4cbd 6640 13be fc69 cfbd
00000360: e726 96bd 83e2 153e f2b6 00be 0552 383d
00000370: 6aa2 1a3e 7fbf 7fbd 5aba 38be e300 5abd
00000380: b9d2 cebd 551c a33d 8f99 bbbd 6362 d2bb
00000390: 0a4c a4bd 4a6a a73c 2d79 f13d f65f 933d
000003a0: 341d 84bd b966 0c3e 42cb 0ebe 26a3 e53b
000003b0: ce7f 53bc f7e3 debd f5e1 d3bc e73c f03d
000003c0: 5bee 30bd d264 67bd 0b63 8f3d bcd9 0ebe
000003d0: 88e4 f1bb 989e 1a3d 5e89 0a3e c08b d13c
000003e0: 5631 753d 62cf 093c f187 063e 1c75 e03d
000003f0: 25ff 13be e96b 8f3d e8e9 7bbd b591 90bd
-0.028158618 0.06387008 0.123645864 -0.052483022 -0.11762682 0.060297035 0.16911165 0.067253835
0.009377515 0.00729495 -0.06557508 0.09130652 0.03636603 0.04567162 0.108118854 -0.078954875
0.13280424 -0.035751976 0.017179519 0.010473667 0.00027053425 -0.026624534 -0.14582613 0.058057707
-0.03634567 0.1000971 -0.12789144 -0.09416054 -0.073999055 -0.048793573 0.15615523 -0.045132373
-0.019313766 -0.1303169 0.07513063 0.004996724 0.03369438 -0.08347276 0.048055753 -0.11201341
-0.027241087 -0.13510346 0.04146463 -0.0019486245 -0.02728381 -0.030110752 -0.013025176 0.051506694
-0.017668743 0.012081888 0.023784358 0.12898465 0.04165586 0.081887014 -0.038865868 0.06183103
-0.013816461 0.1337463 0.0042216736 0.1522935 0.038895376 0.033686645 0.05749405 0.045637146
-0.03436295 -0.08301165 0.08657303 -0.113557436 -0.07866549 0.010105864 0.021533936 -0.007878506
0.017650727 0.093872674 0.114169374 -0.10426765 -0.13568096 -0.09766536 0.005090494 0.028961798
0.113773406 -0.050453328 -0.077402115 0.019889604 0.1187961 0.056262434 0.03184608 -0.12074407
-0.05144809 0.1322196 0.068223685 0.019361857 -0.10890681 -0.12156479 -0.04803036 -0.020420333
0.13191444 0.11008584 -0.1181431 -0.12249587 -0.024178453 0.059324566 -0.052536275 0.034907416
0.05542216 0.042335 -0.02365824 0.015788479 0.17749599 -0.14410187 -0.057415627 -0.025919845
-0.00097625883 0.064322636 0.093316294 -0.09868559 -0.14947028 0.044411622 0.11121621 0.14040607
-0.08725282 0.052676283 -0.090697154 -0.0894741 -0.14317013 -0.10785008 0.035140187 0.05306125
-0.042053208 -0.15107355 -0.012519452 -0.061170142 -0.16364504 0.05057138 -0.0069718733 -0.06897373
-0.12406771 0.11262738 -0.17000797 -0.026218347 -0.0009373917 -0.0040485365 -0.050455846 -0.14078607
-0.04048183 0.0922199 -0.003266209 0.070022434 -0.025706332 -0.031840943 0.04790888 0.15512463
-0.124039866 -0.18093516 -0.008029365 0.030398926 0.030041356 -0.024920827 -0.059911497 0.13445589
0.14897266 0.0023362515 -0.053640306 0.14404519 -0.0009836825 0.039330263 0.062454008 -0.070161
0.15066645 0.08474086 0.11919046 0.16628876 0.11918503 0.11798315 -0.0074112206 0.039417908
0.08007831 0.008152819 -0.14202732 -0.024437787 -0.108043045 0.11140046 -0.03707662 0.10456819
-0.14045927 -0.08274687 0.053436738 -0.0035851472 -0.073733576 0.0857796 -0.15610635 0.025199095
0.07516083 0.11084198 -0.11823981 -0.1677403 -0.057941422 -0.016753724 -0.030700553 0.057293348
0.12424175 -0.10636135 -0.026157103 0.12905501 0.012268326 -0.054365925 0.059446745 0.05116062
0.073601216 0.039190155 0.12128247 -0.10839292 -0.014652354 -0.049817897 -0.14380035 -0.10127637
-0.07331639 0.14637189 -0.12569788 0.045000095 0.15101019 -0.062438484 -0.18039837 -0.053223502
-0.10098786 0.07964388 -0.09160148 -0.00642042 -0.08022316 0.020436425 0.117906906 0.071960375
-0.064508826 0.1371106 -0.13944724 0.007007974 -0.012908889 -0.108833246 -0.02586458 0.11730366
-0.043196063 -0.056492634 0.07001313 -0.13950247 -0.0073819794 0.037748903 0.13528964 0.025579333
0.059861504 0.00841126 0.13137795 0.10959837 -0.14452799 0.07003004 -0.061502367 -0.070590414

lstm.bias_ih_l0 f4 [200]
00000000: e034 993d 00f7 913c ad7b 94bd 491d 233e
00000010: 1d08 853d 8e03 863d bb92 2ebd 4570 bdbc
00000020: 19ea 5e3d 98d2 ac3d 9553 803d f51e a53d
00000030: 389a 73bd 4631 063e 929a bf3d 0337 60bd
00000040: ed89 b43d 5d31 03be c7a3 863c 0ed6 73bd
00000050: 9ea7 53bd dd35 ef3c 4b7e 333d a542 a0bd
00000060: 82eb 71bd db71 aabd 11af 5b3c a9b6 353d
00000070: 19b3 1c3e 7a23 ed3c 656a 213e 2ce0 7dbd
00000080: 690f 61bd 734e b4bc 5d5d 18bd 2e70 683c
00000090: 943d c0bd 4dd6 9f3b 001d d73c c1c5 cc3d
000000a0: eaac f03d 38f1 17bd 0f31 e1bd cf1f 623c
000000b0: f1ae 3bbd ae6c 1d3e 4b42 2cbd 54d2 3bbc
000000c0: 058c 67bc 5c27 09be b5ed ddbd b386 fe3d
000000d0: e386 4e3d 2303 38bd b1bf 663d 4ade c63d
000000e0: c658 483d 6c41 183e 9f44 003e 0e6c 073e
000000f0: 42c7 d6bc b4fb 5cbc 253f 89bd 8eb5 a93c
00000100: 67bf 00be 9cfe d9bc 05e0 eabc 9468 37bd
00000110: 5533 f3bd 2bc3 393d 4e32 b23d bc52 15be
00000120: 0270 0f3e e290 22be b45d 083e e5ee 793d
00000130: 838f 943d fe18 503d 79dc 473c 63ea 5fbc
00000140: ec08 1d3e 8cac 2bbc 762a 5bbc 10ed 97bd
00000150: 1e55 183d 9979 65bc ac49 ec3d e795 03be
00000160: b0ed 1c3e b3d0 8fbc 1b6b df3d 0623 a93d
00000170: 2cc8 7b3d 830c 9fbd 2ff0 e7bd 322e e03d
00000180: 2617 25bc 860c dc3b e709 073e fa15 e0bd
00000190: 8164 c7bd f142 6e3d 0e4f b5bd 2eb1 acbd
000001a0: 1603 063c 0a9e 1abe 236f a93d a4a8 b13d
000001b0: 43a3 99bd 39f2 aabd 2d6e ce3d 9a96 efbc
000001c0: e1e0 583d c027 d0bc 0d4e b4bd b14a 263c
000001d0: 7175 c3bd 162d e53d 320c ea3d 4add c2bd
000001e0: c2f4 0b3e aa22 003e 24a5 f9bc e488 3bbd
000001f0: d77d 273d d8ec a23d 5efe e93d 6252 0bbe
00000200: e58e 2c3d a162 013d 631d 833d 834d 09be
00000210: ac29 a03c 9ec1 f03d 362f fbbb 8b99 9e3d
00000220: a072 8e3c f366 05be 02df 0abe 77e9 f33d
00000230: e2b7 63bd dd4a 4f3c 5b82 42bd f35e f3bd
00000240: b0c9 f03c cea7 a6bd bca5 f8bd f488 f23d
00000250: 4ab0 01be 3ee3 b93d 4e72 f2bd c389 e13c
00000260: 648d f7bd 5f2a 8abd 58dc a93d ea9c be3d
00000270: 4ad4 31bd 0539 c1bc 83e9 ec3d 2d63 353c
00000280: 9b49 d5bd d15c 2cbd 609f e4bd 7999 cfbd
00000290: 0032 2cbc 2e2b 0b3d 1e58 2c3d bae8 7fbd
000002a0: 8788 a6bb dd44 18bd ea4e 2fbd 0447 3b3d
000002b0: 35c1 d83d f734 903d ebc7 a53d 0443 d43d
000002c0: beba 33bd 7911 c23c fd6c f23c 2c47 debc
000002d0: 5704 743c 2dd8 273e fc22 66bd 72ab 1dbd
000002e0: 7dda 413b f8b7 253a f2ee ee3d d9da f63c
000002f0: 1379 48bb a401 b33d 7cdc a8bd 181e 643d
00000300: ce97 393d 790f f8bd f67f 3fbc 4aef 4d3d
00000310: 5b14 e33d 4726 cebd 6209 98bd e19b d5bd
0.07480788 0.017817974 -0.07250152 0.1592914 0.06495688 0.06543647 -0.0426204 -0.023124823
0.05442247 0.08438605 0.06265942 0.08062545 -0.059473246 0.13104734 0.09355654 -0.054739963
0.0881537 -0.128118 0.016435517 -0.05953031 -0.051673524 0.029200489 0.043821614 -0.078252114
-0.05906249 -0.083224975 0.013408438 0.04436365 0.15302695 0.02894758 0.15763243 -0.061981365
-0.054946337 -0.022010064 -0.037198413 0.014186902 -0.09386745 0.0048778416 0.026258945 0.09998656
0.11751731 -0.03709528 -0.10995685 0.013801529 -0.045821134 0.1537349 -0.04205541 -0.01146372
-0.014132504 -0.1339392 -0.10836355 0.124280356 0.050421607 -0.044924866 0.056335155 0.09710367
0.048912786 0.14868706 0.12526177 0.13224813 -0.02621806 -0.013487745 -0.06701497 0.020716455
-0.12573014 -0.026610665 -0.028671274 -0.044777468 -0.11875025 0.045352142 0.08701001 -0.14582342
0.14007571 -0.15875581 0.13316995 0.061018843 0.07253935 0.050805084 0.012198561 -0.013666722
0.15335435 -0.01047815 -0.013376823 -0.07418263 0.03719055 -0.014006042 0.11537489 -0.12850152
0.15325046 -0.01755557 0.109091006 0.08258633 0.061470196 -0.07766058 -0.11325108 0.10946311
-0.01007632 0.00671536 0.13187371 -0.10941692 -0.097359665 0.05816931 -0.08852969 -0.08432232
0.008179447 -0.1509935 0.08273151 0.08674744 -0.07501843 -0.083469816 0.10079608 -0.029246617
0.052948836 -0.02540958 -0.088039495 0.010149644 -0.095438845 0.1119024 0.11428107 -0.09514864
0.13667586 0.12513223 -0.030474253 -0.045784846 0.040891495 0.079553306 0.1142547 -0.13605645
0.042128462 0.0315882 0.064020894 -0.13408475 0.01955112 0.117556795 -0.00766554 0.0774413
0.017388642 -0.13027553 -0.13561633 0.11909764 -0.055595286 0.012652126 -0.047487598 -0.118833445
0.029393047 -0.08137475 -0.12140986 0.11842528 -0.12664905 0.09076546 -0.11838208 0.02753151
-0.12087515 -0.06746363 0.0829398 0.09307273 -0.043415345 -0.02358676 0.11567976 0.011071009
-0.1041443 -0.042080704 -0.11163211 -0.101366945 -0.010509968 0.033976726 0.042076223 -0.062477805
-0.0050821933 -0.03717505 -0.042799868 0.045722023 0.10583726 0.07041352 0.08094772 0.10364345
-0.043879263 0.023689972 0.029592985 -0.027133547 0.014893613 0.16391058 -0.056185707 -0.03849358
0.0029579692 0.0006321664 0.11666669 0.030133652 -0.0030589744 0.08740547 -0.08245179 0.055692762
0.045310788 -0.12112326 -0.011688223 0.050277032 0.11087867 -0.100658946 -0.07423665 -0.10430122

lstm.bias_hh_l0 f4 [200]
00000000: 2f2a 59bd ae94 563c f539 143e 21e7 203e
00000010: 89f2 e83d 6127 143e 2b1c 3c3d 9e13 14b9
00000020: 2267 473b 24cd be3c e5e5 f3bd 99cd d5bb
00000030: 84ad 9dbd c2e8 433d 9e41 8bbd a5e9 523a
00000040: 299f 08bd 9e24 893d 71dd d93d 996b 123e
00000050: 2a48 ebbd d26b 18be 12ea 323d 4d81 08be
00000060: ef5a f1bc 07f3 2cbd ba77 aabd 5720 bdbc
00000070: 3b7b 183e 0185 a63d d8cc 7ebc ecac 21bd
00000080: b756 553d 00b6 15be 0240 0b3e f44b 1fbd
00000090: 6c8f 7a3d 0101 10be 47ac fb3d e40d 123d
000000a0: 2298 2f3d 5847 4b3e c676 2b3e 2c2c bcbd
000000b0: 62a7 e7bd d539 263d 51fe 6bbd ea32 ad3d
000000c0: cdd4 663c 62c3 973d 7fe4 e5bb 177e 503d
000000d0: 5e80 b6bd c624 4ebd 2b6c d03d fbc5 5e3d
000000e0: eb2a 44bc 0734 2d3e 005d 01bc ae0e 98bc
000000f0: a6ec 9ebd f13f a9bd 5d0d c5bd 3e09 ed3d
00000100: b71f e33d 546f cd3d c394 f8bd c81b a2bd
00000110: ba16 ccbc 137d 7abd 88cd 063e c951 983d
00000120: 05d0 083e 32a2 73bd d721 53bd 81b2 4f3d
00000130: 3f30 733c 236f b43d d8ab e63d 6701 cbbd
00000140: cbee ab3d 43f7 853c c5ce 9cbc cc69 ec3d
00000150: 44a5 a63d 4cbc babc 90bb 8a3d 3a1c 07be
00000160: c597 12bd 0bd5 0b3e 0023 50bd 5adf e3bc
00000170: fe42 cebc 2414 343c c292 513c 346c ccbd
00000180: 983d 243c 8b84 0c3e 128a 88bd 0a6f 353d
00000190: 53c8 1bbd cdd9 273d 65e5 a9bc 787e d1bd
000001a0: 25ed 30bc 536a 00bd 2e66 efbc d438 e63d
000001b0: 28c0 f03d ed6f 1fbd 20cf 8b3d fe5b 62bd
000001c0: 0446 a33d 0ae5 57bd 72f7 aebd 241b f7bd
000001d0: 933d b8bd 48db 833d 5b30 e53d 0103 003e
000001e0: 0162 803b 9db1 e23d 5576 fa3d 0c67 e53d
000001f0: ce2d 87bd aa90 973c 48f6 b73d 4c8b 993d
00000200: 1f5f 9b3c 1c46 c1bd 3b55 2a3d b3fc a83d
00000210: 5081 a13d 2545 4abd 80a5 0dbd 0094 fbbd
00000220: 9afd 0ebe 3494 853d 4037 c83d 0332 273d
00000230: 88ab 4bbb c919 213d 422c 8e3d 6727 debd
00000240: c3a5 c7bd ea3a 9c3c 9c14 b23d dff3 04bd
00000250: 0e69 183d aa27 bebd 8e64 743d fd82 53bc
00000260: 043c 473d 88b8 2e3d cd7a bf3b 3c92 923d
00000270: cdf0 a2bd 606a 87bd 24ff 233d c11f 5b3c
00000280: df9c 483d 94e6 dbbd 0929 0b3e 1525 003e
00000290: cd6d a1bd ded8 78bd 2864 c83c 3f10 963c
000002a0: 8111 c6bd 368f d93d 16b0 d13d 3554 d4bb
000002b0: 7a67 153e 1b67 74bc 6128 bb3c 6a64 073e
000002c0: 8378 f8ba 5ff7 943d 5c96 14bc 7480 19bd
000002d0: 5e5e 8f3d d2c6 d53d 763e 2c3d 57ad 813d
000002e0: 663f ea3d 8fd9 ecba 7942 bf3c c2a4 983d
000002f0: 686d c1bc e33f da3c 0502 8bbd 57f7 173e
00000300: 4486 143d e888 f1bc 7473 e8bc bf14 d03d
00000310: 9560 2c3e 7fc3 cdbd aa1c dcbd aa31 173d
-0.053018745 0.013096971 0.14475234 0.15713169 0.11374385 0.14468147 0.0459253 -0.00014121688
0.0030426462 0.023291178 -0.11909083 -0.0065247533 -0.07699111 0.047829397 -0.06799625 0.000804568
-0.033354912 0.06696437 0.1063794 0.14298858 -0.114883736 -0.1488488 0.043680258 -0.13330574
-0.029462306 -0.042223956 -0.08323617 -0.02308671 0.14890759 0.08130837 -0.015551768 -0.03947155
0.05208465 -0.14620209 0.13598636 -0.038890794 0.061171934 -0.14062883 0.12288719 0.03565778
0.042869695 0.19851434 0.16744527 -0.091881126 -0.113112226 0.040582497 -0.057615582 0.08456977
0.014088822 0.07410313 -0.0070157642 0.0509015 -0.08911203 -0.05032804 0.101768814 0.054388028
-0.011973123 0.16914378 -0.007895708 -0.018561687 -0.07759981 -0.08264149 -0.096216895 0.115740284
0.110900335 0.10031 -0.12137749 -0.07915455 -0.02491318 -0.061154436 0.13164341 0.07437474
0.13360603 -0.059480853 -0.051545944 0.050707344 0.014843046 0.0881026 0.11263245 -0.09912377
0.083951555 0.016353255 -0.019141564 0.11543617 0.08136991 -0.022794865 0.06774056 -0.13194361
-0.03578927 0.13655488 -0.05081463 -0.027816463 -0.025178429 0.01099113 0.012791337 -0.099815756
0.010024451 0.13722436 -0.0666696 0.04429535 -0.03803284 0.040979195 -0.020739267 -0.102292
-0.010798727 -0.0313514 -0.029223528 0.11241308 0.11755401 -0.0389251 0.06826615 -0.05526351
0.07972339 -0.052708663 -0.0854329 -0.120657235 -0.08996119 0.06438309 0.11190864 0.12501146
0.003917933 0.11069033 0.12229601 0.11201295 -0.066005334 0.018501598 0.08982521 0.07497272
0.018966256 -0.094372004 0.04158519 0.082513236 0.078859925 -0.049382348 -0.03458166 -0.12284088
-0.13963929 0.06522408 0.09776163 0.04081918 -0.0031077582 0.03933123 0.06942035 -0.10847359
-0.097484134 0.019071061 0.08695337 -0.032459136 0.037209563 -0.09284909 0.05966621 -0.012909648
0.04864122 0.04265645 0.0058434964 0.07156798 -0.07956085 -0.06612086 0.040038243 0.01337427
0.04897773 -0.10737339 0.13589872 0.12514146 -0.07882271 -0.060753696 0.02446182 0.018318294
-0.09671307 0.106230184 0.10238664 -0.006479765 0.14590254 -0.01491716 0.022846403 0.13221899
-0.0018956814 0.07273745 -0.009069052 -0.037476018 0.07000421 0.104383126 0.042051755 0.0633189
0.114378735 -0.0018070209 0.023347126 0.074533 -0.02361174 0.026641792 -0.067874946 0.14840446
0.03626086 -0.029484227 -0.028375365 0.10160207 0.16833718 -0.100470535 -0.10747655 0.036912598

lstm.weight_ih_l1 f4 [200, 50]
00000000: 97a2 68bd 106b a4bb 3967 14be adbf 7dbd
00000010: b7a8 e7bc 50cf d1bd bb06 c8bd a076 eabd
00000020: 9a93 a63d 76f2 a83d 802c 9b3d a751 17be
00000030: f31a 193e ee37 f7bd 7685 953d 2e20 2abc
00000040: 3db8 10be 9f25 ab3d 81d4 8bbd af9f 1bbd
00000050: 263b b53d bda7 8e3d 4230 2dbc 8bd1 233d
00000060: a6c6 53bd 37c2 ce3d c650 253d c575 a53d
00000070: 73b2 e73b 2bc2 263c 4666 0e3e 1f89 f63d
00000080: be58 4cbd 8dcd f03b bf61 75bd 76ba 133e
00000090: e42e de3d 1550 ce3d ecad d43c 4825 c93c
000000a0: 8e40 8ebc 60e5 9bbd 3095 4e3d cb94 e0bd
000000b0: 5086 553c a632 083e b7cb 323e 022b b83c
000000c0: bfaf 853c a481 283e 00c4 3e3d 3d9f debc
000000d0: b37b e3bc ab8b 1c3b 9d49 92bd 4722 52bd
000000e0: b296 e53c c39d 88bd 604e 213e 2db0 cd3d
000000f0: 7a9b 85bd e358 b03a f657 a6bd 3d67 f8bd
00000100: c50b 9abc f4db 8d3d 855f f63d e6f8 c0bd
00000110: b485 33bd d49d d8bd f813 c9bd a9c1 e13c
00000120: 8fd8 e7bd a73f 293d 4a7b 3cbd a0f2 cc3d
00000130: 815e 03bd e676 11be 24f3 b4bd ee8c 413a
00000140: ac84 b9bc 10ac 8d3d d582 093d 64b2 84bd
00000150: 942e 1c3d 1f9c dc3d 214f 34bd 7501 82bd
00000160: 2afd a9bc c8fe 68bd 9af2 a1bd 4350 853d
00000170: 45cb 90bd 1cad 0ebd b59a 823d 5023 c3bc
00000180: 8c65 023e 576d e13d 0854 823c 8076 9abc
00000190: 47ba be3d 57e3 703d ffe2 14be 42c0 0d3e
000001a0: 25e8 abbd 9a00 d9bd acb8 97bd 2891 d33d
000001b0: af26 a7bd a590 9f3d 03ea debc 4a18 e43d
000001c0: 6ca7 1fbd ed68 8e3d 0e2c ecbd f9ed fbbb
000001d0: a888 14bd 536e ccbd 1f4c 5c3d 9e97 8bbd
000001e0: 8a58 08bd c04d bcbd 21a9 8abc 83d6 4d3d
000001f0: b12c aebd fcee 5f3d ddb3 7e3a cf1c ebbd
00000200: 99b3 b83d ada2 e13d a5a2 593d 5c2c a0bd
00000210: 9f01 0a3d 5102 ab3d daca 2b3d f152 70bc
00000220: ed14 22bd 3db8 cf3d 09d5 243d 8159 8839
00000230: 77b4 c33a 5c6a 83bd 1aa0 e5bd 7af0 b03d
00000240: 6bd4 643d b018 783d fc9e 833d 1fb5 be3d
00000250: 712e 003d 09ec e23d a687 b8bd 14fc ffbd
00000260: 4ea3 b33d a565 873d 2669 873d 7fe8 dd3b
00000270: dda4 d73c cdb0 7abc c9a5 52bd 024e babd
00000280: 7860 e9bd f6d0 b1bd 6879 a43c 7509 1ebe
00000290: 8194 8c3d 4a39 f33b 8e13 cfbd f4d7 e1bd
000002a0: 31e7 ab3d ec7f 89bd 1f18 f03d 08ef ee3d
000002b0: aacd 423d add4 b9bc dce5 08bc 974a 92ba
000002c0: f342 f6bd 2105 a2bd f015 c13d 3a92 ea3d
000002d0: 4e41 143e 1ed3 233e 56b6 1dbe 11fe b8bd
000002e0: 4409 e03d f989 fe3d 08ca 4dbd 3249 70bd
000002f0: 66de e9bd c934 d13c 65fc 903d 5430 7bbd
00000300: 3281 24be bd18 863d 7e59 063c 52ee 2d3e
00000310: 397a acbd c87b 393d d0a5 aebd 2f9c 383b
00000320: b63e 4a3d 045e cebc 0e8f 97bd 1276 af3d
00000330: 9f48 14bd f0b2 dfbd f082 393d 6b76 aeba
00000340: d8ee 803d ba6c 12bd 5654 403c 6c66 03be
00000350: 1f10 b3bd 2073 8bbd 4a1e e0bb 90e2 32bd
00000360: 001a d6bd dc13 33bd 488f 0ebe 0ea8 a33d
00000370: 03d1 debc de97 00be f95a d13c 6da0 2cbd
00000380: c654 6abd be70 8bbd 4a13 b43d bc8f 9e3d
00000390: d70d 69bc ff69 743d 948c 143d bd87 7b3d
000003a0: 791e c13d 1621 0a3e 2427 e8bc e9ef a23c
000003b0: 7d96 2b3d 0dc7 08be e78e 2c3d 4950 b4bd
000003c0: 3d15 0c3e 5f29 49be 75a1 1f3c 837a ac3d
000003d0: 6278 6bbd 7e64 f23d 8fb9 af3d 0614 2c3e
000003e0: 4af2 daba e6ea a93d 9231 e23d 124f bbbd
000003f0: 6f30 d83c ed95 bb3c cb7c 18be 1b5d 833d
-0.056795683 -0.0050176457 -0.14492501 -0.061950374 -0.028278692 -0.1024462 -0.09766909 -0.11448407
0.081336215 0.08249371 0.07576847 -0.14777242 0.14951687 -0.120712146 0.07300846 -0.010383649
-0.14132781 0.08356785 -0.06827641 -0.037994083 0.08849172 0.06965587 -0.010570588 0.039994758
-0.051703118 0.10095637 0.040360235 0.080791034 0.0070708334 0.010178129 0.13906202 0.120378725
-0.04988932 0.0073487223 -0.05990767 0.14426598 0.108487874 0.10073868 0.025961839 0.02455391
-0.017364766 -0.07612109 0.050435245 -0.1096588 0.013032511 0.13300571 0.17460524 0.022481445
0.016319154 0.16455704 0.04657364 -0.02717554 -0.027768945 0.002388696 -0.07142947 -0.05130222
0.028025959 -0.06670716 0.15752554 0.100433685 -0.065237954 0.0013454225 -0.08122246 -0.12129066
-0.01880444 0.06926718 0.12029938 -0.094224736 -0.04382868 -0.10576978 -0.09818262 0.027558165
-0.11320602 0.04132047 -0.046016015 0.100072145 -0.032072548 -0.14205512 -0.08835438 0.0007383366
-0.02264627 0.06917584 0.033572037 -0.06479338 0.038130358 0.10771965 -0.044020776 -0.06347934
-0.0207506 -0.056883603 -0.07907601 0.06509449 -0.070700206 -0.03483306 0.06377164 -0.02382055
0.1273405 0.11007183 0.01590921 -0.018855333 0.09312873 0.05881056 -0.14539717 0.13842872
-0.083938874 -0.10595818 -0.0740827 0.10330421 -0.08161675 0.07791261 -0.027211195 0.11137445
-0.038978025 0.06953607 -0.1153184 -0.0076882807 -0.036263138 -0.0998198 0.053783532 -0.06816028
-0.033287562 -0.09194517 -0.01692635 0.050253402 -0.08504618 0.054671273 0.0009716133 -0.11480104
0.090186305 0.11017356 0.053133626 -0.07820961 0.033692952 0.08350051 0.0419415 -0.014668212
-0.039570738 0.101425625 0.04024223 0.00026006627 0.0014931102 -0.06416771 -0.112121776 0.08639617
0.05586664 0.06057042 0.06426808 0.0931189 0.03129429 0.110801764 -0.09010248 -0.12499252
0.08771382 0.06611184 0.06611852 0.0067721005 0.02632373 -0.015300942 -0.051427636 -0.0909691
-0.11395353 -0.08682434 0.020077422 -0.15433295 0.06864262 0.007422601 -0.10111152 -0.11027518
0.08393706 -0.06713852 0.11723351 0.11666685 0.047559418 -0.02268442 -0.008355584 -0.0011161146
-0.12024488 -0.079111345 0.09428012 0.11453672 0.14478037 0.15998504 -0.15401587 -0.09032834
0.10939267 0.1242866 -0.0502415 -0.058663554 -0.11419372 0.025537865 0.070793904 -0.061325386
-0.16064909 0.06547687 0.008200048 0.16985443 -0.084217496 0.045284063 -0.0852772 0.0028169265
0.049376212 -0.025191315 -0.074003324 0.08567442 -0.03620207 -0.109228015 0.045290887 -0.0013310438
0.06295556 -0.03574822 0.011738857 -0.1283204 -0.08743309 -0.06809068 -0.0068395482 -0.043673098
-0.10454178 -0.04372011 -0.13921845 0.07991038 -0.027199274 -0.12557933 0.025556074 -0.04214518
-0.057209753 -0.06808613 0.087927416 0.07742259 -0.014224491 0.0596714 0.03626688 0.061408747
0.0942964 0.13489184 -0.028338976 0.019889789 0.041891564 -0.13357182 0.04212847 -0.08804376
0.13679977 -0.19644688 0.009743084 0.08421805 -0.057487853 0.118355736 0.08580314 0.16804513
-0.0016704288 0.082967564 0.11044611 -0.09145941 0.026390282 0.022898639 -0.14891355 0.06414243

lstm.weight_hh_l1 f4 [200, 50]
00000000: 820b f2bd d0e9 3ebd d858 1c3e 2bdf 593d
00000010: 93a5 56bd e4af 59bd 418a f63d ff5d f83d
00000020: fb58 8e39 d002 86bd e3c3 0a3e b791 683d
00000030: 21e2 c53d 5759 fcbd d488 db3d 0238 acbc
00000040: e4ff abbd 9bfb c9bd b252 1fbd 996c e53d
00000050: b3a6 f0bc 80b6 c3bc 6ba8 df3d 28fa 9f3d
00000060: 5d0a f4bd 0b60 8f3c 32fa d3bc a6bb 41bb
00000070: f31e 9bbd f8c4 9f3d b570 a4bb 6fd0 153c
00000080: b710 aabd f22d fb3d 2855 9bbc c7e0 0bbe
00000090: 193a 653d 7fc7 173e 6d00 77bd 6da0 e43d
000000a0: 0e4b 9e3d aa42 023d ca53 e63d bc12 f33d
000000b0: 91a0 ca3d bcd7 eebd 225f 983d 23ef fcbd
000000c0: 73c9 6abd 617f 00be e06d 74bd c367 ad3c
000000d0: 8f55 093e 0783 953c 1935 503b 9f5f e83c
000000e0: 6714 97bd fa6f 07bd e611 7b3d c4e4 b2bd
000000f0: 59dd c93d cfc5 a23d 8cc6 bdbd c0ef 8fbd
00000100: a9d7 e9bd e171 023e 64e8 d6bb 9125 433d
00000110: c429 873d 48b1 16be 25ca 193e 547d b63d
00000120: bf69 383d 6b2e d33d 15cd a3bd 38e0 4dbd
00000130: 4ff8 093d 8821 cf3d de2b f73d 46b9 8abd
00000140: 2732 003d 09aa b33d 8d9c 90bd 6343 e43c
00000150: d874 193e 5e67 0cbe 6214 bb3c 4b7c a33d
00000160: a11a 513d e059 34bd 10b3 01be 2026 fdbd
00000170: 036a 1dbd 527b 033d 7aad 16be a04a 303c
00000180: 074c bb3d ec8e 48bd edaf 783d c836 0bbe
00000190: 1df6 01bc a232 043e 83e5 e83c 7c01 8fbb
000001a0: 4ad4 083e bd3a 86bd d812 6bbd 6582 c13d
000001b0: 5b03 993d a49a 00be cde2 243d fb50 bd3d
000001c0: 396e c53d 4426 ab3d 2b1c b8bd ab45 d03d
000001d0: 2a12 853d 1849 913d f981 833d ab1a 0dbe
000001e0: e000 65bc 6d3e e33d 958a e53d cf03 b63d
000001f0: b3d0 873c 963c 293d 9dcd 03be 5fcb 3d3d
00000200: 1cb2 f53d fd89 f4bd 2799 85bd d964 dfbc
00000210: b3f8 32bb f36e a53c 070b e0bc 3e57 40bd
00000220: 80f4 ff3c ad80 e83d 6910 45bc cfe3 f2bd
00000230: 5b93 d13d 38f9 c33b 6df9 78bd c338 85bd
00000240: 2742 66bc 2dbd 48bd 7d45 afbc b112 84bd
00000250: 6230 b1bd 9aac 80bd f2fa 613d 7ce2 c53d
00000260: c5dc 5bbc 18d6 3b3d b3f2 f4bc 0e0d 253d
00000270: a593 f8bd 5262 acbd 821b e9bd 1b68 f13c
00000280: 1265 c5bd 81c8 223e 5d4b f3bd 7ccc e2bd
00000290: 878a 1abe 7155 a8bc b160 bbbd f610 94bd
000002a0: cef8 b63d a605 87bc 182e f6bd fac9 383d
000002b0: 4bb1 1d3e c62d e53d f524 45bd 4b0a c1bd
000002c0: 0f98 783d 8c41 9fbd 9378 20bc 6ea9 82bd
000002d0: 5e1d dfbd 57ea cd3d 2ac2 633d 77f0 b33b
000002e0: f284 b8bd e6e9 873d dc87 c03c 3fd9 f0bd
000002f0: 43a0 0fbe 3f56 d1bc f7b5 37bd fade 793d
00000300: 2cc6 353d 3d1d ca3d 3e00 a23d 4836 623d
00000310: f594 f1bd 2c06 cdbd 9d4e 05be 48fb 35bd
00000320: a805 fabd bff8 fc3d 0834 dabd 9244 9a3d
00000330: 9b99 d83d e53c aebc a4fd 1e3d 34a3 fbbd
00000340: eeb2 3abd 7844 093e 3c31 03be ad2d 5d3c
00000350: 9531 36bc 3603 a3bb 180a 8f3d 6fcd 963d
00000360: a7cd d5bc ce79 7ebd 3b98 1f3e 19c5 4a3d
00000370: 658d 423c 2e41 133c 9cbf 123e 95fa 423c
00000380: f761 843d d1ec 383d a6f7 0cbe 3c7d d23d
00000390: c9a3 713d 7332 a1bc 320b 64bd 3c27 b1bd
000003a0: 94d6 4f3b 53d3 ffbc 8f90 00bc f0d9 8cbd
000003b0: b03d 853d 69fd 103e e562 71bc fcc0 41bd
000003c0: a0b4 be3d dc3a e8bd ff52 b83d 5723 e13d
000003d0: 85ea 0abd 907f 883c aeff 8cbd a003 1f3e
000003e0: dbb0 77bd b4b7 d13d ccb2 ac3d c14f e83d
000003f0: 1237 02be 3130 fb3d a888 9d3d cec7 5dbd
-0.11818601 -0.0466097 0.15268266 0.053191345 -0.052403998 -0.053146258 0.120380886 0.12127303
0.00027150646 -0.06543505 0.13551287 0.05677959 0.09662271 -0.12321728 0.10719457 -0.0210228
-0.08398417 -0.09862443 -0.038897224 0.11202354 -0.029376363 -0.023890734 0.10920795 0.078113854
-0.11916039 0.017501852 -0.025876138 -0.002956131 -0.075742625 0.07801241 -0.0050183185 0.009143933
-0.08303969 0.12264623 -0.018961504 -0.13659965 0.05596361 0.14822195 -0.06030314 0.11163411
0.07729159 0.031801857 0.1124645 0.11868808 0.09893907 -0.11662242 0.0744002 -0.12350299
-0.057321023 -0.12548591 -0.059675097 0.021167642 0.13411544 0.018250955 0.003176993 0.028365908
-0.07376938 -0.033065774 0.061296366 -0.0873504 0.09856672 0.07947885 -0.092663854 -0.070281506
-0.11418087 0.12738754 -0.006558465 0.047643248 0.06599763 -0.14716065 0.15018518 0.08910623
0.045022722 0.10311588 -0.07998101 -0.05026266 0.03368407 0.101138175 0.12068914 -0.06773619
0.03129783 0.08772666 -0.0706111 0.027864164 0.14985979 -0.13711306 0.022836868 0.079826914
0.051050786 -0.044031024 -0.12665963 -0.123607874 -0.03843118 0.03210003 -0.14714614 0.0107599795
0.091453604 -0.048964426 0.06071465 -0.13595116 -0.007932213 0.1290994 0.028429752 -0.0043641906
0.13362232 -0.06554172 -0.057391018 0.09448699 0.07471343 -0.1255899 0.040255357 0.092439614
0.09640164 0.08356908 -0.089897476 0.10169538 0.06497605 0.0709402 0.06421275 -0.13779704
-0.013977259 0.11095891 0.11208073 0.08887445 0.016579008 0.041317545 -0.12871404 0.046336528
0.11996862 -0.11940382 -0.06523352 -0.027269768 -0.002730888 0.020194506 -0.027349008 -0.0469582
0.031244516 0.11352668 -0.012027838 -0.11859857 0.10233184 0.005980637 -0.060784746 -0.06504967
-0.014053858 -0.049008537 -0.02139544 -0.064488776 -0.086518064 -0.06282921 0.05517096 0.09662339
-0.013419335 0.045858473 -0.029900884 0.040295653 -0.12137536 -0.084171906 -0.113822 0.029468587
-0.09638418 0.15896799 -0.11879609 -0.110741585 -0.15091906 -0.020548554 -0.09149302 -0.072297975
0.089341745 -0.016482186 -0.120205104 0.045114495 0.15399663 0.11190371 -0.048130948 -0.09425791
0.06069189 -0.07776174 -0.009794372 -0.063799724 -0.10894273 0.100544624 0.05560509 0.005491312
-0.09009732 0.066364095 0.023502283 -0.117601864 -0.14025979 -0.02555382 -0.04485127 0.061003663
0.044378445 0.09868858 0.079102024 0.055227548 -0.117959894 -0.10010943 -0.1301827 -0.044429094
-0.1220811 0.12352132 -0.106544554 0.0753261 0.10576173 -0.021269271 0.03881611 -0.12286988
-0.045580797 0.13405025 -0.1281175 0.0134996595 -0.01112022 -0.004974748 0.06984347 0.07363402
-0.02609904 -0.06212788 0.15585415 0.049504373 0.011874531 0.008987708 0.14330906 0.011900564
0.06463998 0.04514772 -0.13766345 0.10277793 0.05899409 -0.019677376 -0.05567474 -0.086500615
0.0031713592 -0.031228697 -0.007846965 -0.06877506 0.065059066 0.14159168 -0.014733051 -0.047303185
0.09311795 -0.113393515 0.09000205 0.10993069 -0.03391506 0.016662389 -0.068847045 0.15528727
-0.060471397 0.10240117 0.0843254 0.11343337 -0.1271632 0.12265051 0.07692081 -0.054145627

lstm.bias_ih_l1 f4 [200]
00000000: 321b 5cbd 9ce2 d33d 13b3 ce3d bc59 5f3d
00000010: df09 2dbd 61e8 053e dc69 2cbc 89eb 18bd
00000020: c9f2 cebc f85e c2bc b310 dfbd 7253 3dbc
00000030: ab35 04bd 203f 413d bc57 32bd 12d4 c23d
00000040: f1e0 f6bd a7a6 48bd ea4a 083e 3d06 2fbd
00000050: 3e9b e4bd dc22 f03d e275 3cbd 4bda fbbd
00000060: 41dd 26bd 93b8 f7b9 1601 e83d c2c4 5bbd
00000070: dddf fe3d 28ab 80bd 1326 f53d 7345 82bd
00000080: a649 16be cca3 fbbd a15c c73d 68db e2bd
00000090: e483 0b3d 2abc 5cbd 0824 72bc 9658 6bbd
000000a0: 5601 cabd e004 143e f17a db3c afce 03bd
000000b0: 7c83 d23d 6d6e ed3d 32c1 b8bd c2b0 233d
000000c0: 2c48 15bd 07d7 103e d623 9cbd b83a 463d
000000d0: 4ca8 06bd 162e 013d ccb6 b13d 5ea7 e53d
000000e0: 2848 08bd 9d31 dc3c 5821 b6bd a6c1 d03d
000000f0: be0c cbbd 69e3 dd3d c72c ee3c 51fe 73bd
00000100: 944a f03a 1501 cd3d 8a37 b7bb 3669 ec3b
00000110: fccf 47bc 102a acbd 490e 57bd d883 80bd
00000120: 8cc4 153e c56e 3bbd dd1f eaba 99b2 a33d
00000130: 7305 ddbd 66c2 f1bc e454 343d 1811 1dbc
00000140: b99b a53d f58c 373b e96d c7bd 2998 113e
00000150: 1726 cfbd 2ca4 b93d 0b5f a73d 767e b1bd
00000160: 93ae 68bd ef20 31bb a0e1 353d 8568 24bd
00000170: 76d3 97bd f001 7ebc 0c1e 15bd b1ff 5f3d
00000180: c9f5 093e 5969 483d a547 cabd 4b20 99bd
00000190: 2d3f fa3d be3d a7bd 8564 c63d 0a7a b8bd
000001a0: 6afd e03c ee8d d3bd 156f 2c3c 8a3f 103c
000001b0: fc8a dd3d 11a7 943d 05b9 053e d3b3 043e
000001c0: 9164 7a3d 38b8 22bc 9c95 6cbd 0669 b13d
000001d0: 5300 76bd aaf2 91bd ebd3 e13d 500d 793b
000001e0: 38f9 5d3d 3a8f aa3d 3aae 22bc 1125 cfbc
000001f0: 2092 b03d f5e7 ad3d 25bb a7bc c7cc 0bbc
00000200: 295d c63d 1204 92bd 73cc 42bb 8ad7 dbbd
00000210: 9d94 e7bd 9f0b 25bd 1e07 043e c827 2fbd
00000220: 7c6e a4bd 304a a03d a68d 293c bbd0 cb3d
00000230: e836 b3bd a679 9f3c 9d5e 9abd 03c1 8bbd
00000240: d7b5 ab3b ed32 86bd 7880 95bd 1cb3 aabd
00000250: 9ba3 e4bc a393 dabd 20ce e73d 9714 a73c
00000260: 2489 643d b3b8 053e 1591 fcbb be5a a63d
00000270: adec eabd cae8 6bbd 5d59 213c 2a94 393d
00000280: 5a9a 31bd b5f4 e33d 3662 20be 0a9e b43c
00000290: f512 c23d 8c5a a03b 9904 ad3d 77cc f0bd
000002a0: 6734 163e b660 b93d 193b c5bd 49b8 a53d
000002b0: a90e 4fbd a88e 853d b4d9 52bc c9c4 fb3d
000002c0: 6c2e cfbc 0232 da3d 961a 863d 78db 2c3d
000002d0: af57 b4bc ee7d 483d 320c 1bbd a94f 11bb
000002e0: 91f8 68bd a5ce e23d be27 9b3d e9b8 c7bc
000002f0: 3320 dd3d e831 223e 38f8 d93c d149 afbd
00000300: 62f7 9b3c 7151 503d 3dd0 843d 2ec4 c63d
00000310: 5909 663d 97f0 05bd a0f4 d33d cf32 683c
-0.053736873 0.10345957 0.100927494 0.054528937 -0.042245742 0.13076927 -0.010523286 -0.037334
-0.025262253 -0.023726925 -0.10891857 -0.011555539 -0.032277744 0.04717934 -0.0435407 0.095131055
-0.12054623 -0.048987057 0.13309827 -0.04273056 -0.111624226 0.11725399 -0.04601086 -0.122974955
-0.040738348 -0.0004724903 0.11328332 -0.05365444 0.12445042 -0.062826455 0.11970153 -0.06360903
-0.14676532 -0.12287101 0.097344644 -0.11077005 0.034061328 -0.053890385 -0.014779098 -0.05745753
-0.09863536 0.14454985 0.026792021 -0.03217953 0.10278985 0.11593328 -0.09021224 0.03996349
-0.03644578 0.14144526 -0.07624023 0.048395842 -0.032875344 0.03153809 0.08677444 0.112135634
-0.03327194 0.026879126 -0.088930786 0.101931855 -0.0991454 0.10834391 0.029074086 -0.059568707
0.0018332773 0.10009972 -0.0055913376 0.0072146906 -0.012195583 -0.0840646 -0.052503858 -0.06275147
0.14625758 -0.045759935 -0.0017862279 0.07993049 -0.10792055 -0.029511642 0.04402627 -0.009586595
0.08086342 0.00280076 -0.097377606 0.142182 -0.10114687 0.090645164 0.08172425 -0.08666699
-0.056807112 -0.0027027687 0.044404626 -0.04013874 -0.0741338 -0.015503392 -0.036405608 0.054687206
0.13472666 0.048928592 -0.09876946 -0.074768625 0.12219081 -0.08166073 0.09687141 -0.09007652
0.027464587 -0.10329805 0.010524531 0.008804211 0.10817525 0.07258428 0.1305886 0.12959222
0.061131064 -0.0099316165 -0.057759866 0.0866261 -0.060058903 -0.071263626 0.11026748 0.003800232
0.05419275 0.083280995 -0.009929234 -0.02528623 0.08621621 0.08491508 -0.02047498 -0.008532709
0.09685738 -0.071296826 -0.0029723912 -0.1073447 -0.113076426 -0.040294286 0.1289334 -0.042762548
-0.08028886 0.0782665 0.010348713 0.099519216 -0.08750707 0.019467186 -0.07537577 -0.068239234
0.005240183 -0.06552682 -0.07299894 -0.08334944 -0.027910044 -0.10672691 0.11318612 0.02039556
0.05579485 0.13058738 -0.007707725 0.081227764 -0.114709236 -0.05759505 0.009847966 0.045307316
-0.04336009 0.111306585 -0.15662464 0.022048015 0.09476272 0.0048936065 0.084481426 -0.117577486
0.14668427 0.09051649 -0.096304126 0.0809179 -0.05055109 0.0652135 -0.012869287 0.12293393
-0.02529069 0.106540695 0.065480396 0.04220149 -0.022014467 0.04894822 -0.037853427 -0.0022172725
-0.056877676 0.110745706 0.075759396 -0.024380164 0.10797157 0.1583935 0.026607618 -0.08559001
0.01903886 0.05085892 0.06485031 0.09705387 0.05616126 -0.032700147 0.10349393 0.01417227

lstm.bias_hh_l1 f4 [200]
00000000: 2086 d83d 66fe a3bc ffbc 563a 6685 babc
00000010: 7d2d 72bd f5ec cbbc 7a26 a0bd 6a49 073e
00000020: 8e3c 62bd b3cf eabd 4bf7 d53d 8657 f93d
00000030: 51f9 e3bc 2379 cebd 0c58 d53d d025 a43d
00000040: fb1a 88bc 8c99 d5bd 517e b2bd 232f 1a3e
00000050: a204 e33d 940b 16bd 78a5 abbb 7488 61bd
00000060: dbdf a7bd bf31 d6bd ee3d dfbd f2a5 063d
00000070: deb0 88bd cb1f d63d f500 bbbd 1303 82bd
00000080: 41d4 f73d 2b0c 643d 629d 65bd e7fa 5c3c
00000090: 0925 10be 907a 173d 3301 adbb d049 8f3d
000000a0: 27b6 403d 245f 9abd 67ad d1bd bbe6 223d
000000b0: 8644 343c 9b03 86bd 2622 da3b bb07 caba
000000c0: abce eb3d 3132 00be bd94 243d da19 a5bb
000000d0: b312 943c 01f2 c13c facb 413d eb8d 763a
000000e0: 8346 58bd 4edc b03d b51c 963d ec65 0cbe
000000f0: d4f3 c13d 11eb bbbc 7a43 debd 54e2 dbbc
00000100: 75b3 093e 8bf7 bdbd edf4 0f3d 77cb f0bd
00000110: 1ffc 2ebd 7fd2 76bd f789 833c b3ef 85bd
00000120: 5cbb a93b a209 9cbc f3de 83bd e405 8ebc
00000130: 517f 0f3e 5c72 883d 5376 013e 4c53 e23d
00000140: 0cb3 7ebd 4b74 8f3d b564 cc3d 77b0 b4bd
00000150: 8659 d73a 3e4d ba3d 1d5f 67bd ab79 38bc
00000160: 1658 3a3b 57ba ae3a f3ad 123e b0ed d83c
00000170: 42b9 a63d 0617 eabd b08a f63c 87f0 ef3d
00000180: ea91 2fbc a34b f13d d53d 9bbd 5dc9 92bc
00000190: 9e94 07be 0491 8a3d 595b 3bbc 23f7 b93c
000001a0: 7d43 6c3d fe3b a13d bda9 81bd cac0 793d
000001b0: 0804 113d bf05 c0bd bbd2 b3bd 3877 20bd
000001c0: 0a9f 093d bdfd a0bd 9be8 0abe 34ab a93d
000001d0: 6bcc c3bc 9d3c 963d b930 a9bd c964 d4bd
000001e0: a5aa 913d fb7c 733d 287c 383c c028 c3bd
000001f0: 4da1 7ebd fbbe cd3d d2d0 e53c 5963 f1bd
00000200: e5f2 933d a372 0abe 0bda 453d e8a1 d7bd
00000210: 5f82 943d 0553 c23d 7ccb bf3d 69f4 53bd
00000220: ff0c babb b467 d93d aa22 75ba e94e dabd
00000230: c8ef ecbd 8925 b53d 1941 c6bd 5b17 913c
00000240: caef 5fbd 80eb 853d 2aae 003e fc87 6f3a
00000250: e698 b8bc 7eee d0bc 09b5 0d3d fa4b 193e
00000260: 8e78 823d 473c 4f3d b088 0abd 8eaa 3fbb
00000270: 07b4 0c3e 313a 3abc 90e9 e3bc ebe4 fbbd
00000280: e070 123d cf11 2cbd 709e 56bd bf82 02be
00000290: 0b26 06be d984 1f3d 9c0e 5cbd 9585 fd3c
000002a0: f6de 253d 58d2 57bd efda d73d 61c4 443d
000002b0: 21b7 ab3c a4a4 e33d f49f 03be 3697 ee3c
000002c0: 538a 7abc d077 fe3d 6eba 913d 2662 f1bc
000002d0: e941 c6bb e777 e33d 511f 0d3c a937 abbc
000002e0: 5508 ce3c 7364 d13d 5c78 ec3d 2f35 01bd
000002f0: 70f1 e8bd 5cb8 91bd f329 cebd 65f7 e0bc
00000300: 3e51 d4bd c079 b9bd 7d29 b1bc 7067 bfbc
00000310: 7886 863d 379f de3d 4c43 19bd 0302 b5bd
0.10572457 -0.020018768 0.0008191615 -0.022768687 -0.059125412 -0.024893263 -0.07819839 0.13211599
-0.05523353 -0.11465397 0.10447558 0.12174897 -0.027828844 -0.10081699 0.10417184 0.08015025
-0.016614428 -0.10429677 -0.08715499 0.15057044 0.11084868 -0.036632136 -0.0052382313 -0.055061772
-0.08196994 -0.10458707 -0.10900484 0.0328731 -0.0667436 0.10455283 -0.09131042 -0.063482426
0.12101031 0.055675667 -0.056058295 0.013487554 -0.14076628 0.03698212 -0.005279684 0.069965005
0.047048714 -0.07537678 -0.10238152 0.039770823 0.011002665 -0.065436564 0.006656903 -0.0015413681
0.11514028 -0.12519147 0.04018091 -0.005038482 0.018075323 0.023674967 0.047313668 0.00094053027
-0.05280162 0.0863577 0.07329694 -0.13710755 0.09470335 -0.022939237 -0.10852714 -0.02684132
0.13447364 -0.09275731 0.03514569 -0.11757558 -0.04272091 -0.06025934 0.016056998 -0.065398596
0.0051798057 -0.019047562 -0.064390086 -0.017336793 0.14013411 0.06662437 0.12642793 0.11051044
-0.06218247 0.07004603 0.09980146 -0.088227205 0.0016429878 0.09096764 -0.05648719 -0.011259477
0.002843385 0.001333068 0.14324169 0.026480526 0.08140804 -0.114301726 0.030095428 0.11715799
-0.010715941 0.11782005 -0.07580153 -0.017918283 -0.13240287 0.06765941 -0.011435353 0.022700852
0.05768155 0.07872771 -0.06331203 0.060974874 0.035404235 -0.09376096 -0.08780428 -0.039176196
0.033598937 -0.07860897 -0.13565294 0.082846075 -0.023901185 0.0733578 -0.08261246 -0.10370786
0.07112626 0.059445363 0.01126007 -0.09529257 -0.062165547 0.10046192 0.028053675 -0.11786527
0.07224063 -0.13520293 0.048303645 -0.10528928 0.07251429 0.09488491 0.093649834 -0.05174676
-0.005677819 0.10615483 -0.00093511736 -0.10659582 -0.11569172 0.0884505 -0.09680385 0.017711332
-0.05467204 0.06539059 0.12566438 0.000913739 -0.022533845 -0.025504347 0.034596477 0.14970389
0.0637065 0.050594594 -0.03382176 -0.0029245946 0.1374055 -0.011366413 -0.027821332 -0.12299522
0.035752177 -0.04200917 -0.05239719 -0.12745188 -0.1310045 0.038945053 -0.05372487 0.030947486
0.040495835 -0.052690834 0.10539805 0.048038844 0.020961346 0.11115387 -0.12853986 0.029124837
-0.015291768 0.12425196 0.07115637 -0.029465746 -0.0060503376 0.11106854 0.008613423 -0.020900564
0.025150457 0.10224237 0.11546394 -0.03154486 -0.113741755 -0.07115242 -0.10066595 -0.027461717
-0.10367058 -0.09056425 -0.021626228 -0.023364753 0.06568617 0.108702116 -0.037417695 -0.08838274

fc.weight f4 [1, 50]
00000000: d8d0 b6bd b554 973d dbd6 963d c2a2 5abd
00000010: 5a05 2bbd 1a93 4dbd 4ae8 573d 274d a5bd
00000020: cec7 08be cff5 b43d c296 543d 92a2 853d
00000030: c1bb cc3b 36c0 723d 3b36 24bd 3d91 c2bd
00000040: 970a 633d 96e5 bf3d 0c63 653d 9824 5abd
00000050: 41c6 eabd 7c5c ba3d e925 243d d1b8 20bd
00000060: 792d cebd d1e0 973d d941 81bd 50af 3ebd
00000070: b899 4b3d 3327 71bc bdfd 8f3c b4a8 3fbd
00000080: 285f 593d a289 81bd 586d bf3d c62f e73d
00000090: 7dc3 a83d 5e01 9e3d 406f 47bd 2e4d 3e3d
000000a0: d882 08be 3292 873d 2e4a 90bd bb18 07bd
000000b0: 03d4 39bd 9ddf 7dbd 2980 80bd 2a43 053e
000000c0: 91ad f2bd 4e50 ebbd
-0.089265525 0.073892035 0.07365199 -0.053377874 -0.04175315 -0.050189115 0.052711762 -0.08071356
-0.1335747 0.08835947 0.051901586 0.065251485 0.006247968 0.059265338 -0.04009078 -0.09500358
0.05543002 0.09369962 0.05600266 -0.053257555 -0.11463595 0.09099671 0.040075216 -0.039238755
-0.10067267 0.07415927 -0.063113876 -0.04655391 0.049707144 -0.0147188185 0.017577047 -0.046791747
0.053069264 -0.063250795 0.093470275 0.11288409 0.082404114 0.077151045 -0.04869008 0.046460323
-0.13331163 0.066196814 -0.07045399 -0.03298257 -0.045368206 -0.061980832 -0.062744446 0.13013902
-0.118495114 -0.11489926
