notebooks/treinando_modelo/lstm_model_pytorch.pth (torch, 129141 bytes, 9 tensors)

lstm.weight_ih_l0 f4 [200, 1]
000000 b3 fb f5 bc c0 2e a2 bd 62 e6 1c 3c 09 ac 7d 3d
       -0.030027246 -0.07919073 0.009576412 0.061931644
000010 84 fb c7 bd 12 2b 46 3d 35 8b 78 3d 1e 95 01 3c
       -0.0976477 0.04838092 0.060679633 0.007909087
000020 56 45 23 3e 57 4f a3 bd d0 48 3a 3e 90 cd 93 bd
       0.15944418 -0.07974117 0.18191838 -0.07216942
000030 af 17 45 3e 60 f8 78 bd 5e 77 b7 bb 96 fa 85 3d
       0.19247316 -0.060783744 -0.0055989465 0.06541936
000040 e4 64 df bc 88 4a 2a 3d 25 a9 04 3c dd 05 99 3d
       -0.027269788 0.041574985 0.008096968 0.074718215
000050 6a 4c d7 3b 98 06 1f bd 9a 2b 6d 3d ef fd bb bd
       0.0065703886 -0.038824648 0.05790291 -0.09179293
000060 63 2d 79 bc 92 b9 3a 3e c6 3a c6 bd 55 e8 b4 3c
       -0.015208575 0.18234852 -0.09679179 0.02208344
000070 a3 4d 5b 3c 03 bb 92 bd f9 c0 c9 3d 0a f4 a7 39
       0.013385209 -0.07164576 0.0985126 0.00032034545
000080 20 48 b3 3d b1 54 3a 3e 8d 1f 6c 3d e2 a8 ce 3d
       0.08753991 0.1819637 0.057647277 0.100908056
000090 fc 8f 2a 3e 89 b7 02 3d 40 60 b8 bd c7 a8 c8 bd
       0.16656488 0.031913314 -0.09002733 -0.09797817
0000a0 84 5b db bd 06 87 1c 3e a4 52 d4 bd 8f 67 0f 3e
       -0.107108146 0.15285882 -0.10367325 0.14004348
0000b0 29 a9 a0 bb 74 76 ef 3d 20 44 d1 bc 9b 65 05 3e
       -0.004902978 0.11692515 -0.02554518 0.1302704
0000c0 90 ee b9 bd 67 23 0c be 98 59 b9 b8 87 40 eb bc
       -0.09078705 -0.1368538 -8.8381756e-05 -0.028717292
0000d0 fe 35 99 bd f1 81 bf bc 81 a0 13 bc 3b ec ae 3c
       -0.07481001 -0.02337739 -0.009010435 0.021352878
0000e0 fe ca 6a bd 6e 3e b2 bd 00 70 29 bd d3 30 b3 bd
       -0.057322495 -0.08703314 -0.041366577 -0.08749547
0000f0 ec d0 c2 3d 8f 24 10 bd a4 c3 72 3d 3a 5a 13 3c
       0.09512505 -0.035191115 0.05926861 0.00899368
000100 18 61 1e 3c d6 1d 4b 3c 95 c2 9f bd 25 b7 a5 3c
       0.009666704 0.01239725 -0.078007855 0.020228932
000110 1e e9 9f 3d 17 f5 a4 3b 88 6b d0 3b 55 00 9c bc
       0.078081354 0.0050341 0.006360475 -0.019043127
000120 bd 4f 8f 3c 52 aa 18 bd 89 79 a6 3d 09 f1 e7 3c
       0.017494077 -0.037271805 0.0812865 0.028313177
000130 09 14 a8 bd 4a f1 3c be 81 87 cf 3d b2 fb 87 bd
       -0.082069464 -0.1845142 0.10133267 -0.06639804
000140 bc 22 85 bd 2f 04 f4 3c 7c 51 5a bd 6c 2c b5 3c
       -0.06500766 0.029787151 -0.053300366 0.022115909
000150 cd f0 3b bd 70 4f a9 bc 3b b2 39 3d c4 c7 df bd
       -0.045883942 -0.020667762 0.04533599 -0.10926774
000160 51 bb df 3d c6 df 83 bb f6 9e 32 bd cc ec bb bd
       0.109244 -0.0040244786 -0.04360863 -0.09176025
000170 69 55 17 bd 68 69 6d bc b9 b2 f7 3c 6c b3 b9 3d
       -0.036946688 -0.014490463 0.030236589 0.09067425
000180 58 da c5 3d 7f 33 d0 3c 0e 0e 3c 3c f8 e5 a6 bd
       0.096607864 0.02541518 0.01147796 -0.08149332
000190 78 b3 33 be 43 6f f7 bd f4 ea 6d 3d c7 6a 3b 3c
       -0.1754893 -0.12081768 0.058085397 0.011439032
0001a0 95 9a 39 bd 0b ec 06 be 77 71 d1 bc 3b eb 16 3e
       -0.045313437 -0.13175981 -0.0255668 0.14738171
0001b0 7b 43 ce bd d7 93 4d bd 40 aa 7e bd af 3e 20 be
       -0.10071465 -0.05018982 -0.06217408 -0.15648912
0001c0 45 f1 8b bc 16 cf 2b be 68 0d 3a be 4b 68 ce bd
       -0.01708282 -0.16778216 -0.18169177 -0.10078486
0001d0 49 14 fd 3d 7b 64 4a 3e 77 d4 48 3e 96 6c b0 bd
       0.12357385 0.19764893 0.19612299 -0.08614461
0001e0 39 c1 c6 3d c2 03 99 3d 20 f3 03 be a4 a2 2d 3e
       0.09704823 0.0747142 -0.12885714 0.16956574
0001f0 8e 29 1d 3e 49 93 9b bd bc 55 8f 3d 57 f3 11 be
       0.15347883 -0.07596452 0.069987744 -0.14252983
000200 17 98 70 39 e9 4b bd bd 1c ac 41 be 27 7b ca 3d
       0.00022944841 -0.09242994 -0.18913311 0.09886771
000210 96 74 dc bd cc 9b 0b 3e 7d 5b df bc ed 6b 01 be
       -0.107644245 0.1363365 -0.027265305 -0.12638827
000220 71 df 4d be 94 2a 27 be da ba dc bd 5a cf e1 bd
       -0.20104767 -0.16324836 -0.107778266 -0.11025877
000230 06 aa ac 3d 2d 74 ac bd 3c cf da 3d d9 96 a1 bd
       0.08430867 -0.08420596 0.10684058 -0.078901
000240 b0 23 14 be 93 31 53 bd 9e 80 1c be c6 a4 e9 3d
       -0.14466739 -0.05156095 -0.15283439 0.11408381
000250 bd 7a 10 3e 9c 59 ee 3d 68 65 08 3a 95 d7 96 bd
       0.14109321 0.116381854 0.0005203099 -0.07365338
000260 61 3f 76 3a ea 10 47 3e 8a 62 7b bb a3 1d 8b 3d
       0.00093935995 0.19440046 -0.0038358294 0.06792762
000270 2b f2 02 3e 65 39 09 3e 66 5c ce 3c 71 74 a8 3b
       0.12787692 0.134008 0.025190543 0.005140834
000280 83 5b 7d bd b5 df 03 be 89 3f 6b 3c 44 1a 40 be
       -0.06185485 -0.12878306 0.01435841 -0.1876002
000290 d3 73 54 3d 59 a5 31 3d 30 49 33 3c 5a 6b e7 bc
       0.05186827 0.04337058 0.010942742 -0.028249431
0002a0 4a 8d c4 3b bb d5 d9 bc 3f 9a 87 3d 4c 89 e3 bd
       0.0059982883 -0.026591172 0.06621217 -0.11110172
0002b0 ee 81 f3 bc 58 82 f9 bd ab 97 e6 3d 8b 4c 04 3e
       -0.029725041 -0.12183064 0.11259397 0.12919824
0002c0 cf 6d 88 bd e5 f1 20 3d a4 0f 98 3d b3 dc dc 3d
       -0.06661569 0.03929319 0.07424858 0.107842825
0002d0 58 7e 81 3d 3d 8a 0b bd da af c6 3d 6c b9 92 3d
       0.06322926 -0.03406738 0.0970151 0.07164273
0002e0 5f 69 18 3d 5d d8 8e 3d d4 83 4f bd 0f fb cb bd
       0.037209865 0.06974862 -0.05066283 -0.09959995
0002f0 3b 59 30 3d 75 b2 ae bd 02 09 29 3d 93 72 4d bd
       0.043053847 -0.08530132 0.041268356 -0.050158095
000300 34 41 15 3d 5f a7 a6 3d 68 cd 91 bd 1b 0c bf 3d
       0.036439136 0.08137392 -0.07119256 0.09328481
000310 ea ec dc 3d 6f 17 0b 3e 00 4e b2 bc ad 62 43 be
       0.10787375 0.13583158 -0.021765709 -0.1908061

lstm.weight_hh_l0 f4 [200, 50]
000000 7a 97 96 bd 9e f5 f7 bd 8d dc bf bc 24 eb 56 bc
       -0.073531106 -0.12107395 -0.023420596 -0.013117585
000010 4e 32 e1 bc d8 5c 09 be 84 c2 38 3c bb 2e 63 bd
       -0.027489807 -0.13414323 0.011276845 -0.055464488
000020 47 5f 9b 3d cc cd 38 bd 27 b5 74 bd 6f 46 1b bd
       0.07586532 -0.04511814 -0.059743073 -0.037908968
000030 b0 ed 11 be 37 ba 48 bd b9 f3 1f be f0 5d ac bd
       -0.14250827 -0.049005713 -0.15620317 -0.08416355
000040 20 0b 0a 3e 91 08 0a 3e d5 db 6f bd ca 2c 12 bc
       0.13480806 0.1347983 -0.058559258 -0.008921811
000050 48 52 0c 3e c2 12 1c 3e 25 c9 d8 3d b4 e2 06 3b
       0.13703263 0.1524153 0.1058524 0.0020581903
000060 c9 99 2f 3e 4f c6 c6 bd 37 4d 36 3e 02 cc 30 3d
       0.17148508 -0.09705793 0.17802893 0.043163307
000070 c0 5f 19 bc 64 ac ec bc 9b 2b 8a 3c 20 91 22 be
       -0.0093612075 -0.028890796 0.016866496 -0.15875673
000080 32 01 9b 3c e3 fe 8c 3d 14 54 57 3d 1a f6 22 3c
       0.018921468 0.06884553 0.052570418 0.0099463705
000090 55 64 0c bd a4 87 2e 3e 66 65 b9 bd 76 74 aa b9
       -0.03427537 0.1704393 -0.09052543 -0.00032511697
0000a0 e3 e0 19 be f1 fa a0 bd 8b c7 45 3d 09 a4 32 bd
       -0.15027194 -0.07860363 0.048286002 -0.043613467
0000b0 7f 34 9d bd 20 2c db bd 48 34 dc bd 48 6b 90 3d
       -0.076760285 -0.107017756 -0.10752159 0.07051712
0000c0 9b c7 ff 3d 44 7b 39 bd 4d 3f ae 3d b0 43 8d 3d
       0.124892436 -0.04528357 0.085081674 0.06897676
0000d0 ac 46 d9 bb 59 d9 bb 3d 47 3e 92 bd ba b4 d6 bd
       -0.006630739 0.09172315 -0.07140785 -0.104836896
0000e0 31 ca e9 bd c3 28 fb 3d eb 20 7e ba 16 0e d0 3d
       -0.11415518 0.12263634 -0.0009694236 0.10158937
0000f0 74 11 df 3d fa 2a 0b be 92 1c 12 3d 46 bd a5 bc
       0.10892001 -0.13590613 0.035671778 -0.020231854
000100 cc 40 4c 3d 10 a9 01 3e 45 79 6d 3d 46 f3 16 3d
       0.049866483 0.12662148 0.05797698 0.036853097
000110 2b c8 11 bd 34 e7 8a 3c 5e 92 dc 3d 7b 2c e0 3d
       -0.035591286 0.01695595 0.10770105 0.10945984
000120 66 85 f0 bd 8c 3e ff 3d 7e 67 15 3e a4 f6 c9 3d
       -0.11744194 0.12463102 0.1459026 0.09861496
000130 04 6a 84 3c bb dc 27 bb 7a 31 a0 bb f9 5f 0a be
       0.016163833 -0.0025613743 -0.0048887106 -0.13513173
000140 e7 16 06 be 30 6c 0a bd 0e 4c c6 3d 32 3a ee 3d
       -0.13094674 -0.033794582 0.09682475 0.116321936
000150 b7 84 3e bd 3b 03 16 be 1c 08 cd bc 8d cb 55 3d
       -0.046513285 -0.1464967 -0.02502828 0.052196074
000160 8d 9c ed bb 38 98 b1 3d bb 9e 1d 3b 3b 66 03 be
       -0.0072513283 0.086716115 0.002405091 -0.12831967
000170 14 af 97 bd da 94 c7 3d d7 9b 94 bd 1b e9 e2 3d
       -0.074064404 0.09745188 -0.072562866 0.110796176
000180 e9 93 43 bd 6d c4 03 be b4 2b 12 bd 97 ae 71 3d
       -0.04774848 -0.12867899 -0.03568621 0.059004392
000190 7c d1 40 bd 54 fb c3 bd 43 fd 61 bd 40 65 21 3c
       -0.04707478 -0.095694214 -0.05517317 0.0098508
0001a0 83 63 00 be e3 89 be 3d 5b c3 a8 bd 19 12 fc 3d
       -0.1253796 0.093036436 -0.08240386 0.12308139
0001b0 a9 64 af 3d f8 32 08 be f1 8f c0 3d ad e1 01 3e
       0.08564121 -0.13300693 0.09402455 0.12683745
0001c0 89 1e 91 bb 4d da 74 3d 8d 2c 85 3d e7 0d 02 bd
       -0.004428689 0.0597785 0.06502638 -0.03175154
0001d0 fb fc e5 bd 90 4a da bd 6d 70 05 3d 26 c7 70 3c
       -0.11229893 -0.10658753 0.03257792 0.014695918
0001e0 74 46 02 3b 1e f5 8c bd 4a 52 eb bd 01 cc 6c bd
       0.001987842 -0.0688269 -0.11490305 -0.05781174
0001f0 81 13 ef 3d 35 04 45 3d ad ab 02 3d 4e 71 2f 3d
       0.11673642 0.048099715 0.031902004 0.042832665
000200 67 59 0a be c8 a7 83 bd 4e 00 d5 3d 97 1b f3 3c
       -0.13510667 -0.06428486 0.10400449 0.029676242
000210 69 05 79 bd ce be fb bd ac 40 9e bc 87 77 36 bc
       -0.060796175 -0.122922525 -0.019317947 -0.011136896
000220 7e 4b 34 bd ee cd 81 3a 13 e7 d6 3d 2f 28 fc 3c
       -0.044017307 0.0009903291 0.10493293 0.03078088
000230 95 35 a7 bd 48 57 bc 3d 8a 3e d9 bd ad 4b 84 bd
       -0.08164517 0.09196335 -0.106076315 -0.064597465
000240 a7 86 3d 3d 57 06 36 3d e3 4e 36 bc 35 0e 04 3c
       0.046270993 0.04443964 -0.0111272065 0.008060028
000250 48 bd 12 bd e6 67 a4 3d f0 a0 b5 3d 58 85 e8 3d
       -0.035825044 0.080276296 0.08868587 0.11353558
000260 34 c9 52 bd c7 cd a1 3d c3 21 fd bd 00 19 c9 3d
       -0.051461414 0.07900577 -0.12359955 0.098192215
000270 44 bf 0a be 77 fa bf bd b2 5d a1 3d e8 e7 aa bc
       -0.13549525 -0.09373944 0.07879199 -0.020862535
000280 4e 32 f6 bc 7d 3f a5 bc 57 19 e6 bd a1 b7 f5 bd
       -0.030053284 -0.020171875 -0.11235302 -0.11997915
000290 1a e9 f8 bc 3d c4 f3 bd 57 0f 9e bd 79 65 15 3d
       -0.030384589 -0.11902664 -0.077177696 0.036473725
0002a0 d0 51 52 bd 0c c2 a2 3d 2f dd 07 3e 79 41 5f bd
       -0.051347554 0.07947168 0.13267969 -0.0545058
0002b0 c7 bf f4 3c 0c 0b ac bc c1 4a 23 bb 63 a1 a3 3c
       0.029876603 -0.021001361 -0.0024916383 0.019974416
0002c0 cd 66 32 b9 e4 94 32 be 0a 71 3f 3d 3e c2 ca 3d
       -0.00017013699 -0.1743961 0.04673866 0.0990033
0002d0 5c b3 a7 3c b0 17 22 3c 2c f6 08 bc ac 5a 31 3c
       0.020471267 0.009893343 -0.008359473 0.0108248405
0002e0 76 1d c3 bd c9 6b d6 bb fe 0c 52 3d ea 4c d2 3d
       -0.095271036 -0.0065436107 0.05128192 0.102685764
0002f0 41 fa bb bd d0 be d0 3c a6 ee 1e 3e 22 d6 17 3d
       -0.091785915 0.025481611 0.15520725 0.037069447
000300 b7 ef a7 bd dd b0 0d be 6c 7a 28 bc cc 0c fd bd
       -0.08200019 -0.13836999 -0.010283094 -0.123559564
000310 b0 58 29 bd d2 83 15 3d f7 fb 21 3e dc d0 c6 3d
       -0.041344345 0.036502667 0.15818773 0.097078055
000320 a8 75 82 bd 47 11 db 3d 2f a6 e4 3d 51 ff b7 bd
       -0.063700974 0.10696655 0.111645095 -0.089842446
000330 c8 e8 cb 3d a4 97 e6 3d 8c b5 ad bd 0d 52 d1 bd
       0.09956509 0.11259392 -0.08481893 -0.10220728
000340 4d a2 02 be 08 f9 11 bd 6e 26 fd 3d 6f 4f 43 3d
       -0.12757225 -0.035637885 0.123608455 0.047683176
000350 18 7e c7 bd fe 09 10 3d 43 0c 59 bc 30 bf fd bc
       -0.09740847 0.03516578 -0.013247552 -0.030974954
000360 7d 8d 66 bd 74 52 f4 3d 25 85 06 bd 8d 20 09 be
       -0.056287277 0.11929789 -0.03284182 -0.13391323
000370 92 a8 37 bb b3 e1 bc 3d 44 1f bf bd 3d 56 3c bd
       -0.002802406 0.09222736 -0.09332135 -0.04598068
000380 e8 d0 7b bc 6e 81 15 3d cc 07 10 3c 6f 72 74 3c
       -0.015369631 0.036500387 0.008790921 0.014919861
000390 bf 48 f9 bd 8a 75 2f 3d 7c f8 13 be fb 78 18 3d
       -0.12172078 0.042836703 -0.14450258 0.03722475
0003a0 c9 4c f2 3d c9 ea 01 3d e7 20 cb 3d e8 5b 4a 3c
       0.11831052 0.03171805 0.09918385 0.012351014
0003b0 c2 48 f7 bd 75 ef 8b bd 34 ab 20 be cd 04 e4 3d
       -0.12074424 -0.06832782 -0.15690309 0.11133728
0003c0 83 c5 14 be f7 cd d7 3d f4 c2 1a 3c 7f 5c f0 bd
       -0.1452847 0.105373316 0.0094458945 -0.11736392
0003d0 1a b8 c7 3d 66 f0 c4 3d 0e c4 00 be 31 a6 cf 3d
       0.097519115 0.09616165 -0.12574789 0.1013912
0003e0 8d 61 b1 3d 2c 36 f3 3d 1f b6 d4 bd a2 9e 20 bd
       0.086611845 0.11875567 -0.10386299 -0.039213784
0003f0 0b 57 ce bd e4 f1 08 be 52 d5 cb 3c 2d 56 95 bd
       -0.10075196 -0.13373524 0.024881992 -0.07291827

lstm.bias_ih_l0 f4 [200]
000000 2c 83 91 bd 3d 7e bc 3b ea 40 df 3d e0 46 0b bd
       -0.07105097 0.0057523535 0.10901053 -0.03400314
000010 99 a6 61 3d 91 39 28 bd 2d d7 0e be 6a bb 65 3c
       0.05509052 -0.041070525 -0.1394927 0.014021734
000020 28 9f 0f bd d2 fd a9 3c 63 be ac 3d a6 1d e2 3b
       -0.035063893 0.020750914 0.08434751 0.006900507
000030 c2 2b 1d 3e b9 8b 61 bc 53 ba e6 3d c3 7f 16 3e
       0.15348724 -0.013766223 0.11266007 0.14697175
000040 1c dd 9a 3d ba 82 45 bd c3 f0 71 3c 73 64 1a be
       0.075617045 -0.048220374 0.014766875 -0.15077381
000050 bb 2d 68 bd 96 99 02 3d 07 78 9f bd f6 ff 00 be
       -0.056684237 0.031884752 -0.07786565 -0.12597641
000060 46 7c c0 3d 85 db 48 bd 80 a5 05 bd 14 a1 a5 3c
       0.09398703 -0.049037475 -0.032628536 0.02021841
000070 f4 c0 88 3d dd 18 d3 bd 92 9a 8f bd a8 9f a9 bd
       0.06677428 -0.10307477 -0.07011904 -0.08282405
000080 5c b5 f8 3d 5f 9f c8 bd 18 45 c6 3d 8e 69 a1 bd
       0.121439666 -0.097960226 0.09681147 -0.07881461
000090 26 6b b3 3c 48 0c ad 3d fe fc 21 3e 9a c2 70 3d
       0.021901678 0.08449608 0.15819165 0.058779337
0000a0 b9 c6 00 be 5c 5d ed 3d 10 7f 91 3d 2e 5b 9b bd
       -0.12575807 0.115900725 0.071043134 -0.075857505
0000b0 17 d9 c6 3d d8 01 ea bd 7c 23 08 3e 50 87 af bd
       0.09709375 -0.11426133 0.13294786 -0.08570731
0000c0 6c 2f 0a 3e 58 91 e2 3d cf ee 9a 3c 73 21 13 3e
       0.13494653 0.11062878 0.018912701 0.14368229
0000d0 ce 62 dd bd 3c f5 30 3d 6f 4c 44 3c 26 05 33 3a
       -0.10809861 0.043202624 0.011981114 0.0006829075
0000e0 43 88 8e bc df 83 ac bd 67 89 ad bd f6 57 00 be
       -0.017398959 -0.0842359 -0.08473473 -0.12533554
0000f0 a8 32 84 3d ea 81 13 3e 91 b0 8b bd d5 a3 a1 bd
       0.064549744 0.14405027 -0.06820787 -0.078925766
000100 b7 48 eb 3d d8 6e ea bd 4f f6 d3 bb 15 fb 1b 3e
       0.11488479 -0.11446923 -0.0064685713 0.15232499
000110 63 57 cf 3c 31 b3 6f bd 4b 44 ca 3c e7 1d 06 3e
       0.025310224 -0.0585205 0.024690768 0.13097344
000120 60 08 80 3d 3d 8a 9b 3d 00 86 42 3d e3 75 8a 3b
       0.062515974 0.07594726 0.047491074 0.004225479
000130 df 14 cf 3d e5 3a f3 bc 4e 2c ed 3c e3 e7 e6 3d
       0.10111403 -0.029691169 0.02895179 0.11274698
000140 ab 2b f0 3d 70 1f b8 3c 89 6c f6 3d 6b 6a f3 3d
       0.11727079 0.022475928 0.1203242 0.11885532
000150 a4 c5 4b 3d f0 5a 44 3d df a7 d6 3d 93 8c 89 3d
       0.04974903 0.047938287 0.104812376 0.067162655
000160 9b 19 ac bd c1 59 fc bd ea b5 23 3d bf 09 0b be
       -0.08403321 -0.12321807 0.03996841 -0.13577937
000170 7c f2 98 3d 47 67 98 3d 49 ae 9f 3d 85 1f 73 3d
       0.07468125 0.074415736 0.07796914 0.05935623
000180 e9 27 16 3e 45 cb 2d 3c 98 03 94 bb f4 a4 c2 3d
       0.14663662 0.010607545 -0.00451703 0.095041186
000190 f6 23 a0 3c 78 20 71 bd ac 45 c0 bd 2e 3e 92 3c
       0.019548398 -0.058868855 -0.09388289 0.017851915
0001a0 2a 71 68 bd 23 e8 3b bd d3 6f d3 bd 31 c6 e2 3d
       -0.056748547 -0.04587568 -0.10324063 0.11072958
0001b0 e9 29 a4 bd 47 c7 17 bd 5b 58 4d bd 37 0f 4b bc
       -0.08015806 -0.03705528 -0.05013309 -0.012393764
0001c0 53 df 8f bd 28 2d e7 3d c4 1a c6 bd be a1 8f bb
       -0.070250176 0.1128791 -0.09673074 -0.004383295
0001d0 2e 44 d3 3d 01 9e 67 bd 9c 9e de bd 3a 2e 56 bc
       0.103157386 -0.05654717 -0.10870096 -0.013072545
0001e0 d0 16 95 3d 4a e9 3f bb 23 ab 90 3c f5 ef d9 bd
       0.07279742 -0.0029283338 0.01765973 -0.10641471
0001f0 96 0f 04 3d 59 a5 9e bd 14 92 b8 3d 35 3b 58 3d
       0.032241426 -0.07746381 0.09012237 0.05279084
000200 d8 4c fa 3d 5b 7e c3 3d 3e 55 0a be 5e 62 aa bd
       0.12221688 0.09545585 -0.1350908 -0.08319543
000210 ab 32 f6 bd 91 a0 74 3d 42 c6 df 3c 50 2b 07 3e
       -0.12021383 0.05972344 0.027316216 0.13200116
000220 8c 9e e8 bd 84 ac 10 3e 8a 7d 7c 3d 55 c0 09 bd
       -0.113583654 0.1412831 0.06164316 -0.033630688
000230 f9 d4 24 bd a6 d7 29 3d a3 59 c2 bd 80 ca 61 bd
       -0.04024217 0.041465424 -0.09489753 -0.05512476
000240 84 cb 9c bd 7c 93 ef 3d eb 56 65 bd f3 4e f2 bd
       -0.07656005 0.11698052 -0.055991095 -0.118314646
000250 a1 80 02 bd 01 3a 8e 3c 73 43 05 3e 88 d6 16 3e
       -0.03186095 0.017361643 0.13014011 0.14730275
000260 ab d8 82 bd 1e 30 ae 3d 38 63 02 be fe 79 c9 3d
       -0.063889824 0.085052714 -0.12733161 0.09837721
000270 49 51 86 3a 07 22 2e 3e 67 8d b6 3c b4 1f b8 bd
       0.0010247614 0.17005168 0.022284223 -0.08990422
000280 05 ad ef bd 23 ff 0d bd e5 40 ae 3d af ef 28 bd
       -0.11702923 -0.034667145 0.085084714 -0.041244205
000290 34 70 09 3e 1c bb c3 3c fb c6 35 3c ed 7d 3b bd
       0.13421708 0.023892932 0.011094804 -0.04577439
0002a0 4e 2d 94 3c 93 26 cd bb d8 50 c4 bc ef 42 f0 3d
       0.01808801 -0.006260702 -0.02396433 0.117315166
0002b0 eb 90 b0 3d ae 5a 97 bd 84 f0 09 3e 57 27 af bd
       0.08621391 -0.07390343 0.13470656 -0.08552425
0002c0 5b 9c c7 3d f9 f0 fd 3d 61 25 c8 bd 9d 0d 2d bd
       0.09746619 0.123994775 -0.097727545 -0.04224931
0002d0 ed bd 40 3d 20 e3 ff bd 06 5f 6d 3b 50 ed ac bd
       0.047056127 -0.124944925 0.0036219968 -0.08443701
0002e0 c2 ae 94 bd 72 e1 92 3c a2 fd e8 3c 32 2e f4 bd
       -0.07259895 0.017929766 0.028441254 -0.119228736
0002f0 27 e6 f8 3d 45 cd 15 3e 52 28 fe 3d 1b 32 3b bd
       0.12153273 0.14629085 0.12410034 -0.04570208
000300 6d be f8 3d 86 53 62 3d 63 e2 d4 3d 26 cd 13 3e
       0.12145696 0.055255435 0.10394742 0.14433727
000310 6f 2a 49 bd 12 2c aa 3d a5 cc 43 3c 2e b0 a8 3d
       -0.049112733 0.08309187 0.0119506465 0.082367286

lstm.bias_hh_l0 f4 [200]
000000 e0 10 fc 3d 1b af ee 3d 28 70 9d bd 0f c7 04 bd
       0.12307906 0.116544925 -0.07687408 -0.0324164
000010 15 61 42 bd 79 8a 99 bd 4c 93 c5 3c 84 17 1b 3e
       -0.047455866 -0.07497115 0.024118088 0.15145689
000020 33 01 25 3e 3c f8 99 3d 43 f1 07 3d 96 92 bd 3d
       0.16113739 0.0751805 0.03318907 0.09256475
000030 dd 6a 16 3e 37 b0 64 3d f4 b1 64 3c 77 99 37 3d
       0.14689203 0.055832114 0.013958443 0.04482409
000040 6d b0 66 3c 1b 14 ef bc 77 57 b2 3d c9 24 ce bd
       0.014080149 -0.029184392 0.08708089 -0.1006561
000050 75 18 c6 bd 1e 93 a9 bd 7f c5 aa bd 7b f6 bd 3c
       -0.096726336 -0.082800135 -0.08338451 0.02318882
000060 b6 ae b7 bc d7 33 14 bd c4 03 00 be aa c4 36 3d
       -0.022422176 -0.03618225 -0.12501436 0.044621147
000070 02 29 ed bc 27 b9 93 3d e4 51 87 bd c4 89 a7 3d
       -0.028950218 0.072130494 -0.06607416 0.081805736
000080 84 4b 7a 3d a9 8e ea bd 21 1b 18 be 52 01 02 3e
       0.061107174 -0.114529915 -0.14854099 0.12695816
000090 2f eb 5e 3d 63 73 98 3c 2b 17 92 bd 9e 51 48 bd
       0.054423507 0.018609708 -0.07133325 -0.04890596
0000a0 4c d4 3d 3d 4c 07 ca bd 02 33 c6 3d 3e 4e d2 bd
       0.04634504 -0.09864673 0.09677698 -0.1026883
0000b0 2d c5 8b bd 81 7c 07 bc bd b6 db bc e1 0e b4 3d
       -0.06824718 -0.00826943 -0.026820535 0.087919004
0000c0 b4 c6 d8 bd 50 11 9f 3d 07 06 2e bd f1 80 56 3d
       -0.105847746 0.07766974 -0.042486217 0.05236906
0000d0 53 e8 a9 3d 25 f5 03 be ac b7 e9 bd c2 7e ae 3d
       0.082962655 -0.12886484 -0.11411986 0.08520271
0000e0 58 ef f8 3c a7 cb 98 bd 31 4d e0 3d fe 33 f8 bd
       0.030387565 -0.074607186 0.10952223 -0.12119292
0000f0 61 98 19 3e 3d 7b a0 3d b7 3d 85 3d ae 83 3d 3d
       0.14999534 0.07836006 0.06505912 0.046268158
000100 ed 76 e5 bd d0 dc e5 bc aa eb 7d bb 84 ec 97 3d
       -0.11204324 -0.028059393 -0.0038745203 0.07418159
000110 73 3b 10 3e da 20 59 3d 57 5f 07 3d a7 8a 42 3d
       0.14085178 0.053009845 0.033049908 0.04749551
000120 46 7e 10 3d 7d 7b c4 bd 42 70 46 3d c9 b6 aa 3d
       0.035276674 -0.09593866 0.0484469 0.08335645
000130 24 a8 7a bd da 0b 9a 3d f4 5b e3 3d 98 13 ae 3d
       -0.061195508 0.07521792 0.11101523 0.08499831
000140 2b f1 74 bd 1f 2c 60 3d 76 d5 60 bd af 17 16 3e
       -0.05980031 0.054729577 -0.054891072 0.14657472
000150 ce fa 6e ba 4e 36 07 be 66 e3 11 3e 93 b1 d3 3d
       -0.00091163523 -0.1320431 0.14246902 0.10336604
000160 99 34 db bd f0 67 d2 bd 64 ca 6c bd 02 0f 01 3d
       -0.107033916 -0.10273731 -0.057810202 0.031508453
000170 f2 cb 92 3d 5d 0b 1f bd 06 1d 5e bd 0b 07 3f bd
       0.07167806 -0.038829196 -0.054226898 -0.046637576
000180 1e bb 51 3d 76 3b e3 bd 49 1c e3 3d bf 83 13 3e
       0.05120384 -0.11095326 0.11089379 0.14405726
000190 fb 34 44 bc a0 76 d9 bc 9b dc 12 bd 40 11 0c be
       -0.011975522 -0.026545823 -0.035854917 -0.13678455
0001a0 41 8a c2 bc 99 55 07 bc ab 58 db bd a7 06 aa bd
       -0.023747565 -0.008260154 -0.107102714 -0.0830205
0001b0 c7 9c e4 3d 3f 6b cf bb 69 04 41 bc 9b a3 f2 3d
       0.111627154 -0.0063299234 -0.011780837 0.118476115
0001c0 f3 b6 0e 3e 9e 5d 09 bd 65 31 0f 3d 70 eb 95 bd
       0.13936977 -0.033536546 0.034959216 -0.07320297
0001d0 7e 05 43 bd 79 68 e6 3d da de 0c 3d 01 cb ff bd
       -0.04761266 0.11250395 0.034392215 -0.12489892
0001e0 99 b8 d7 bc d8 13 ab bc f4 78 85 bc 99 5c 7f bd
       -0.02633314 -0.020883486 -0.016293027 -0.062344167
0001f0 74 4a da ba 6c 38 e1 bb 86 e5 59 bd 54 a2 08 3b
       -0.0016654269 -0.006873181 -0.053197406 0.0020848708
000200 04 ec b7 bd bf 2c 0d 3e 8e 00 dd bb 2c 77 aa 3c
       -0.08980563 0.137866 -0.006744451 0.020808779
000210 cc 02 2d 3d b6 a2 2f bd 09 cc 17 bd 2c 60 c0 3d
       0.042238995 -0.042879783 -0.037059817 0.09393343
000220 54 75 b7 3d 6e 17 d7 bc 9a 0c 05 bd 96 b6 02 3d
       0.089579254 -0.02625629 -0.03248272 0.03191241
000230 7b 9a 7c bd 7f 5e f9 3d 52 20 53 bd b1 75 85 bc
       -0.06167076 0.12176227 -0.051544495 -0.016291471
000240 78 47 dd bd ae c8 f9 bd 24 a2 68 3b ba 79 71 bd
       -0.10804647 -0.1219648 0.0035497034 -0.058953978
000250 c2 9f e8 bc 30 da 93 bd e3 3b 33 bd 53 e9 cd 3d
       -0.028396491 -0.0721935 -0.043758284 0.10054269
000260 30 77 03 be f3 73 e3 bc 7c d3 41 bd 79 b0 45 bc
       -0.12838435 -0.02776525 -0.047320828 -0.012066
000270 5c 8e bd 3d 58 94 d6 3c e3 98 3f bc 4d a1 4d 3d
       0.092556685 0.026193783 -0.011694166 0.050202657
000280 e4 4d 04 3e 4b b0 46 3d 71 1e 05 bd 43 d8 2a 3d
       0.12920338 0.04850797 -0.032499734 0.04171015
000290 09 4d 15 3e ee af 17 3e b3 a9 89 3d f8 0c 92 3c
       0.14580168 0.14813206 0.06721821 0.01782845
0002a0 49 cd 0c 3e 99 8a 38 3d 88 4a d2 3d ec 00 35 3e
       0.13750185 0.045054052 0.10268122 0.17676133
0002b0 04 09 97 bc bb 53 b4 39 75 b8 89 bc 2d eb f9 bd
       -0.018436916 0.0003439466 -0.016811589 -0.12203059
0002c0 cf 29 e5 3d 84 04 1d 3d a5 09 d7 3d 63 55 e3 bc
       0.11189615 0.038334385 0.104998864 -0.027750676
0002d0 98 99 94 bd 02 fd fa bd bb eb 1b bb 1c 90 93 3d
       -0.07255858 -0.12255289 -0.002379163 0.07205221
0002e0 3e 94 a3 3b 77 c2 4c 3c ad 2c b5 bd 83 e2 04 3d
       0.004992037 0.012497536 -0.08846412 0.03244258
0002f0 d7 76 67 3d 05 77 13 3e 85 47 ac 3d 11 b8 0c be
       0.05650982 0.14400871 0.08412079 -0.13742091
000300 d3 05 9a 3d c4 46 4f bd 3f 52 9e bd 73 f9 81 3d
       0.07520642 -0.050604597 -0.07730531 0.06346407
000310 ef 44 05 3e 31 03 80 bd 6d 8e 01 3e f8 ed 85 3d
       0.13014577 -0.06250609 0.12651987 0.065395296

lstm.weight_ih_l1 f4 [200, 50]
000000 e0 5b 16 bd 01 ea 0d 3e d0 44 0f bd 1c 3c cc 3d
       -0.036708713 0.13858797 -0.034977734 0.099724025
000010 fa 1d de bb b9 bd f7 bd 6a 06 0e be 4e 4c e7 3c
       -0.006778476 -0.120967336 -0.13869634 0.028234627
000020 ea 3f bd 3c ff 44 98 3d 57 3b 42 3c 19 d7 b4 bd
       0.023101766 0.07435035 0.011854968 -0.08830089
000030 be 0b 71 bd 34 e6 98 bd 4c 48 eb 3d 4a d3 bc bd
       -0.05884909 -0.07465783 0.11488399 -0.09219988
000040 bb b5 f3 bc 4a 46 a4 3b e7 f7 cf 3d e0 1d d9 bd
       -0.029749742 0.005013262 0.101547055 -0.10601401
000050 a6 d6 81 bd fa db b9 bc 74 e7 ea 3d d8 8b a7 3d
       -0.06339769 -0.0226879 0.114699274 0.0818097
000060 72 d0 d9 3d 4d 06 0f bc 6f 62 63 bd f8 95 1c 3e
       0.10635461 -0.00872953 -0.055513795 0.15291584
000070 f8 61 b3 3d 74 f4 d4 bd e5 a3 57 bd 06 87 9d bd
       0.087589204 -0.10398188 -0.052646536 -0.07691769
000080 32 19 e5 bd cd 7b be 3d 49 c5 12 be 5d d2 92 bd
       -0.11186446 0.09300957 -0.14333071 -0.0716903
000090 20 2f a4 3d bc 01 97 3d c8 f9 81 3d 5d de d7 3d
       0.08016801 0.07373378 0.0634647 0.10540459
0000a0 10 b1 33 3d eb 53 1b 3e ef 99 b9 bd 47 4b 96 bd
       0.04387003 0.15168731 -0.09062564 -0.07338577
0000b0 96 61 32 bd eb 1c e6 3d da 3e c2 bd 4b b4 dc bd
       -0.043550096 0.112359844 -0.09484644 -0.10776576
0000c0 19 43 c1 3d 95 36 86 bd 82 34 d4 bd cb b2 18 3d
       0.09436626 -0.065533794 -0.103615776 0.037279885
0000d0 c9 b7 06 bd ff 8a 04 be 33 ab f7 bd 8c 6d c0 3d
       -0.032890115 -0.12943648 -0.120932005 0.093958944
0000e0 92 df 2a 3d 34 0f d7 bd d8 70 dd bd 23 30 71 bd
       0.04171712 -0.10500947 -0.10812539 -0.058883797
0000f0 8b 33 bf 3d 73 2f 09 bd 0f 5d 08 be 5a d3 7c 3d
       0.09336003 -0.033492517 -0.13316749 0.061724998
000100 9e 01 d3 bc 51 7a 5d 3d bd 97 07 3e d1 38 85 3d
       -0.025757607 0.05407173 0.13241477 0.065049775
000110 38 d8 be bd a5 4c 9c bc 7d a1 c3 3d 43 f9 20 3e
       -0.09318584 -0.019079516 0.09552286 0.15720086
000120 f1 91 bc bd c2 a2 15 ba 04 33 09 3e d3 90 0f be
       -0.092075236 -0.0005708152 0.13398367 -0.1402009
000130 93 6f ea 3d 70 d6 dd 3b 7f 0b 88 bd eb e5 04 be
       0.11447062 0.0067699477 -0.06642818 -0.12978332
000140 10 bc a6 3d 2a 64 a5 bd 64 e5 bf bd 43 a1 10 3e
       0.08141339 -0.080757454 -0.09369925 0.14124016
000150 1b 4d fd bb 82 9f 6b bd 32 be 06 be c7 06 97 3d
       -0.007730139 -0.057525165 -0.13158491 0.073743396
000160 d6 10 9c 3d e8 f8 d7 bd 5c 11 01 3e f1 a5 f2 3d
       0.07620399 -0.10545522 0.12604278 0.11848057
000170 08 eb 01 3e cf d0 04 3d 04 52 81 ba 72 42 c4 bc
       0.12687314 0.032425698 -0.0009866362 -0.023957465
000180 a0 e7 27 3d c8 a3 1a 3d fe 1c 8c 3d 55 82 29 3e
       0.04099238 0.03775385 0.06841467 0.16553624
000190 a4 93 59 bd 86 0b 05 be 9e 11 47 bd bb 5f 01 3e
       -0.053119317 -0.12992677 -0.048600785 0.12634175
0001a0 0a b1 09 3e 6f 78 87 3d 3d 59 f6 3d 45 0f fb bd
       0.13446441 0.06614768 0.120287396 -0.12258772
0001b0 93 6e 93 3d 9a f7 dd 3d 31 10 64 bd 19 fe b5 3c
       0.07198825 0.10838242 -0.055679504 0.02221589
0001c0 cd 5d 0e be 4c 83 00 3e 68 01 2c bd b6 5b 82 3c
       -0.1390297 0.12550086 -0.04199353 0.015912872
0001d0 34 71 b5 bd 0d 91 cb 3d 0d 3d 0b be 3b 70 39 bd
       -0.088594824 0.099397756 -0.13597508 -0.045273047
0001e0 ea f5 cc bd d1 b0 eb 3c 96 14 80 3d 3b f7 0e bc
       -0.10007842 0.028770836 0.062539265 -0.0087259365
0001f0 1d 67 ce 3d b7 1f 4d bc 91 06 1e be b4 1b c8 bd
       0.10078261 -0.012519768 -0.15432192 -0.09770909
000200 bf c2 46 3d 31 e2 7e bd a4 90 e7 bc e5 85 ba 3b
       0.048525568 -0.06222743 -0.028267212 0.005692231
000210 66 40 ab 3d 94 d3 56 bc b5 a6 12 3d 37 37 fa 39
       0.083618924 -0.013111968 0.035803515 0.00047724854
000220 e6 71 f9 3d d8 71 ae 3d c1 08 17 bd 90 af 67 bd
       0.121799275 0.08517808 -0.036873583 -0.056563914
000230 31 0a 8b 3c f2 2a 1c 3d 73 74 7f bd fd ce 3f bd
       0.016972633 0.038126893 -0.062366914 -0.04682826
000240 cd d6 b1 3d cb 95 a7 bd c4 61 a0 3d d2 d9 a4 bd
       0.08683548 -0.081828676 0.07831147 -0.080493584
000250 c6 da af 3d db e0 7d bd 39 a2 0a 3d 62 32 80 bd
       0.085866496 -0.061982017 0.033846114 -0.0625961
000260 93 77 0a be 73 59 dd 3d 4e c4 a7 3d b3 e4 86 bd
       -0.13522176 0.10808077 0.08191739 -0.0658659
000270 e5 c8 55 3d 52 e9 79 3d 0c 78 82 3d 60 a0 55 bd
       0.05219354 0.061013527 0.063705534 -0.0521549
000280 92 25 89 3d 06 c4 8d bd 9b 98 c6 bc d7 83 bb 3d
       0.06696619 -0.06922154 -0.02424269 0.09156006
000290 ab d9 45 bb eb 9a 08 3e 83 ec 15 3c df 41 ab bc
       -0.0030189555 0.13340347 0.009150627 -0.020905433
0002a0 3a d6 e2 bd 3e 6b 0e 3d 20 9c 0a 3e 21 46 90 3c
       -0.11076017 0.034770243 0.1353612 0.017611565
0002b0 c7 a9 fa 3c c1 84 19 3c 86 47 04 3d 54 66 41 3c
       0.030598534 0.00937003 0.032294773 0.011804182
0002c0 7a 2e d0 3c e7 a6 bf 3d c2 c0 ea 3d 6d ab d2 3d
       0.025412787 0.09358006 0.11462547 0.10286603
0002d0 31 99 85 bc 88 ef 52 bd 76 82 b1 3c 0b cb 4b bc
       -0.016308399 -0.051497966 0.021668654 -0.012438546
0002e0 c0 f2 bb 3b 23 0d 89 3d 91 d4 ee 3d 6f 29 f3 bb
       0.005735725 0.06691959 0.116616376 -0.0074207108
0002f0 a6 53 cb 3d ba 7c 52 bd 3b 77 c6 bd cc 4c ef 3d
       0.09928064 -0.05138848 -0.0969071 0.1168457
000300 e1 5b a9 bd ec ea fb 3c b0 7d b8 3d d2 11 cc bd
       -0.08269478 0.030751668 0.09008348 -0.099643365
000310 e2 80 5b 3c 57 0d 84 3d 68 a7 fb 3d 9a 9d ea 3d
       0.013397427 0.06447857 0.122877896 0.11455841
000320 00 9b 23 be ae 5f a9 bd 13 41 86 3d db 05 ee bd
       -0.15977097 -0.082702026 0.06555381 -0.116222106
000330 58 a8 e1 3d 35 a8 b4 bc 64 92 27 3d 80 5f 0e 3e
       0.11018437 -0.022052864 0.040911093 0.13903618
000340 3d 23 a7 3d 39 8b cf bc cb ef 5c bd 6a 00 74 3d
       0.08161018 -0.025334941 -0.053939622 0.059570707
000350 10 ae c7 3d ec 38 f4 bd 6b 46 42 3d 90 a6 10 be
       0.09749997 -0.119249195 0.047430437 -0.14126039
000360 fd 96 35 3d 81 48 8a 3c 43 03 76 bd 1d 41 07 be
       0.044333447 0.016880276 -0.060061704 -0.13208432
000370 8f fe a3 3d de b5 29 3e 00 bb a1 bd 14 74 d0 3c
       0.080075376 0.16573283 -0.078969955 0.025445975
000380 85 94 dd 3d 75 79 4e bd e7 f7 f3 ba 19 8d 43 be
       0.108193435 -0.0504088 -0.0018613309 -0.19096793
000390 51 4b a8 3d ff 97 f2 bc 83 77 aa bd 1b 35 15 3e
       0.082174905 -0.029613493 -0.08323576 0.1457104
0003a0 ac b6 b2 bd 12 6f a8 3d 9b 32 f4 bd 63 5c 3e bd
       -0.08726248 0.0822431 -0.11923715 -0.046474826
0003b0 86 51 7d 3d 14 85 92 3c 59 39 b0 bc ff 4e 33 bd
       0.061845325 0.017885722 -0.02151172 -0.04377651
0003c0 51 7e 91 bd af 40 2e 3d e3 3f 6a bd e3 7a 3e 3d
       -0.07104171 0.042542156 -0.057189833 0.046503913
0003d0 1e 1a 59 3d c6 ff 3e 3c b6 04 74 bc 63 9f b6 bd
       0.053003423 0.011657661 -0.014893701 -0.08917119
0003e0 33 b4 f0 bc 45 50 b3 bd da 49 d2 bd cb 7a a6 bc
       -0.0293828 -0.087555446 -0.10267992 -0.020322224
0003f0 a6 5e 6c 3c 28 e6 02 be 7b fc 82 bd 1e b0 2f be
       0.014426863 -0.1278311 -0.06395813 -0.17157027

lstm.weight_hh_l1 f4 [200, 50]
000000 4e 86 b4 bd ea 1a fb bd 86 e6 6e 3c 92 59 cb 3d
       -0.08814679 -0.12260993 0.014581328 0.099291936
000010 cd 4f 09 3e 38 a9 bd 3c 8d a0 5f bd e6 b6 c2 3d
       0.13409348 0.023151979 -0.054596473 0.09507541
000020 71 75 93 bd ea 4f 91 bd 8a 96 a7 3d 6f c7 f7 bd
       -0.072001345 -0.070953205 0.0818301 -0.12098586
000030 91 a3 b5 3b 97 a5 c7 3d fd 23 cd 3d 6d 3c c7 3d
       0.0055431803 0.09748381 0.1001663 0.09728322
000040 b6 06 20 bb 79 25 e5 bb 79 b0 03 be ef 10 1a 3d
       -0.0024418063 -0.0069929925 -0.12860288 0.037613805
000050 65 d3 1d 3d 9d e7 16 3e 17 79 6f bb af 3f 26 3d
       0.03853168 0.14736791 -0.003654068 0.040588077
000060 42 9c 9c bc 12 a6 00 bd d6 8b 8c bd 2c 4b 09 3c
       -0.019117478 -0.031408377 -0.06862609 0.008379739
000070 ce 93 f6 3d dc ab 9e bd 93 d7 a2 3d 47 be 91 bd
       0.1203991 -0.07747623 0.07951274 -0.07116371
000080 ab 16 f1 3d 9d 97 8c 3d d9 dd d2 3d e0 ab 65 bd
       0.11771902 0.068648554 0.1029622 -0.056072116
000090 83 9f 15 bc b1 8d 79 3d 51 f1 c8 bd 69 a4 d9 bd
       -0.009132269 0.060926143 -0.098116525 -0.10627062
0000a0 e0 74 0a be d4 ab 04 be bc 11 92 3d 73 c3 cd 3d
       -0.13521147 -0.12956172 0.07132289 0.100470446
0000b0 a5 a7 e9 bd 23 bc fb 3d f9 7b af bd 15 34 6a 3d
       -0.11408929 0.122917436 -0.08568568 0.057178576
0000c0 ba 87 30 bd fb e8 40 3d b8 84 7b bd b9 7c aa 3d
       -0.04309819 0.047097187 -0.061405867 0.0832457
0000d0 bd 3a 2d 3d 7c 43 ae bd 36 82 0e 3d b6 f6 da 3d
       0.042292345 -0.085089654 0.034792148 0.106915876
0000e0 12 6f 6d bc 4a b7 b3 3d ae ca 91 39 75 be df 3c
       -0.014491813 0.08775194 0.00027807563 0.027312497
0000f0 76 2b 4b 3d b7 79 92 3d 63 ce 78 bd 0f f2 1a 3d
       0.049601994 0.071521215 -0.0607437 0.0378285
000100 81 66 f7 bd cd 38 81 bd 2f dc ea 3d 6a 10 f7 bd
       -0.12080098 -0.06309662 0.11467778 -0.120636776
000110 89 1a 72 3d 7f 7b 0a 3d 22 11 97 bb e2 8f 47 bd
       0.059107337 0.03380918 -0.0046101967 -0.0487212
000120 db 02 85 3d 49 d9 98 bd c5 88 43 3c 4c d8 f8 bc
       0.06494685 -0.07463319 0.011934464 -0.030376576
000130 54 8f fe bd ee 1e e0 3d 6f 75 a8 bc cd 9e 81 bc
       -0.124296814 0.10943399 -0.02056381 -0.015822792
000140 11 01 06 bd 38 11 3d 3d 7a ee 03 be f1 86 2f 3c
       -0.03271586 0.046159 -0.1288394 0.010713325
000150 28 fc a2 3d 57 1e a6 3d 53 7c e6 bd 26 13 89 bd
       0.07958251 0.081112556 -0.11254182 -0.066931054
000160 9a f5 04 3e 92 bf cb 3c 8f 65 a7 3d d7 12 72 3d
       0.12984315 0.024871621 0.08173668 0.0591
000170 7f 8f ee 3c ac 90 c3 bd b6 84 6f bd 0b 52 e4 bd
       0.029121159 -0.09549078 -0.058476172 -0.11148461
000180 0a 8c 0f bd 4b e1 38 bc 27 96 3a bd ef a3 da 3c
       -0.03504566 -0.011284183 -0.045553353 0.026689498
000190 d7 59 d3 3c f4 87 14 3e 6d 8b 7e 3d 30 ec f1 bd
       0.025799675 0.14504987 0.062144686 -0.11812627
0001a0 13 97 f2 3d e9 84 ec bb 4b de d3 bd 46 93 87 3c
       0.11845221 -0.0072179926 -0.103451334 0.016549718
0001b0 e5 ca 9e 3d d2 b5 ea 3d 6b 48 23 be cb 91 b0 3c
       0.07753543 0.11460461 -0.15945594 0.021553895
0001c0 e9 fe ec 3c 73 56 61 bd 60 9c ee bd 57 ca db 3c
       0.028930144 -0.055014085 -0.1165092 0.026829882
0001d0 14 ae d8 3d 30 e8 c1 bd b3 eb 0d 3e b9 5d 86 3d
       0.10580078 -0.094681144 0.13859443 0.06560845
0001e0 40 69 09 ba 76 62 60 bd 66 d0 44 bc 51 5b 1c be
       -0.0005241819 -0.0547814 -0.012012577 -0.1526921
0001f0 10 05 31 3d a5 57 b6 bd 6a eb 40 bd 47 03 64 bd
       0.04321772 -0.089034356 -0.04709951 -0.055667188
000200 f6 34 7f bd 50 30 42 bd 49 3f 33 3d 3c 80 b5 bd
       -0.062306367 -0.047409356 0.043761525 -0.088623494
000210 ad e0 af bc d1 96 ad 3c 9f 06 a7 bd 5f 2e 2b 3c
       -0.021469438 0.021190079 -0.0815556 0.010448067
000220 b4 9e 74 3d aa a0 ec 3d 00 be 91 bd ba 31 1c bd
       0.059721664 0.11554082 -0.07116318 -0.03813336
000230 af bd 8a 3d d3 35 b3 bb 8b 0b 83 bd 29 53 d4 bc
       0.067744605 -0.005469063 -0.06398686 -0.02591856
000240 5c c5 ce bd fc 3c 02 3e 88 44 56 3b fb 2f eb bd
       -0.10096237 0.12718576 0.0032694656 -0.11483761
000250 39 b2 b3 bd d7 c2 5b bc 96 57 81 3d 42 8d ca 3c
       -0.08774228 -0.013413153 0.06315534 0.02472556
000260 ae 63 fe bd 1d 78 8a 3d d0 cb ab bd 4e 4f 6c 3d
       -0.12421356 0.06761191 -0.083884835 0.05769282
000270 60 1b 20 3d 0d 8e e1 bc d1 90 d3 bd 99 b3 ed 3d
       0.039088607 -0.027533555 -0.10330356 0.11606521
000280 0a 38 92 3d 07 e1 e1 bd 13 c5 b8 3d 84 b6 14 3e
       0.07139595 -0.11029249 0.09021964 0.14522749
000290 d4 fb d4 bd a3 3d 7c 3d b6 37 ec bd c3 b7 27 bd
       -0.10399595 0.06158222 -0.115340635 -0.040946733
0002a0 f0 e7 0b 3d ab 8e b0 3d 85 5f ba bd 84 dc 05 bd
       0.03415674 0.08620962 -0.0910025 -0.032681003
0002b0 2f 95 78 3d 0f 9c a4 bd 59 2c d3 3c 53 91 36 bd
       0.060689148 -0.08037578 0.025777983 -0.044572186
0002c0 a7 a9 cf 3d 05 b3 d6 bc 2f 7d c9 3d e7 e0 cc 3c
       0.101397805 -0.02620841 0.0983833 0.025009586
0002d0 48 58 72 3d a0 a0 c4 3c 4a 7d d0 bd 64 5b 95 3d
       0.059166223 0.024002373 -0.10180147 0.07292822
0002e0 b6 4b f6 3d 36 49 83 bd 00 dc b8 3d 31 f3 bd 3d
       0.120261595 -0.06410448 0.09026337 0.09274901
0002f0 68 8f d1 3d 62 45 b0 bd 80 64 aa bd ac 4d e6 bd
       0.10232431 -0.08606984 -0.0831995 -0.112452835
000300 88 d1 e7 bc 9b a5 e4 bd 25 9d c8 3c ee d3 84 3d
       -0.028298154 -0.11164399 0.024488995 0.06485735
000310 f3 11 00 be cf 1f 63 3d a0 70 e0 3d e2 08 b9 bd
       -0.12506847 0.055450257 0.109589815 -0.090348974
000320 4f ce f8 3c e0 c2 0d be 3b c5 1d bd da ac 8c bd
       0.030371813 -0.1384387 -0.03851817 -0.06868906
000330 8e 56 cb 3d 15 bc 47 bd b7 fa df bd 10 d8 33 3b
       0.09928618 -0.048763353 -0.10936492 0.0027442016
000340 40 fb c0 bc 16 e7 3e 3d 5f 3e 86 3c 7a a4 77 3d
       -0.023557305 0.0466071 0.016387163 0.06045959
000350 4a 90 25 3d 37 66 ed 3d 1a 6c 2e be a7 c8 05 3e
       0.040420808 0.115917616 -0.17033425 0.13064824
000360 1e ca 9b bd 03 6a f8 3c 92 c5 75 bd 63 3d ff 3d
       -0.0760691 0.030323988 -0.06000287 0.124628805
000370 03 85 ae bc 01 8c 47 3c b1 cb d8 3d 82 0b 04 3e
       -0.02130366 0.012179376 0.10585726 0.12895015
000380 10 18 96 bd 3e 5d 6b bd 64 44 b3 bd c5 91 8e bc
       -0.07328808 -0.05746197 -0.08753279 -0.017403493
000390 74 20 7c 3c 04 e5 f9 3d cb c8 e2 3d 1d 32 f9 bc
       0.015388597 0.122018844 0.110734545 -0.030419404
0003a0 ed 6a e3 3d 96 56 e8 bd 98 88 c4 3c fb f5 c8 bd
       0.11104379 -0.1134464 0.023990914 -0.09812542
0003b0 8b e7 03 be 05 00 05 bd ab 83 00 be 7c 84 7b 3d
       -0.12881295 -0.03247072 -0.12550227 0.061405644
0003c0 4b df b4 bd 16 23 ca 3c 3c 9f 04 be 28 47 19 bd
       -0.08831652 0.024674933 -0.12951368 -0.037421376
0003d0 a9 ba bd bd eb 83 b6 3c 35 a4 0d be da af 06 be
       -0.09264118 0.0222797 -0.13832171 -0.1315302
0003e0 43 93 e6 3d ec 85 cb 3d 24 7c a0 3d 61 78 ed bc
       0.11258557 0.09937653 0.07836178 -0.028988065
0003f0 ff 63 27 bc e1 8f 9a bd 14 15 d5 bd ba ca 1e 3d
       -0.010216712 -0.07546974 -0.10404411 0.038767554

lstm.bias_ih_l1 f4 [200]
000000 04 f5 05 3e a4 9b 86 3d fd cf 8c bd 43 a9 d1 bc
       0.13081747 0.06572655 -0.06875608 -0.025593406
000010 9d 8f 2e 3d e7 86 78 3d 74 08 dc 3d 9d e4 13 3e
       0.04261743 0.060675528 0.107438 0.14442678
000020 55 97 10 3e d6 99 b5 bd d2 e2 f1 b9 e6 ac c7 3c
       0.14120229 -0.088672325 -0.00046136096 0.024374437
000030 02 b1 ac bc db 08 6e 3d 4e 40 0c 3e 78 30 85 bd
       -0.021080498 0.058113914 0.13696405 -0.06503385
000040 49 b5 64 3d 06 c9 80 3d 68 88 cf bc 62 51 a8 bd
       0.05583695 0.06288342 -0.025333598 -0.082186475
000050 2b 85 b2 3d ed ff c5 bd 91 31 2f 3e 18 65 80 bc
       0.08716806 -0.096679546 0.17108752 -0.015673205
000060 bd e5 10 3c 21 70 ee 39 37 e2 a5 3d 51 d5 b7 bd
       0.008843836 0.0004547844 0.08099788 -0.08976234
000070 fa bd c3 3d 71 72 08 bd 53 77 d7 3b 5c 7c e9 bd
       0.095577195 -0.033312265 0.006575504 -0.11400673
000080 28 f2 ac bc 44 d4 63 bd 61 4a d1 3c 79 e8 e8 bd
       -0.021111563 -0.055622354 0.025548162 -0.11372466
000090 99 81 e8 3d 68 50 20 3e c5 7a d9 3d b8 7b 87 3d
       0.11352844 0.15655673 0.106191196 0.06615394
0000a0 a0 c4 f1 bd 32 68 a0 3d f4 e3 81 3d c8 dd 54 bd
       -0.11805081 0.07832374 0.06342307 -0.05196932
0000b0 fc e9 cf 3d f8 3b 5c 3d 4f 8b a7 bd 81 3c ee 3b
       0.10152051 0.05376813 -0.08180868 0.007270396
0000c0 cc cb 64 bc d7 ee 06 3d 1f f4 d3 3d 5e 09 f9 bd
       -0.013964605 0.03294262 0.10349297 -0.1215999
0000d0 33 5c 07 3e 6e 58 3e bd 48 cf a4 3d 90 bf fa bd
       0.13218765 -0.046471052 0.08047348 -0.12243569
0000e0 ea 93 f5 3d f0 73 4d 3d 16 3c a9 bd 10 bf f1 3c
       0.11991103 0.050159395 -0.082634136 0.029510051
0000f0 99 ba ff bc fb ec 2b bd 10 33 98 bd c1 80 04 3e
       -0.031216906 -0.04197405 -0.074316144 0.1293974
000100 9b 5f 06 3e b7 3c 04 3e ab 46 e9 3d 6b 0d 0c 3d
       0.13122408 0.12913786 0.11390432 0.034192484
000110 5b fd d7 bd e6 71 19 bc 20 03 68 3c 18 94 c0 3b
       -0.105463706 -0.009365534 0.014160901 0.005877029
000120 f8 ab 92 bd 70 2c 8c bd 1c 8e 01 bd 9d a6 ea bd
       -0.07161707 -0.06844413 -0.031629667 -0.1145756
000130 9c 2b 03 3e 9f cc 6a 3d 71 4f 10 3d 3f d9 c2 bd
       0.12809604 0.057324048 0.03523201 -0.09514093
000140 2c 6d d2 3d 5d 8f c2 3c 99 87 40 3c da 69 9f bd
       0.10274729 0.023750002 0.011751079 -0.077838615
000150 50 8e 95 bd df 1d 14 3e 71 22 8f 3d bd 1a 8c bc
       -0.073025346 0.1446452 0.06988991 -0.017102594
000160 85 33 98 bd 07 ba 83 3c 16 5e 8e 3d e2 08 1e bd
       -0.074317016 0.016079916 0.06951539 -0.03858269
000170 4d cb 85 bc aa dd fd 3c 6e 98 e4 bc c7 53 c3 3d
       -0.016332293 0.030989487 -0.027904715 0.09537464
000180 76 24 ff 3d 38 65 06 be 22 49 8f 3d c0 0c 19 3e
       0.12458126 -0.1312455 0.06996371 0.1494627
000190 f3 1a c8 bd 29 5a 03 be c9 43 85 bd c8 41 bc bd
       -0.09770765 -0.12827362 -0.065070696 -0.09192234
0001a0 0b 33 b4 bd f8 0c 91 3d 32 47 e4 bc ff b0 d2 3d
       -0.08798798 0.07082552 -0.02786598 0.102876656
0001b0 2c f6 b1 3d 3c f4 02 3e b9 66 c3 bd 47 87 70 bd
       0.08689532 0.1278848 -0.09541077 -0.05872276
0001c0 6d 1c 74 3c 43 97 54 bd 5a 62 93 3d 09 a3 22 3d
       0.014899355 -0.051902067 0.071964934 0.039706264
0001d0 dd 96 9e 3d 33 63 a8 3d b1 9c 05 3e 99 7c cb bd
       0.07743619 0.08222046 0.13048054 -0.099358745
0001e0 85 70 07 3e 6e 00 1f 3d 3b 65 c2 bd 63 95 a4 3d
       0.13226517 0.03881877 -0.094919644 0.08036306
0001f0 d8 b2 a1 3b 33 18 bd 3d e2 22 f9 39 96 5d 15 bd
       0.00493465 0.09233131 0.0004751897 -0.036466204
000200 d4 46 18 3c f4 53 e9 bd a0 43 a1 bd a9 45 82 bb
       0.0092942305 -0.11392966 -0.078742266 -0.0039755893
000210 1e a7 f7 3d c9 36 a5 3c 85 4c 21 3d da 6c 96 3d
       0.12092422 0.020167725 0.039379615 0.073449805
000220 5f 19 85 bd f7 cc c9 bc c2 a3 b7 bd 7d c9 a7 3d
       -0.0649898 -0.024633868 -0.08966781 0.08192728
000230 49 9a 63 3b 95 e2 a0 3d ec 32 d7 bc ff 86 a0 3d
       0.0034729412 0.07855717 -0.026269399 0.078382485
000240 25 00 a1 3d a7 5d 85 3c 92 36 11 3e 94 8e d0 bd
       0.07861356 0.016280008 0.14180973 -0.101834446
000250 ff f3 2e bc 94 ea b2 3c 8d e5 e5 bc 38 c8 9d bb
       -0.01067829 0.021840371 -0.02806356 -0.0048151277
000260 2c c0 39 bb fa 00 e4 3d 87 4f f0 bd 93 f5 91 3d
       -0.0028343303 0.11132999 -0.11733919 0.07126918
000270 9b 59 a8 bd c5 a6 40 3d 2f 94 fd 3c 12 6b b1 bc
       -0.08220216 0.047034044 0.030954449 -0.0216575
000280 ee 3f a8 3c ac bc 8a bd de ba 41 3d c1 3b cc 3d
       0.020538297 -0.067742676 0.04729735 0.09972335
000290 31 b9 05 3d fa d0 44 ba c4 4c 80 bd 91 3f 3b 3d
       0.032647315 -0.00075079466 -0.06264642 0.04571492
0002a0 e6 31 19 3e 37 ab 8d 3d d4 54 90 bd 1e b8 c3 3d
       0.14960441 0.06917422 -0.0704743 0.09556602
0002b0 73 01 a7 3d e1 21 ca 3d ba d7 38 bd 38 dc 07 3e
       0.08154573 0.09869743 -0.045127608 0.132676
0002c0 09 88 9c bd c6 de a2 bd a7 af 8f bd 96 fb 61 3c
       -0.07643134 -0.07952647 -0.07015925 0.013792893
0002d0 fe 4b a0 bd f4 3d e9 bd 4e 53 12 3e 70 f6 e1 bd
       -0.07826994 -0.1138877 0.1428959 -0.11033332
0002e0 f8 57 38 bd 24 f8 88 bd c4 ed b9 bd 99 d8 c6 bd
       -0.04500577 -0.06687954 -0.09078553 -0.097092815
0002f0 83 ea 0b be 70 2d 29 bd 8d 2b b1 3b 8b 17 07 bc
       -0.13663678 -0.0413031 0.005406803 -0.008245359
000300 9b df 8d bc 4b 5b 53 3d 5a 2e b3 bd 99 36 78 bc
       -0.017318537 0.051600736 -0.08749075 -0.015149736
000310 e2 d0 98 3d 24 c2 a5 bc 3e 34 53 3c ac a3 30 3d
       0.07461716 -0.020234175 0.0128908735 0.04312484

lstm.bias_hh_l1 f4 [200]
000000 d1 86 89 3d 1f 00 26 bd 70 44 57 3d c7 1d 34 3d
       0.06715167 -0.04052746 0.0525555 0.04397371
000010 e8 5f e3 3d b3 f7 98 3d 94 ff dc 3d 3b 44 28 3e
       0.11102277 0.0746912 0.10790935 0.16432278
000020 fc 87 97 bd 88 0c e4 bd df c9 2b 3d 32 4a 12 3e
       -0.07398984 -0.11135203 0.041940566 0.14286116
000030 36 77 be bd 59 35 ff bb 89 ad bb 3c f4 4f a3 bc
       -0.093000814 -0.007788342 0.022909896 -0.019935586
000040 f6 a5 f0 bd da 8a 0e be 51 98 e2 3d e6 6c 11 bd
       -0.117504045 -0.13920155 0.11064208 -0.035504244
000050 d7 15 cc 3d 8b 4a ec 3d cd ea 66 3d 2c 0b f0 3d
       0.09965103 0.115376554 0.056376267 0.11720881
000060 70 36 be 3c 2f c4 bd 3d 32 22 5c bd de b8 d8 3d
       0.023219317 0.09265935 -0.05374355 0.105821356
000070 30 4e 56 3d 04 0a eb 3d 96 42 91 bd c9 73 b7 3d
       0.05232066 0.1147652 -0.070927784 0.08957631
000080 94 10 dc bc b5 3d 23 bc 73 d6 76 bd 41 0e f2 3c
       -0.026863374 -0.009963443 -0.06026311 0.029547812
000090 b9 bd ae 3d 04 1d 1c 3e 06 0d 0d 3e 5f 87 13 be
       0.085322805 0.15245444 0.137745 -0.14407109
0000a0 eb a8 6d 3d 77 16 f6 3d 99 b8 fa bd 41 86 0c be
       0.05802242 0.120160036 -0.122422405 -0.13723089
0000b0 e2 b4 a9 bc d4 42 62 bd d5 57 f2 3d ef f6 05 3c
       -0.020716134 -0.055239514 0.11833159 0.008176549
0000c0 71 89 19 bd e3 29 2b 3d 06 9f 0d be f5 bc bd bc
       -0.03748459 0.041787993 -0.13830194 -0.02316139
0000d0 44 4b 61 bc 60 12 b6 3d 36 c7 64 bc c3 b0 81 bd
       -0.013750855 0.088902235 -0.013963511 -0.06332543
0000e0 25 ac d7 bd d0 cd 8d 3d 74 b2 a4 bd 11 62 ee bd
       -0.10530881 0.06924021 -0.0804185 -0.116397984
0000f0 0e d3 26 bd 78 a5 e0 3d e6 36 a7 3a 76 ff d8 bd
       -0.04072862 0.10969061 0.001275745 -0.105956
000100 20 11 ed bd ca 1c f6 bd 2a 17 0d 3e 60 58 5c bb
       -0.11575532 -0.1201721 0.13778368 -0.0033622012
000110 a6 a9 55 3d 7a 30 af bd 11 fe 29 3d e8 9d c1 bd
       0.052163742 -0.08554168 0.041502062 -0.09453946
000120 27 c5 1d 3e 6e 0f 8e bd 26 fa 08 3c 11 da ab 3d
       0.15407239 -0.06936537 0.008360421 0.08391202
000130 a7 1f 3f bd fc e6 c2 bd 1c dc f5 bd 47 f5 df bd
       -0.046661045 -0.09516713 -0.12004873 -0.10935455
000140 fc e0 d9 3d 16 72 f5 3d d6 e0 55 3d f6 6d 08 bd
       0.106386155 0.11984651 0.052216373 -0.033307992
000150 c9 90 16 3e 79 3e be 3d 7b c2 0c be 84 01 9c 3d
       0.14703669 0.092892595 -0.13746063 0.076174766
000160 a1 d2 bf 3d 17 a8 b0 3c 32 9e d6 bd ba 61 09 be
       0.09366346 0.021564526 -0.10479392 -0.13416186
000170 f0 ab 07 be 99 98 f5 3d b4 9d c3 bd 33 3a 26 bc
       -0.13249183 0.11991996 -0.09551564 -0.010145712
000180 54 86 80 3d 8e 65 f2 bd 82 29 8d 3c a9 22 8f bd
       0.06275621 -0.11835776 0.017231707 -0.06989033
000190 60 b7 55 3b cc 4b eb 3d 89 10 95 bd 40 a1 5a 3c
       0.003261052 0.114890665 -0.072785445 0.013344109
0001a0 72 db a6 3d 83 60 03 be ec f2 0a bd fd 0b 9e bd
       0.081473246 -0.12829785 -0.033923075 -0.0771713
0001b0 d6 86 42 bd c2 39 e4 bd 40 a9 9e 3c 41 da 05 3e
       -0.04749187 -0.11143829 0.019367814 0.13071539
0001c0 95 c8 f7 3c ed 7c 19 3d 1c 7b d8 bd b7 b1 24 bd
       0.030247012 0.037472654 -0.10570356 -0.040208545
0001d0 c2 1b 89 bc d3 26 0f 3e c9 4a db bd e9 23 b2 3d
       -0.016736869 0.13979654 -0.107076235 0.086982556
0001e0 24 32 10 3d 5a 41 b5 bd 9c a5 73 3d 35 b0 a4 3d
       0.035204068 -0.088503554 0.05948411 0.08041421
0001f0 25 c0 23 bd f6 1e 25 bc 90 29 e4 bd 48 9c a0 3d
       -0.039978165 -0.010078182 -0.1114074 0.07842308
000200 f1 4e 19 3e 40 37 23 bd 27 22 b4 3d 0c 6d 60 3d
       0.1497152 -0.039847612 0.087955765 0.054791495
000210 81 3c aa bc 61 4d 56 3d 73 f6 84 3d 46 a0 f1 bc
       -0.020780804 0.052319888 0.06492319 -0.02949537
000220 d5 4b b6 bd cf fc 3b bd 68 ad c7 bd e7 e8 c3 3d
       -0.089011826 -0.045895394 -0.097498715 0.09565907
000230 d1 e1 c2 3d 03 4a da 3d 53 47 b9 3d 84 09 ed 3d
       0.09515727 0.10658648 0.09046807 0.115740806
000240 95 8b a2 3d 02 03 f3 3d 94 82 f5 bd 08 df 98 3b
       0.079367794 0.11865808 -0.119877964 0.0046652593
000250 8f e7 a4 3c 3f 55 e2 bb 79 c4 0f 3c ca 87 c7 3d
       0.020129947 -0.006907135 0.00877487 0.097426966
000260 68 79 fe 3c 54 39 08 3e cd 36 fc bd b9 bf 93 bd
       0.03106375 0.13303119 -0.1231514 -0.072143026
000270 07 8e 9d bc 3c 1b 8b bd e6 5a e6 bd bf 05 ed bd
       -0.019232763 -0.06792304 -0.11247806 -0.115733616
000280 96 1b a5 bd 01 94 e5 3c 5e 1e 01 be 93 90 1a 3e
       -0.08061902 0.028024675 -0.1260924 0.15094213
000290 a8 f2 17 3d 8e 4a bf 3a c2 18 0c 3d 05 f5 b9 3c
       0.03709665 0.0014594363 0.0342033 0.022699842
0002a0 77 ac bd 3b 74 28 b7 bd c3 a5 59 bd 1a 14 48 3d
       0.0057883817 -0.08943263 -0.0531366 0.048847295
0002b0 9d b4 9d 3d 71 3f 9a 3d 5b cd a2 bc 64 22 eb bd
       0.07700465 0.07531632 -0.019873312 -0.11481169
0002c0 a5 bd 0b be 06 c2 1b bc 3c 71 57 3d 23 b9 81 3d
       -0.13646562 -0.009506708 0.052598223 0.0633414
0002d0 23 38 e7 bd a0 85 c2 3d b0 ad 9a 3d cf 43 ec bc
       -0.11290004 0.09498143 0.075526595 -0.028840927
0002e0 6c e8 68 bc 76 cf d0 3d a2 c6 80 bc 27 7d 43 3b
       -0.01421557 0.1019582 -0.015719716 0.0029829235
0002f0 39 eb ec 3d 9b 90 b3 3d 45 e2 64 bd 19 e7 ea 3d
       0.11568303 0.08767816 -0.05587985 0.1146986
000300 63 44 c1 3d 5d df bc bd cf e6 64 bd af 08 a9 bc
       0.09436872 -0.09222291 -0.05588418 -0.020634023
000310 36 1b c0 3d 03 7a fa bd 72 7d 0b 3e ab 5a 0d 3e
       0.0938019 -0.12230303 0.13622072 0.13804118

fc.weight f4 [1, 50]
000000 49 a2 cb 3d ad 5e 0c 3e a9 f1 11 3d 20 7d 06 3e
       0.09943063 0.13707991 0.035630856 0.13133669
000010 dd 37 fc 3d 2f 6f 9a bd 17 a0 0d 3e 0b 20 80 3d
       0.123153426 -0.07540738 0.138306 0.06256112
000020 5d 98 f6 3d d5 9b 17 3d f5 1e c6 bd 94 34 14 3d
       0.1204078 0.037013847 -0.09673873 0.036182955
000030 0a f4 f6 bd cc a0 6a bd d3 dd af 3d 0c c6 a6 bd
       -0.120582655 -0.057282254 0.085872315 -0.08143243
000040 0e 51 2d bd 4c 37 e6 3c 64 8c 43 3d 1e 02 e6 bd
       -0.042313628 0.02810254 0.04774131 -0.112308726
000050 5b 68 91 3d e1 87 66 3d 3b c4 20 bd 69 f4 f2 3d
       0.07099982 0.056281928 -0.03924964 0.11863024
000060 ec 0e 0b 3d b4 00 2a bd ef 63 99 3d 0d 14 64 bd
       0.033949777 -0.041504577 0.07489764 -0.055683184
000070 d1 f9 d0 3c 33 91 46 3d bd 6e 06 be 98 5a 00 3e
       0.025509747 0.048478317 -0.13128181 0.12534559
000080 4b e1 d6 3d d9 29 db 3d 1a 35 3b 3d 66 23 9b 3d
       0.1049219 0.10701341 0.04570494 0.07575111
000090 76 30 a4 bd ff e7 ff bc ab 67 88 bd 97 18 8d bc
       -0.08017056 -0.031238554 -0.06660398 -0.01722364
0000a0 d2 43 30 bc e5 c6 0d 3d 08 61 07 be 69 50 db 3d
       -0.010758357 0.03461351 -0.13220608 0.107086964
0000b0 b2 77 c3 bd 0b 6e a4 3d 7c 1d d0 3d 39 ea 8b 3d
       -0.095443144 0.080288015 0.10161874 0.06831784
0000c0 43 92 80 3d 9a 49 4e 3d
       0.06277897 0.05036316
