src/ml_models/lstm_model/artifacts/lstm.pt (torch, 205397 bytes, 9 tensors)

lstm.weight_ih_l0 f4 [256, 1]
00000000: ede2 813d f610 7e3d 7d9c 603d f7f7 88bd
00000010: 998c 393b 53a3 193c 2175 123e c68d de3d
00000020: 3eed 1d3e 5d0e f43d 1640 fdbd 1016 dc3d
00000030: 0eb6 b8bc 0396 bd3d 646d c9bd 2f22 2ebd
00000040: 18e4 203e 73fe 89bd 6e3b ff3c 19d6 84bd
00000050: ccd0 89bd 995b 03bd 752c f0bc e504 cbbb
00000060: 583f 8bbd 341e dd3d 1705 8bbd 2095 0f3d
00000070: 0cd1 053e 528a 18bd e010 9abc 0adf e73c
00000080: f95e ccbd 2d54 fa3d f929 9d3d 44f6 893d
00000090: 5ebc 073d cd67 cb3d f3cf 45bd afc6 f73d
000000a0: 0282 893d 7b42 a83d e62c cf3b dc02 88bd
000000b0: 00d4 a23d 4116 d33c 886c 223e 830a 3ebd
000000c0: d177 a33d 7f1c 6f3d fe72 a0bd fe76 193d
000000d0: bc0d 9fbc 0bc5 c7bc edda 5b3d dbb8 a53d
000000e0: 627f 9c3d 8271 bebd 141b 4ebd f33a 173d
000000f0: e8d9 293d 8960 b33c 593d b73c 3ce3 13bc
00000100: 4db0 0cbd 314f 0f3e 9316 b33d b490 633d
00000110: c65d 073d 3d08 89bd bbea 823c 2d6c ee3d
00000120: 5fb1 853d 09e3 973d 6845 0dbd e79f c33d
00000130: f4c0 913c e929 c13c 1588 c5bd f0a0 07be
00000140: 0be4 febc c61d 963d 66d3 07be 8880 dd3c
00000150: dbef b93b 7272 aa3d 74f1 ec3d eafa 0b3d
00000160: 4a76 4bbd ffda a33d 5326 ab3c c092 96bd
00000170: ee12 91bd 85e7 cc3d 0370 e73d c603 5abd
00000180: 3d65 3a3d b7a4 c63d b15d 62bd 8ad9 d5bd
00000190: abb1 fa3d 6a09 b73d 37f8 9f3c ad22 923c
000001a0: be8f 0e3d 1fb0 e83b 4b06 ffbd 0785 85bc
000001b0: c4a2 a53d 83bc a23d 066c c33d e4d5 41bd
000001c0: 8fc8 db3d aa0b d0bd 7ab8 9ebd be41 70bd
000001d0: 7256 e53d 0cce 1fbe 86fa 1ebd a90e 0a3c
000001e0: 06a6 333d 3cb1 133e ed2c ecbb 84e9 66bd
000001f0: e429 bcbd c1a8 1fbe a3d5 093e 4bbe a4bd
00000200: a907 27be dadf 08be 55df cd3d 4e20 51bd
00000210: 0208 14be d18b a33d 7ace 193e 83ce 12bd
00000220: bd14 07be 128b 42bc 9a02 133e c64a ca3d
00000230: 00fc c53d 8f6d d2bc d1cf 8c3d e78c 0e3c
00000240: 29cd 453d caa6 0b3d 11b1 bcba a057 903d
00000250: 2ea5 d93d c685 2c3e a88d 403d 9d13 983d
00000260: f884 cebb 1f8a 0ebe d45b 083e 5b12 1dbe
00000270: e6f1 54bd 6b71 b83d 1fad 1abe ef04 493c
00000280: 2b04 6d3d 5d72 a33b 27dc e2bb 3d2b 74bd
00000290: 2b50 cd3c bf7c 8cbd 11a1 943d 6b7c dd3d
000002a0: 6f0f 1a3e 0b40 00be 5fc2 5f3d c10a c6bd
000002b0: 602d 1dbe 1bf2 60bd bab7 efbc adc1 aebd
000002c0: 8506 fb3d a9c1 f1ba fc89 59bd 4b8c b73d
000002d0: 5ad1 f8bd f21f b3bc 4dde b63d 68f7 053e
000002e0: 0724 13be 8c3f c2bd 8b96 12bd 6eed 69bd
000002f0: fccc 61bd c947 1d3e 4dab 053e 8f10 133e
00000300: 9f3c 193e 08fe bd3d 9cc2 adbd bfaf 61bd
00000310: aa67 eb3d 5347 543b 1599 1b3d 89e2 1fbd
00000320: 8106 b53d 81c0 c23d f784 0bbe 3da6 9d3d
00000330: 35a4 d73d 0827 a0bb 3a9e 09bd 9b34 17bd
00000340: ae68 aabd 2f4f 3e3c 6623 d8bd f4b3 833d
00000350: 6142 e3bc e5d9 bfbc cc73 de3c 09c8 86bd
00000360: aec7 533d 2c12 02bc 4fd5 873c bc85 4d3d
00000370: 4e45 123e 5d8c ae3b d571 dc3d e8d1 63bb
00000380: 2e0b 13bc 3978 cf3d e715 1c3e c30f b8bc
00000390: dcfd 81bd bd5f d0bb 6853 11bc 5a04 3fbc
000003a0: 8fde 533d fbc9 a9bc 7bea c63d 2553 f3bc
000003b0: 4b1b e2bc f542 13bb dbca 093e 8887 4d3d
000003c0: 6de7 d43d c92e d5bd 1e9d acbc 804a b7bd
000003d0: e89d ac3c e1e4 e3bd 04c6 d1bd a0d1 1c3e
000003e0: d399 4aba 96f2 da3d 0e66 cdbd 82f9 2b3d
000003f0: fca7 b8bd c94f 05be 6f71 be3d 5c07 573d
0.06342111 0.062027894 0.05483674 -0.066879205 0.0028312562 0.009377318 0.14302494 0.10866885
0.15422532 0.11916802 -0.12365739 0.107463956 -0.022547748 0.09257128 -0.09835318 -0.04251307
0.15712011 -0.067379855 0.031156268 -0.064861484 -0.06729278 -0.032069776 -0.029318074 -0.006195652
-0.06799191 0.107967764 -0.0678808 0.035054326 0.13068026 -0.037241288 -0.018806875 0.028304596
-0.09979052 0.122230865 0.07674021 0.067364246 0.033138625 0.09931908 -0.04829402 0.12098443
0.0671425 0.08215805 0.006322491 -0.066411704 0.07950592 0.025767447 0.15861714 -0.046396744
0.079818375 0.058376785 -0.07834433 0.037466995 -0.019415729 -0.02438595 0.05367558 0.08091899
0.07641484 -0.09298994 -0.050318792 0.036921453 0.041467577 0.021896617 0.02236812 -0.009026345
-0.03434782 0.13995053 0.0874454 0.05555792 0.033048414 -0.066910245 0.015981069 0.11641727
0.065279715 0.074163504 -0.03449002 0.09551983 0.017792203 0.023579555 -0.09645096 -0.13244987
-0.031114599 0.073298976 -0.13264236 0.027038828 0.005674345 0.0832261 0.11569491 0.034174837
-0.049673356 0.080007546 0.020892298 -0.07352209 -0.07083689 0.10005096 0.113006614 -0.053226255
0.045506705 0.096993856 -0.055265132 -0.10441883 0.12240919 0.089373425 0.019527538 0.0178388
0.034805052 0.0071010734 -0.12452372 -0.016298784 0.08087686 0.07946112 0.09542088 -0.047323123
0.10731613 -0.10158475 -0.0775003 -0.058656447 0.11198129 -0.15605944 -0.038813137 0.008426347
0.043859504 0.14423078 -0.007207504 -0.05637504 -0.091876775 -0.15591718 0.13460402 -0.08044108
-0.16311516 -0.13366643 0.10052363 -0.0510562 -0.1445618 0.07985652 0.15020171 -0.035841476
-0.13191505 -0.011873977 0.14356461 0.09877543 0.09667206 -0.025687007 0.06875575 0.008700586
0.04829136 0.03409461 -0.0014396032 0.07047963 0.10627209 0.16847906 0.047010094 0.07425616
-0.006302472 -0.13919877 0.1331628 -0.15339033 -0.051988505 0.09006008 -0.15105103 0.012269243
0.057865303 0.0049879984 -0.006923217 -0.059611548 0.025062641 -0.06859731 0.072572835 0.108147465
0.1504495 -0.1252443 0.054628726 -0.0967002 -0.1534934 -0.05491839 -0.029262412 -0.085330345
0.12257103 -0.0018444556 -0.053110108 0.08962306 -0.12149306 -0.021865819 0.08929119 0.13082659
-0.14369212 -0.09484777 -0.0357881 -0.057111196 -0.05512713 0.15359415 0.13053627 0.14361785
0.14964531 0.09276968 -0.084843844 -0.055099245 0.11494382 0.0032391145 0.037987787 -0.0390344
0.08839131 0.095093735 -0.13624941 0.07697723 0.10529367 -0.0048874654 -0.033598162 -0.036915403
-0.08320747 0.0116155585 -0.10553627 0.06430808 -0.027741613 -0.02341933 0.027154826 -0.065811224
0.0517041 -0.007938903 0.016581206 0.050176367 0.1428425 0.005326791 0.10763899 -0.0034762565
-0.008974833 0.101303525 0.1524273 -0.022468453 -0.06347248 -0.006359069 -0.008869983 -0.011658752
0.05172592 -0.020726195 0.09712692 -0.029702732 -0.027600905 -0.002247033 0.1345629 0.05017808
0.103957035 -0.10409314 -0.021071013 -0.089497566 0.02107139 -0.111276396 -0.102428466 0.1531434
-0.000772861 0.10690801 -0.10029231 0.041985996 -0.090164155 -0.13018717 0.092989795 0.052497253

lstm.weight_hh_l0 f4 [256, 64]
00000000: d82b c3bb f333 a03d 33e1 02bb b4ae 04be
00000010: f7b3 e6bd 1121 b03d 9daf 85bd b854 4bbd
00000020: 2db6 073d e2bc a7bd ffee 2f3d 1b4a e83c
00000030: 3cc1 95bc 58ba 51bd d22b d43c e1c6 acbd
00000040: 1520 adbc 2228 2f3c aad6 233e ca18 82bc
00000050: baec fa3c d597 c8bd d51a cd3c 1a49 75bc
00000060: 876c 0d3d 4e23 d9bd 12f3 91bd 6644 383d
00000070: 4c06 1cbd f012 14bd 43f6 bbbd 01a6 f1bd
00000080: 82c8 42bd 8387 3b3d 1169 073e 83f2 0abd
00000090: 2fba ccbc fec5 0cbc f52d c03d e19c 2abb
000000a0: 1200 8fbc eaf0 683d 3988 8fbc a9af d0bd
000000b0: 14ed 19bd f1dc fa3d 8c9d 6cbb 3c47 56bc
000000c0: 84bd 213d ed8f 083e 16a0 c13d 83cc b43c
000000d0: bb3a 8ebd 1974 3abd 61aa 1e3d 6cbd 1d3e
000000e0: 0c00 cbbd c153 f23d 4e23 afbd 0f90 103d
000000f0: 9768 90bd 5c5f 0a3d 3860 abbd 0550 acba
00000100: b66b b3bd b179 d2bc f04b b43d 2f2d f6bd
00000110: a059 89bd 951a d2bd 2f52 b9bd fcc4 a73d
00000120: 00fd a53d 72ec fabd 1c13 403c d38f ca3d
00000130: 3b56 d13d cc88 2d3d 5f0d ba3c 0876 ea3c
00000140: cd15 6f3d 8068 2a3d 9914 ba3d 3292 f8bd
00000150: c00d 67bb b495 d7b9 a9df 063e d5d9 02be
00000160: 1693 b23d dae5 1cbd 140c a33b 9e53 e6bd
00000170: eed9 92bc 8b41 003e 0b6a 9c3d 32d5 5d3d
00000180: 70da 143d 1986 033d 2624 003e bbec 22bd
00000190: ed06 63bd 2065 08bd 3fbf 12bc 04fd c93d
000001a0: df4b 1fbc 0b49 2fbd 7093 003e c25d f6bd
000001b0: d864 f0bd 76cc ab3d ee69 d23d d982 ddbd
000001c0: 5c2c 9d3d ce0f 28bd 0377 75bc a29a 21bc
000001d0: 03fa 7ebc 1c9a 08be 70c3 9dbd 89e2 1a3d
000001e0: f2fd f3bc 44b3 62bd 2874 6bbd e1b9 04be
000001f0: 6208 09be 1c9e c6bd d761 afbc f6d5 df3d
00000200: ba76 d3bc e0bc 563d f452 dabc f996 acbb
00000210: 0251 933d 861a e63d 2f98 a3bd 7708 83bb
00000220: 28ce c93d 2f38 acbc 31d4 0d3b 92e7 75bd
00000230: 4ebc 563b 0824 b83d 0cb6 97bd 536f a6bd
00000240: be75 5fbd 541e 023e 6d2e 32bd 33b0 f23d
00000250: fa0b 0b3e cfd8 bcbd 902c 8f3d 4db4 2bbc
00000260: f663 a13d d56f 8bbd 1ae8 823d 26cb a83d
00000270: 1111 d13d 52e7 863c 7da5 0cbe 58ee b13d
00000280: ce1c e1bd fcca 9f3d 780c 733d f8e9 06be
00000290: 101c 743d 1016 3fbd 8e9f b83d eb1a 86bd
000002a0: 50b2 923d 8111 febd fcf6 1dbd a123 c93a
000002b0: c489 7a3d beae 933c 15d3 edbd 38c2 c2bd
000002c0: d171 c83c 6bd5 fe3d 44b9 c63c 3def c1bc
000002d0: a804 873d d992 ee3d d4de a53d 5d86 cdbd
000002e0: 1e8c ce3b 9049 b8bd 52ad f8bc 042f 00bd
000002f0: 5768 683d 9d3a a3bd 6b9f 34bd e447 e4bd
00000300: c38f 343d a3d9 cebd 1abe b9bd 9287 acbd
00000310: f993 24be 6b6d 893d 6ed7 6cbd 8f75 9dbd
00000320: 1104 513d 0e14 2e3d 186f 323d a694 b63a
00000330: a8e8 103d 774c 5b3d 2de1 603d 8575 a63d
00000340: bd70 2d3d f75c 103b 8558 af3d 6a18 da3d
00000350: f6c7 d23d 6a0e a3bd 4f87 553d 4331 9ebd
00000360: e376 03be 68f1 2ebd 0eb4 e93d 0b0c 913d
00000370: 4e34 11bd 46cb 0c3e 5dd6 4bbd 7d9f 8e3d
00000380: 07a3 71bd e68e 69bd 8fe5 a33d 1cb5 acbc
00000390: 51d0 103e db1d 07bd 9e4f 083e de21 f63d
000003a0: d521 fa3d 78ab f4bd cc4e 303d 861d d53d
000003b0: 31a3 a13d d68e b43d 224d 5c3d 3cd1 fabd
000003c0: 5569 9a3d aac7 0ebd b8ea 1dbd fc74 36bb
000003d0: 094f a6bd dee2 db3c ae39 90bd f53b 923d
000003e0: 4235 b0bd 7426 f1bd 6edf b23c 1569 2eba
000003f0: 765e 04be 6d25 863a d430 673a f965 73bd
-0.0059561543 0.078224085 -0.0019970655 -0.12957269 -0.11264794 0.08600057 -0.06527636 -0.04964134
0.03313272 -0.081903234 0.042952534 0.028355649 -0.018280618 -0.051203102 0.025899801 -0.08436371
-0.021133462 0.010690721 0.15999857 -0.015880961 0.030630458 -0.09794585 0.025037209 -0.014971042
0.034527328 -0.10602437 -0.0712644 0.044987105 -0.038091943 -0.036150873 -0.0917783 -0.11799241
-0.0475545 0.04578353 0.13223673 -0.033922683 -0.024991123 -0.008592127 0.093837656 -0.0026033449
-0.017456088 0.05687038 -0.01752101 -0.101897545 -0.03757961 0.122491725 -0.0036104647 -0.013078507
0.039487377 0.13336153 0.09454362 0.022070175 -0.06944796 -0.045520876 0.038736705 0.1540429
-0.09912118 0.11832381 -0.08551656 0.035293635 -0.07051199 0.033782348 -0.08367962 -0.0013146406
-0.087607786 -0.025692793 0.088035464 -0.12020337 -0.06706548 -0.10258976 -0.090488784 0.08191869
0.081048965 -0.122521296 0.011723306 0.098907135 0.10221525 0.042366788 0.022711454 0.028620735
0.0583704 0.041603565 0.0908596 -0.121372595 -0.0035255998 -0.00041119533 0.13171257 -0.12778409
0.08719461 -0.03830514 0.004975805 -0.112464175 -0.017926183 0.12525003 0.076374136 0.054158397
0.03634113 0.032110307 0.1251379 -0.039776545 -0.055426527 -0.033299565 -0.008956729 0.09862712
-0.009722679 -0.04279427 0.12556243 -0.12029602 -0.117379844 0.08388607 0.10274111 -0.10815973
0.076744765 -0.041030698 -0.014981988 -0.0098635275 -0.015562537 -0.13340038 -0.07703292 0.037813697
-0.029784176 -0.055346742 -0.057483822 -0.12961532 -0.13382104 -0.09698126 -0.021408958 0.10929482
-0.02581345 0.05242622 -0.026650883 -0.005267021 0.071931854 0.11235528 -0.07988011 -0.003998812
0.09853774 -0.021022884 0.0021641369 -0.060035296 0.0032766047 0.089912474 -0.074077696 -0.08126702
-0.054555647 0.12706882 -0.043501306 0.118500136 0.13578787 -0.092210405 0.069909215 -0.010479999
0.07880394 -0.0680844 0.06391926 0.082418725 0.10208333 0.016467724 -0.13735004 0.086880386
-0.10991822 0.07802388 0.059338063 -0.1317519 0.059597075 -0.0466519 0.09014808 -0.06548103
0.07162917 -0.12405682 -0.03856562 0.0015345701 0.06116654 0.01802766 -0.11612526 -0.095097005
0.024468334 0.1244305 0.024258263 -0.023673648 0.06592685 0.11649103 0.08099142 -0.100353934
0.0063033244 -0.08998406 -0.030356083 -0.031294838 0.05674013 -0.07970164 -0.044097345 -0.111465245
0.044082414 -0.10100105 -0.09069462 -0.084242955 -0.16072072 0.06710323 -0.057822637 -0.07688438
0.05102927 0.042499594 0.04356298 0.0013929799 0.03537813 0.05353972 0.054902244 0.08127884
0.042343844 0.0022028068 0.08561806 0.10649188 0.10292046 -0.07961734 0.052130993 -0.0772424
-0.1283832 -0.04271069 0.11411296 0.07082375 -0.035450272 0.13749418 -0.04976498 0.06964014
-0.058993366 -0.057021044 0.08002769 -0.021082453 0.14141966 -0.032987457 0.13311622 0.120181784
0.12213484 -0.119467676 0.043043897 0.10406022 0.078924544 0.08816306 0.053784497 -0.122469395
0.07539622 -0.034858383 -0.038553923 -0.0027840724 -0.081205435 0.026841577 -0.070422515 0.07140342
-0.08603908 -0.117749125 0.021835055 -0.00066532317 -0.12926659 0.0010234542 0.00088192266 -0.05942342

lstm.bias_ih_l0 f4 [256]
00000000: 86f9 af3b 0db7 a0bd c6b3 67bd 7268 e73d
00000010: ed0f dbbc f502 f23d d304 a23d d2be 02bc
00000020: 8ffb 52bd bd39 c5bd ebf6 0ebd 1d21 d23d
00000030: 2c58 f83c c862 643a c80a aebd 25fd 1fbd
00000040: 79b6 96bd 4607 92bd 2104 babd 5ac0 aebd
00000050: 978b 90bd 4566 8c3d c8b3 5bba af47 e93d
00000060: cf8d 9cbd 310b 9abd d3a2 6cbd f4ab bf3d
00000070: 2031 cc3d e28d 46bd 9e76 5abd c8b3 89bc
00000080: aa73 a5bd 9be1 a63d 130c e23d 470f 9c3b
00000090: 5e0e b13d 5200 cc3d 1189 e6bd fb68 acbc
000000a0: d068 b6bd e38e 943d 51e6 bebd f670 3ebd
000000b0: 90c6 bf3d d0bd b0bc 1368 cfbd c32e 693c
000000c0: b6f0 433d 5972 cabd 8c29 093d 4948 e63d
000000d0: d6aa e53d c122 c4bc 03ee 0bbe 291f 753d
000000e0: 6761 3abd 72e4 803d a69f b63d 2919 ed3d
000000f0: a16f dbbd feb7 0a3e eaa8 c83d 5ee2 0a3b
00000100: c1fe a43d 2535 843d 2acd a5bc 4081 8dbc
00000110: b571 533d 7366 6b3c 249f d63d 2fc9 bbbd
00000120: fa07 273d 1260 8f3d f56d 2a3d 944a e1bd
00000130: 64eb 63ba c517 c93d 0b20 3abd 528e 08be
00000140: c4ed a7bd 84c1 a13d 2260 8c3d 1246 f4bc
00000150: dd51 c03d 4265 39bd 57a4 c7bc fb99 cf3d
00000160: 1b98 2e3d 3e70 5b3d 2bdc 0d3e e89d ec3d
00000170: 0a2b 17bd 22eb b7bc 427a 143c 3d95 853d
00000180: 6679 aabd 7430 ed3d 51f8 e3bd ad0b 76bd
00000190: eaa2 223d 1400 a7bc d413 99bd 2e10 64ba
000001a0: 9087 14ba d7c2 69bc 4e00 543d cd75 36bd
000001b0: ca8c abbd 103f 9cbc 6976 853d 0ea2 a63d
000001c0: 2fbc a4bd 1b0d a2bd 56d7 9c3d 3b49 333d
000001d0: 59fd ccbc 119e b6bd 7686 9d3d 3ac9 09bc
000001e0: 1259 213d 7de9 d0bd 08fa 4f3b e28d 933d
000001f0: 2046 02be b638 8dbd 59a9 0d3e d1d8 d83d
00000200: f061 a63d 76bf 04bc 9483 8e3d 2005 3abd
00000210: b353 083e ec4c 793d bfb1 073c 36b0 efbc
00000220: 3a49 703d 8a53 bd3c 628a 5bbd 5a82 003c
00000230: 1abe b73d 30e4 d3bd 0024 813d f89f 683c
00000240: 260a cebc ff28 d0bb 6319 863d ae76 c5bd
00000250: 33b3 ad3c 3000 d4bd 6bf6 47bc 6727 cabd
00000260: 96b7 e1bb 1b71 a63d 4d20 31bd 91b5 5abd
00000270: eb0d f6bd 4eaf 33bb 7581 f23d 656b b3bd
00000280: 3c33 fb3b 3c8f 203d 24d4 ba3d 3a98 9b3d
00000290: 67ff 303d cd83 2bbd c201 6e3d f213 6c3d
000002a0: 8702 f63c 0483 0fbc 906f 8d3a f861 4abd
000002b0: db52 6a3b 0063 ce3d d9bc cf3c 1b42 51bd
000002c0: bc1e 13bc cf23 c13d 20a1 db3d 7fc9 983d
000002d0: 2436 cdbc cef3 72bd f6e3 9abd f241 f33d
000002e0: 3bcd aa3c 7ee8 df3d ccf1 a7bd dfeb 0abd
000002f0: fa31 c2bd 19b7 10be ebe8 8bbc 481f 373c
00000300: f73a 00bd e31a b33d 9044 d0bd 806c 90bd
00000310: 13c4 f93d 056c 3dbd bf0d a33d 418f 2abb
00000320: 18b6 38bc 9484 083d 3d94 273d 5f20 13bd
00000330: 6272 b93a 3870 dabd 2574 eb3d a459 db3d
00000340: cf4b 9b3d 0a96 97bd 8b41 6e3d 60f1 273d
00000350: ae26 db3d aa22 f6bc 5923 da3d 8e59 b3bd
00000360: b7d7 c9bd aa58 a7bd 74ed d63d 3cc9 d53d
00000370: ff71 72bd 9d87 3c3d 26f3 623d 1757 6b3d
00000380: a56e d6bd 45f0 bcbd 0c54 d53c ba21 e03d
00000390: beea 8fbc daaa f83d a29d 95bd 277f 633c
000003a0: 4706 06bd 73de 933c 5bff be3d b5e0 e83d
000003b0: 4205 523d 7073 c53d b139 533c 90af 193c
000003c0: e9ae 1a3e f23c 13ba 2b59 013e a3ba 1dbc
000003d0: d52d 56bb c5c2 813c 6cb5 113c fcc2 be3d
000003e0: 72df 283d 7cd5 cabd 9c8b 08be dcbb 73bd
000003f0: 0f4f a7bd 4347 873d 00d7 293d b87d 9c3b
0.0053703217 -0.07847414 -0.05656793 0.11299218 -0.026740992 0.1181697 0.079110764 -0.007980065
-0.051509436 -0.09630153 -0.034903448 0.10260222 0.030315481 0.00087122293 -0.0849815 -0.039059777
-0.07359023 -0.071302935 -0.09082819 -0.08532782 -0.07057875 0.06855444 -0.00083809765 0.11390626
-0.07644235 -0.07521666 -0.05777247 0.09358969 0.09970307 -0.048475154 -0.05333578 -0.01680936
-0.08078702 0.081484996 0.11037459 0.0047625634 0.086453184 0.099609986 -0.11256612 -0.021046152
-0.0890671 0.07253816 -0.09321273 -0.046494447 0.09364045 -0.021574885 -0.101272725 0.01423234
0.04783698 -0.09885091 0.033486888 0.11244256 0.11214225 -0.023942353 -0.13665013 0.05984417
-0.045503046 0.062935725 0.08917169 0.115770645 -0.10714651 0.1354675 0.09797843 0.0021192054
0.08056403 0.06455449 -0.020239431 -0.017273545 0.05162211 0.0143676875 0.104795724 -0.09169232
0.04077909 0.07000746 0.04160877 -0.11000553 -0.0008694439 0.09818987 -0.045440715 -0.13335541
-0.08199647 0.07898238 0.068542734 -0.029818568 0.09390614 -0.045262583 -0.024370356 0.10136791
0.042625528 0.05357384 0.13853519 0.11553556 -0.03690628 -0.022450987 0.009062352 0.065226056
-0.08323936 0.11581507 -0.11131347 -0.06006973 0.03970615 -0.02038578 -0.07474485 -0.0008699921
-0.00056659523 -0.014267645 0.051758103 -0.044545937 -0.08376463 -0.01907304 0.065167256 0.08136378
-0.08043706 -0.07912656 0.076582596 0.04377101 -0.02502315 -0.089168675 0.07691662 -0.008409793
0.039391585 -0.10200784 0.0031734724 0.072047964 -0.12722063 -0.068955824 0.13834132 0.105882294
0.08124149 -0.0081022885 0.0695869 -0.045415044 0.13313179 0.060864374 0.008282124 -0.029258829
0.058663584 0.023111124 -0.05359877 0.007843578 0.08971806 -0.10346258 0.063056946 0.014198296
-0.025151324 -0.0063525434 0.06547811 -0.09641777 0.021203613 -0.10351598 -0.012204747 -0.09870797
-0.00688834 0.08127042 -0.043243695 -0.05339581 -0.120143734 -0.0027417722 0.11841098 -0.08760718
0.0076660197 0.0391991 0.09122494 0.07597394 0.04321232 -0.041873742 0.058107145 0.05763621
0.030030502 -0.008759264 0.0010790695 -0.049409837 0.0035754952 0.100774765 0.025358604 -0.051088434
-0.008979496 0.09430658 0.107240915 0.07460307 -0.02505023 -0.05931454 -0.07563011 0.118778124
0.020849815 0.10933016 -0.08200416 -0.03391635 -0.094821885 -0.14132346 -0.017078837 0.011176892
-0.031306233 0.087453626 -0.10169327 -0.07051945 0.12195601 -0.046245594 0.07961606 -0.0026025327
-0.011273883 0.03332956 0.040912855 -0.035919543 0.0014148469 -0.10665935 0.11496762 0.10710457
0.07582819 -0.074016646 0.058167975 0.041001678 0.10700737 -0.030045826 0.10651273 -0.087573156
-0.098555975 -0.08171208 0.10494509 0.10438773 -0.059190746 0.04602777 0.055407666 0.057456102
-0.104703225 -0.09225515 0.026041053 0.10943933 -0.017567988 0.12141962 -0.07305457 0.013885296
-0.03272083 0.018050408 0.09326049 0.113709845 0.051274545 0.096411586 0.012892173 0.009380236
0.15105785 -0.00056166865 0.12631671 -0.009627017 -0.0032681127 0.015839944 0.008893352 0.09314534
0.04122872 -0.09904 -0.13334507 -0.05950533 -0.08169376 0.06605389 0.041464806 0.004775729

lstm.bias_hh_l0 f4 [256]
00000000: 600e c23d 1fce f63d 4bcd dbbd 5297 ce3d
00000010: ca2e b43d 25b2 c6bd a2ed 82bd 824a 23bb
00000020: 86ab 023e 2c0e 9dbc efda 1bbd a3b0 ad3d
00000030: da53 403d 4076 603d 8e17 c3bc c006 ebbd
00000040: 154c a23d 8f7f 65bd 391c cd3d 9aed 9ebd
00000050: 01c6 013e e52e 5dbd f9c4 c3bd 0afd a03d
00000060: 7a1b 5a3c 0f7a 873d 3755 183d de44 17bd
00000070: c8ed 7dbd dcdc 7f3d 2c66 3dbd b185 4c3d
00000080: 50b8 343b 7561 943d b279 91bc be34 223d
00000090: 2148 7fbd d26f 073e 3586 f0bd 20ba 753c
000000a0: 9063 98bd a6d5 bdba 2b01 a8bd 0cf1 503d
000000b0: 633c b33c 9e26 413d 0bfb 053d e3ac 04bd
000000c0: 0ad3 70bd 776a abbd 314f ae3c 4c97 2a3d
000000d0: 8d12 403d 7c56 6f3d a2ca f9bd cdf8 debd
000000e0: 2215 b4bd 066b ec3c e49c 833d 8c5a 013e
000000f0: 7276 0cbe f9f6 4abd 327a 33bd af32 033e
00000100: c83c 003e 8cf6 e63c 4203 81bd 6941 1b3d
00000110: 8f6c d33d 9d27 893d 9db7 18bd 1757 e53d
00000120: 956d e23d 24f0 a73d 33c2 5fbd f2a0 003e
00000130: 7b71 fd3d 3196 063e 9acf de3d a427 6f3d
00000140: 4e4a 04bd bcf8 48bd 22a6 f5bd 962c 3c3d
00000150: 313e 8abd fa3d b4bd b901 ae3d 7d36 fcbd
00000160: c66d 92bd 268c 85bd f2d2 203d 6dd2 7c3d
00000170: 9b3e e03d b93b 99bd 2532 9b3d 5ab9 88bd
00000180: a873 e13d f3af a03d 6b74 bbbd 2556 aa3c
00000190: 66ac 46bd 5421 cabc fffa 2dbd 2555 30bd
000001a0: ca22 5cbc 4fef 0e3d 254e 07be a115 053e
000001b0: 2310 1f3d e578 253d fd64 a43d cf29 8e3b
000001c0: ec05 58bd f4e2 80bd 89ee 8d3b d561 c9bc
000001d0: 1318 babd 577a 983d b9ec 5ebd 6453 d43d
000001e0: 6567 b3bd e9d2 0abd 0860 7f3d f0e7 f5bd
000001f0: 384f 6d3c c5bb 033e 3185 7d3d a914 133e
00000200: e0fc 99bd d3a5 2cbd 245b ab3d 3044 5abd
00000210: de82 b4bc 3ba4 c23d 9ff6 453c 8e3a aebc
00000220: f35b a5bd 2d92 16bd 9628 8ebd 1e79 b63d
00000230: 2ffa 1ebd a0b7 a53d ae62 16be 983e a3bd
00000240: bbed a23d 21cf 073d 8883 723c 3811 bbbd
00000250: 7222 dfbd 4682 d53d 8a18 eb3c 6bd6 75bd
00000260: 8df9 2abd c00e b73c cd02 d83d d283 69bc
00000270: 1560 113b 374f e6bc 4576 eebd 84c7 d9bc
00000280: 189c 9abd a278 bdbd a2ed c2bd 8b38 2e3b
00000290: 6cb4 ed3c 4a70 a63c 8acd bb3d be8c 7c3d
000002a0: 5bbd 313d 8605 be3c 7a7c b4bc 5b41 ca3d
000002b0: ab1b d5bd b106 613c ee7e bc3d 94fd b3bd
000002c0: 9ed2 ab3c 533b afbd 944e 16bc b716 c0bd
000002d0: b372 443d 2b55 a0bd 04ef a3bd 893f c33c
000002e0: 0100 e53b 5d3e cbbc 346b 973d b008 e9bc
000002f0: 5831 6f3c 70af 3b3d cc08 c73c 11f4 11be
00000300: 7945 063e c48c 6dbd 4548 033d 940c c2bd
00000310: 134b 00bc 2999 ad3d 617a bb3d 2f67 d43d
00000320: 6c71 243d 5bf7 dc3c 729b c33d a39f aa3d
00000330: fe52 be3d a82a 993d 2be4 853d 1c0b da3d
00000340: ad22 893d c862 bb3d d281 f2bc 83a3 8e3d
00000350: ae3d 103e 981c bc3d e172 033e fa9c d4bd
00000360: 31fc cbbd b6c1 dd3d fa03 d43d 9652 97bc
00000370: 751a 923d c2e5 babd adea 093e eaad 973a
00000380: 8d5e 0a3e ab70 d0bc 0654 9ebd 8a96 dabc
00000390: ac78 b0bc 1fd6 22bc dada 2ebd 30a4 0f3e
000003a0: c341 4fbc a8aa a5bd 037d b3bd 5aa3 a13c
000003b0: 6a51 cabd a22c abbd 2988 dfbd fbb8 a5bc
000003c0: 85f1 e23c 22d3 323d 4a85 c43c 4e97 923d
000003d0: 8ed2 2cbc fc78 fb3b 2fd7 83bd 885d a13d
000003e0: 305b aebd 8614 dfbd aad8 e2bd 8502 8c3c
000003f0: 7b81 05be 9099 16bd b6af 3bbc 91f3 7c3d
0.09475398 0.12051033 -0.10732516 0.10087456 0.08797987 -0.09701947 -0.06392981 -0.0024916236
0.12760743 -0.019171797 -0.03805059 0.084809564 0.046954967 0.054800272 -0.023814943 -0.11475897
0.07924668 -0.056029852 0.10015149 -0.07760163 0.12673189 -0.0539998 -0.09559054 0.07860763
0.013312215 0.06615078 0.037190642 -0.03693091 -0.061994344 0.062466487 -0.046240017 0.049932186
0.002757568 0.07245151 -0.017758224 0.03960108 -0.062324647 0.1322625 -0.11744348 0.014997989
-0.07440865 -0.0014483228 -0.08203348 0.05101113 0.02187938 0.04715597 0.032710116 -0.03239144
-0.058795013 -0.08369916 0.021277996 0.041648194 0.04689269 0.058432087 -0.12196852 -0.10887299
-0.08793093 0.028859627 0.06426409 0.12632197 -0.13717058 -0.049551938 -0.043817706 0.12812303
0.12523186 0.028193735 -0.062994495 0.037904177 0.1032344 0.06697009 -0.037284482 0.11198252
0.11056057 0.082001 -0.054628562 0.12561396 0.1237516 0.13143231 0.108794406 0.058387414
-0.032297425 -0.049065337 -0.11994578 0.045940958 -0.06750143 -0.088008836 0.08496422 -0.1231508
-0.07149844 -0.06520872 0.039263673 0.061724115 0.10949441 -0.07482094 0.07577924 -0.06675978
0.11008388 0.0784606 -0.09153064 0.02079303 -0.048504256 -0.024674095 -0.042475697 -0.04304995
-0.013436029 0.03489619 -0.13213404 0.12996532 0.03883375 0.040398497 0.080270745 0.00433848
-0.052740023 -0.06293288 0.004331414 -0.024582783 -0.09086623 0.074452095 -0.054424975 0.10367468
-0.08759955 -0.033892546 0.062347442 -0.12007129 0.014484219 0.12864597 0.0618946 0.1436335
-0.07518935 -0.04215033 0.08366993 -0.053287685 -0.022035059 0.09503981 0.012082725 -0.021268155
-0.080741785 -0.036760498 -0.06941335 0.0890982 -0.038812812 0.08091664 -0.14686081 -0.07970923
0.079555 0.033156518 0.014801867 -0.091341436 -0.10895242 0.10425238 0.028698225 -0.060018938
-0.041741896 0.0223459 0.10547409 -0.01425262 0.0022182513 -0.028113944 -0.11643652 -0.026584394
-0.07549304 -0.092515245 -0.09517981 0.0026583995 0.029016696 0.020317215 0.09170063 0.06165766
0.043393474 0.023195993 -0.022032011 0.09875747 -0.10405668 0.0137345055 0.092038974 -0.087886006
0.020974454 -0.08556237 -0.009174008 -0.093793325 0.04796095 -0.078287445 -0.08004573 0.023834007
0.006988526 -0.02481001 0.07393494 -0.028446525 0.014599167 0.045821607 0.024296187 -0.1425326
0.13112439 -0.057995573 0.032051343 -0.09475055 -0.007830399 0.084764786 0.09154201 0.10371243
0.04014723 0.026973417 0.09551133 0.083312295 0.09293173 0.07478839 0.0653766 0.1064665
0.06696067 0.091497004 -0.029602919 0.06964781 0.14086029 0.09185141 0.12836792 -0.103815034
-0.09960211 0.10827963 0.10352321 -0.018471997 0.071339525 -0.09125854 0.13468428 0.0011572216
0.13512631 -0.02544435 -0.0773087 -0.02668311 -0.021541916 -0.009938746 -0.042689182 0.14027476
-0.012649956 -0.08089191 -0.087640785 0.019731212 -0.0987881 -0.083581224 -0.10914642 -0.020229807
0.027703056 0.043658383 0.023989338 0.07157765 -0.010548247 0.0076743346 -0.064375274 0.07879168
-0.085134864 -0.108925864 -0.11076482 0.017091045 -0.13037674 -0.036767542 -0.011455467 0.06175572

lstm.weight_ih_l1 f4 [256, 64]
00000000: e7fd 083e 2ad0 003d f5ed abbc 4979 27bd
00000010: 6362 3e3d b26e 0cbe e92c acbc 4e7e 1bbc
00000020: 1057 0c3e d67c 0c3e 3286 5dbd 2fd2 55bc
00000030: cb57 95bd 1d1d 403d 0d83 92bd 7641 0ebd
00000040: ff13 5f3d 0409 233d 0974 e63d 7877 b43c
00000050: 3cda 353d 9ac9 bb3b 845c 98bd a136 9f3d
00000060: 06e3 a43d 689f 083d 69ee 1a3d 7af8 91bd
00000070: 6785 aa3d 46d3 3abd f4ec f53d 21fd a9bd
00000080: 59e7 5bbc 4d4d d0bd 9868 3a3d 8d44 93bd
00000090: 8f70 3e3d 6269 8abd 5a6c bd3d d11d 583d
000000a0: 48d5 9cbd e3ef 1a3e 1b65 913d 3caf a1bd
000000b0: 1110 f63d 44ee aa3d 8edc 093d 622b 273d
000000c0: e1b1 0cbd 2e8b 92bc f1e2 a6bd 0988 303d
000000d0: 0bf6 2c3d 156e 973d 4d96 85bd 573e dabd
000000e0: 2c63 003e 20bc 8c3d 7a46 d0bd fc8d 193d
000000f0: 1f60 92bd 10ff 6ebd 78b5 9cbd 14c7 b8bd
00000100: bbb1 e23d 5e10 083e b729 7c3d 93d1 b9bd
00000110: 99b2 6cbd 2ca4 bbbd 317e 95bd 17f3 23bd
00000120: 7d84 1f3d e0d0 aa3d 1bdc cebd d791 dbbc
00000130: 4dd6 07bd c93b 8fbd 405e a5bd 7de1 f2bd
00000140: 46d9 5ebd 9366 92bd d08c ffbd d09b 0d3c
00000150: 20c5 4bbc 7f5a c6bd 41b4 013c efd5 96bd
00000160: bc48 43bd 8769 76bd e66b 1ebd f496 fe3d
00000170: 545a cbbc 9648 07be 3690 96bd 3e6b 923d
00000180: 0ab8 7e3d 340d 7fbc ee71 bcbd 2e8f 65bc
00000190: 2791 fdbc 1aaf 473d c91d 91bd a419 ac3c
000001a0: 7776 34bd d9d4 53bb 0697 b7bd 012c 113d
000001b0: bb92 8dbd c669 dcbd badc d6bd 8000 ccbd
000001c0: 5bbe 603d 6de9 a2bd eefc 503d ff53 1f3d
000001d0: e0bd bbbd 6739 053e 4d8c 743d 52e1 96bc
000001e0: 40b0 15bd 6c30 8c3d 2c53 99bd e6fe 873d
000001f0: 5213 6abd 58d7 55bd 652f a33d 91d5 e2bc
00000200: 3bd9 1f3e bb3d 73bd 31fe 6cbd ee24 233e
00000210: be58 ea3d 7251 f1bd b4f3 16be 8e30 ca3d
00000220: 6290 07bc 967d da3c 97dd bf3c e065 93bd
00000230: 7c19 dfbc 5cd5 263e 3ff6 e03d c653 453d
00000240: c821 adbd 6269 7a3d b117 34bd 41cd 4e3d
00000250: 86ea c2bd b7dd ab3d 57d2 b83d 7a3d de3d
00000260: 0a91 48bd bb9e 543d d397 60bd d291 773d
00000270: 11c3 e53d 8200 253c d573 a83d 0a2c 76bc
00000280: 6b57 f2bd dba6 90bd 2852 ffbc 3273 2c3d
00000290: b77b 6c3d 545a 0d3d 7c3d 7a3d 9ba0 cdbd
000002a0: 8f4e aebd a207 d33d b078 ec3d 6b88 be3c
000002b0: dc21 29bc da36 923d c965 e9bd 4c94 563d
000002c0: 10aa de3c 9531 9eb9 7753 60bd 6236 883d
000002d0: 8b4f 43bc 5edf 603d aaea c33d d48b 68bd
000002e0: 9b10 fcbc 4f1e 3f3d 20b1 d6bc 722a 183e
000002f0: 4fec 8c3d e426 82bc 8478 7b3d 4efc 813d
00000300: 448e c9bd ba22 b83d a98b 8c3c e911 5fbd
00000310: 7de8 fc3c e6fe d2bd d8fe 2d3d 9c86 eebd
00000320: 19b7 e3bb 5dd6 08be e447 8cbd 84e9 6ebd
00000330: ad0b dfbc d4d4 f7bd 2a39 bd3d 7e20 8ebd
00000340: c7e2 7ebb 0f10 a93c d39b c5bd 3f9a 913d
00000350: c3c2 e93c 7128 053c b1d9 913d 694e ff3d
00000360: f77e 333d 22cd 16bd 10e3 b9bd c25a 153d
00000370: fe6b 873c b4be cb3d 0b55 233d f3fe 99bd
00000380: 603f d03d f019 8dbd 6ab7 00bd ab5b e5bd
00000390: 7538 6d3d e31e 12be b104 9b3d 6a38 003e
000003a0: bc6f 02bd 0f12 3abd 3872 8a3d 8ff4 4fbc
000003b0: 965e a7bd 0ac1 64bd 427a b13d bce6 9bbb
000003c0: 9bd2 b1bc 3caa 56bc c41a 5fbb 33ae 0c3e
000003d0: bf9e ecbc f95d a1bd 3382 d63b 403f 143e
000003e0: 43bc 99bd db37 eabc aed9 4cbd 8193 5e3d
000003f0: e915 8d3d 0309 7b3d 4e4b 393c 06ab 173d
0.13378106 0.03144852 -0.02098749 -0.04088715 0.046480548 -0.13714102 -0.021017509 -0.009490563
0.13705087 0.13719496 -0.054083057 -0.0130506 -0.07292136 0.046902765 -0.07153902 -0.034730397
0.05446243 0.03980352 0.11252601 0.022029623 0.044397578 0.00573082 -0.07439521 0.077740915
0.08051114 0.033355147 0.037825022 -0.07127471 0.08326226 -0.045611642 0.12008086 -0.08300234
-0.013421857 -0.10170994 0.045509905 -0.071908094 0.046494063 -0.067583814 0.09249182 0.05276281
-0.07657868 0.15130572 0.070993625 -0.078947514 0.12014783 0.08346227 0.033657603 0.040812857
-0.034349326 -0.017888632 -0.081487544 0.043098483 0.042226832 0.07394043 -0.06522808 -0.10656422
0.12537831 0.068718195 -0.10169692 0.037488922 -0.0714724 -0.058348715 -0.076518 -0.09022346
0.11069056 0.13287494 0.06156322 -0.09073176 -0.05778751 -0.09162173 -0.0729946 -0.04002675
0.03894471 0.08340621 -0.101005755 -0.02680294 -0.033163358 -0.06993825 -0.080746174 -0.11859415
-0.054406427 -0.07148471 -0.1247803 0.008643106 -0.012437135 -0.096852295 0.007916511 -0.07365023
-0.047676787 -0.060159232 -0.03867712 0.12431136 -0.024823345 -0.13211283 -0.07351725 0.07149361
0.062187232 -0.015567113 -0.09201418 -0.0140111875 -0.030953003 0.048750974 -0.07085759 0.02100832
-0.04405829 -0.0032322912 -0.08964352 0.035442356 -0.06912752 -0.10762362 -0.10491319 -0.09961033
0.054869037 -0.07954679 0.051022463 0.038898464 -0.09167075 0.13010179 0.059704114 -0.018417988
-0.03654504 0.06845173 -0.07486567 0.06640415 -0.05714733 -0.05220732 0.07968024 -0.027689727
0.1561021 -0.059385043 -0.057859603 0.15932056 0.114427075 -0.117831126 -0.14741403 0.09872542
-0.00827417 0.026671212 0.023421092 -0.071971655 -0.027233832 0.16292328 0.10984468 0.048175596
-0.08453709 0.061135657 -0.043967906 0.050488714 -0.09517388 0.08391898 0.09024494 0.108515695
-0.048966445 0.05190919 -0.05483229 0.0604418 0.112188466 0.010070922 0.08225218 -0.015025148
-0.1183308 -0.07063075 -0.031167105 0.042102046 0.05773517 0.03450997 0.061093792 -0.10040399
-0.085110776 0.1030419 0.11546457 0.023258409 -0.010323014 0.07139368 -0.11396367 0.05238752
0.027180701 -0.0003017305 -0.0547671 0.06650998 -0.01192082 0.05490052 0.09566243 -0.056773975
-0.030769637 0.046659764 -0.026207507 0.14859942 0.0688101 -0.015887685 0.06139423 0.063469514
-0.09841588 0.089909986 0.017156439 -0.05446044 0.030872578 -0.10302524 0.042479366 -0.116467685
-0.006949317 -0.13363023 -0.068496495 -0.058328167 -0.027227247 -0.121011406 0.09239419 -0.06939791
-0.0038892494 0.02063754 -0.09648862 0.07109498 0.028535252 0.008127318 0.071215995 0.124661274
0.043822255 -0.036816724 -0.09076512 0.036463507 0.016530987 0.09948483 0.039876025 -0.07519331
0.10168338 -0.06889713 -0.031424917 -0.11199125 0.05791517 -0.14269595 0.07569254 0.1252152
-0.03184484 -0.04542738 0.06760067 -0.012692585 -0.08172338 -0.05584816 0.08665897 -0.0047577303
-0.02170687 -0.0131021105 -0.0034043053 0.13738327 -0.02888429 -0.07879252 0.0065462827 0.14477253
-0.07506611 -0.028591087 -0.050012283 0.05433989 0.06888945 0.06128789 0.011309458 0.037028335

lstm.weight_hh_l1 f4 [256, 64]
00000000: 31e0 88bd c2d7 05ba 0e3e a3bd a18a 97bd
00000010: 94eb c9bc 5d37 433c 80ea eb3d 8436 7a3c
00000020: 05c6 933c 30e2 d23d 34dc e6bd f6fa cd3c
00000030: 787f bf3b d0df ddbd 1fab 7d3d 41f4 383d
00000040: f281 633d a927 4a3c 0e26 85bb 0c3b 1ebc
00000050: c8b8 33bd 573d 103c e17b bd3d ab9a c23d
00000060: e2fe 3bbe 8698 8bbd 9cbb c9bd 5e5d 123e
00000070: 7446 edbc a14d 953d 68c1 1c3c 4058 173e
00000080: ab4c 083d 26d0 3f3d e81c 013e d2b0 0e3e
00000090: 1d73 933d 98dc 333d 3a64 cc3c c13e dabd
000000a0: 4813 c03d 14e8 92bc 5a3c 783d 3f7c c8bd
000000b0: e05a 123d a45e 633c 7c39 2dbd b458 18bd
000000c0: a735 83bc 6cdb a4bd 0370 9bbd 5c25 4d3c
000000d0: e9af e2bd 95d2 9f3d 052e eabd 5c62 88bd
000000e0: f1ef d2bd d2ff 0dbd a591 403c 9d02 1cbe
000000f0: 4353 5ebd e91d b03d e830 473d 7a9e 713d
00000100: 9d8c e9bd d25b c13d a47e 31bc afa3 2c3d
00000110: 1417 7dbc 3996 ad3b 7e7e 493d 700a 0bbe
00000120: f3b4 a4bc cdb7 363c 92d8 fc3b f8c1 843d
00000130: 531f 223d 3aa8 303d 13d8 b83c 2dd6 983d
00000140: a8f7 11be c505 e73c 5af2 2b3d 915f a63d
00000150: dbe6 9ebd f4b7 afbd a628 823d 31ac 14be
00000160: 84b5 dd3c fcca 0c3e 67d0 013e 9a35 1a3e
00000170: ee75 0a3d 2b28 febd b644 02be c36f 053e
00000180: 50ed 8d3d 214e 39bc cde6 1abd 1d39 9bbb
00000190: 8781 bb3d e0e4 00be b764 81bd d7c3 02be
000001a0: bbc7 32bd ffc9 efbd da7a 8a3c 035a 543d
000001b0: dd28 ba3d f4d0 973d cef5 a3bd 05f2 71bd
000001c0: 4d9d b2bd f0e4 523d 3556 ef3d 1814 af3b
000001d0: f268 7f3d 7530 c8bd 97a4 bebd 8852 8f3d
000001e0: 9005 3c3c 70e7 c03d 0bcf bbbd d424 55bc
000001f0: 0b77 113d 8433 dc3d ae0e 18bd 911a f3bd
00000200: 9f5c 243e 3623 193e 006f 6d3d 9a69 093d
00000210: 33bb 053e aba6 91bd e9df 3c3d e53d 6ebd
00000220: 5e90 0dbe 8393 3d3d 613a 7b3c 00e9 02be
00000230: f2ac 3cbe 4d61 50bd ece4 8f3b 3d46 d6ba
00000240: fec2 a13d f9a1 b3bb b30d 2cbd 0f91 063d
00000250: 8f69 db3d cc94 15be dc43 923d 264d 3a3d
00000260: 04ce dc3b 1e09 db3d 39ce 61bd 57b1 87bd
00000270: 4bfe 6c3d 54cc 13bd 229c b03d 445e 413d
00000280: 5311 0ebd b5f6 063d 8cff 25be 4c14 f73d
00000290: 338d 07be 281a 843d dad4 eb3d f33b 9dbd
000002a0: 7116 7cbc 14ff 033e 4185 0e3e 02ed b0bd
000002b0: 94eb 88bc d833 e4bd d03e 1fbc 2397 a93d
000002c0: 1dcb c23d ec5d 163d e730 08be b874 9cbd
000002d0: 8256 b53d 6664 2cbd c750 8cbd ab78 3b3d
000002e0: 3abe edbd ddfd 09bd dcaf 9d3c c7e6 1cbe
000002f0: 70ad b33c 4037 663d ac0c 193e 60d2 933d
00000300: b0e6 22bd fae7 813c 05fa 933d 4bdd cabd
00000310: 609b 3f3d f3cb 97bd 235c d43d c27b 9a3d
00000320: 7c64 6c3c 89e5 cdbd fa04 0c3e f105 b93d
00000330: e924 23bd 5d4b 913d bcb8 c0bd f773 9c3d
00000340: ba4d be3a f451 2ebd 1d08 973d 18bd 33bd
00000350: a909 f83c 10ee 9f3b 5972 9f3d ec51 79bc
00000360: ef6f 6cbd 87bc b43d fa22 06be 0912 9abd
00000370: 4434 c7bd 53bc dd3c 1fa9 8ebd 17d1 aebd
00000380: b235 47bd 4e12 1a3d b831 e43d f9a8 dcbd
00000390: 4134 0e3d f41a e0bd dc31 de3d 63ce f03d
000003a0: c870 70bd b802 9e3d e64d 163d 6a34 52bd
000003b0: 22e2 e6bc d395 03ba 4f6c c5bd 4bcd 87bd
000003c0: 4428 0e3d 6bb1 9bbd 2c6b 7ebd 7e9f 96bc
000003d0: 8eb1 303d 32b1 c0bd 48ca df3d f2b6 903d
000003e0: 6c83 543d 878f d6bd 21e0 993d bcad 6d3d
000003f0: 7a07 f0bd 3b01 333c 40af 943d 2381 90bd
-0.06683386 -0.0005105698 -0.0797082 -0.07399488 -0.024648465 0.011915055 0.11519337 0.015271787
0.018038759 0.10297048 -0.11272469 0.025144082 0.005844053 -0.108337045 0.061930772 0.045154814
0.055543847 0.012338557 -0.0040633744 -0.009657633 -0.043877393 0.008803687 0.09252144 0.09502157
-0.18358949 -0.06816201 -0.09850237 0.1429343 -0.028964259 0.07290197 0.009567596 0.14779758
0.03327624 0.046829365 0.12608683 0.13934639 0.071996905 0.043911546 0.024950135 -0.106565006
0.093786776 -0.01793293 0.06060443 -0.09789323 0.035731196 0.013877545 -0.04229115 -0.03719397
-0.016016794 -0.08049664 -0.07589724 0.012521114 -0.110687084 0.07803837 -0.11434559 -0.066593856
-0.102996714 -0.034667797 0.011753474 -0.15235372 -0.054278623 0.08599455 0.048630625 0.058989026
-0.11403773 0.094413415 -0.010833416 0.04214829 -0.015447397 0.005297449 0.049192898 -0.135782
-0.020105815 0.01115222 0.007716247 0.06482309 0.039580654 0.043129183 0.02256397 0.07462726
-0.1425463 0.028200993 0.04197917 0.081236966 -0.07758876 -0.08580008 0.06355409 -0.14518811
0.027064092 0.13749307 0.12677155 0.1505951 0.033803873 -0.12410005 -0.12721524 0.13030915
0.069300294 -0.011310131 -0.037817765 -0.004737033 0.09155565 -0.12587309 -0.06318038 -0.1277002
-0.04364751 -0.117084496 0.016904283 0.051843654 0.09089825 0.074129015 -0.08005868 -0.0590687
-0.08721409 0.051487863 0.116863646 0.0053429715 0.062355943 -0.097748674 -0.09308737 0.069981635
0.011475936 0.09419143 -0.0917035 -0.013009269 0.03551392 0.10752013 -0.037123375 -0.118703015
0.16050957 0.14954838 0.057967186 0.033547975 0.13059692 -0.071118675 0.046111975 -0.058164496
-0.13824603 0.046283256 0.015333743 -0.12784195 -0.18425348 -0.050874043 0.0043913033 -0.0016347837
0.0789852 -0.005481955 -0.042005252 0.032853182 0.10713493 -0.14607543 0.071418494 0.04548373
0.006738426 0.10695098 -0.05512831 -0.06625622 0.0578597 -0.036083534 0.0862353 0.04720904
-0.03468449 0.032950122 -0.16210765 0.12064418 -0.13237457 0.064503014 0.115152076 -0.0767745
-0.01538621 0.12890273 0.1391802 -0.08638956 -0.016713895 -0.11142701 -0.0097195655 0.0828078
0.09511397 0.036710665 -0.13299905 -0.0763945 0.08854391 -0.042087935 -0.068513446 0.045769375
-0.116085485 -0.03368937 0.019248895 -0.1532241 0.021933287 0.056205034 0.1494624 0.0721786
-0.039770782 0.015857685 0.07225422 -0.099054895 0.046779037 -0.07411947 0.10369136 0.07543136
0.014428254 -0.10053546 0.13673773 0.09034336 -0.039830122 0.070944525 -0.09410235 0.07639306
0.0014519014 -0.042558625 0.07374594 -0.043881506 0.030278044 0.004880674 0.07785482 -0.015217286
-0.057723936 0.08825021 -0.1309928 -0.07522971 -0.09726766 0.027067339 -0.06965851 -0.085359745
-0.048635192 0.037615113 0.111422956 -0.107744165 0.034717802 -0.10942641 0.10849354 0.11758115
-0.058701307 0.07715362 0.036695383 -0.051319517 -0.028184 -0.0005019579 -0.09639799 -0.066309534
0.03470637 -0.07602199 -0.062113926 -0.018386599 0.04313808 -0.09408797 0.10927254 0.07066144
0.051883146 -0.104765944 0.07513452 0.058027014 -0.11720176 0.010925586 0.07259989 -0.07055881

lstm.bias_ih_l1 f4 [256]
00000000: 7462 abbc 06dc dabd 7d38 c8bd 8d04 ae3c
00000010: a5f3 40bd 463f fdbd cd7f b1bb 0abb d93b
00000020: 225a 6abd 1505 2ebd d626 80bd e81d dabd
00000030: a94a 91bd 5913 663c 4f51 abbd 56ad 9dbd
00000040: 0005 88bd 7a09 be3d a754 a93d 3af4 a53d
00000050: 6ef4 e13d 08bd 563d c4d0 f63c 24db e1bd
00000060: 01db cebd 3200 b33d 0dc1 c23c 12c8 adbd
00000070: 52e0 a8bd 48d2 c6bd 1873 e7bd fa6f 24bd
00000080: c0d8 9fba 830d 683d 6221 c53d 10f2 c4bd
00000090: 326e 6c3d 20a8 a73d 12e4 11bd 8b27 6e3b
000000a0: 70df bebd 88d6 48bd 75f6 00bd e820 d93d
000000b0: 5534 463d bf05 abbd 0e33 d43c 5116 33bd
000000c0: dd46 ac3c 6180 6f3d 1cdd 32bc cf75 a3bd
000000d0: 01ac 9b3d fd7b 6ebc e9f9 7a3c db05 c93c
000000e0: a325 bfbd 0e16 36bd 5a7a 513b 6c83 5c3d
000000f0: 2cae ac3c d60d a93d 5d31 c4bd 1a0f f43d
00000100: 875f ddbc af8a f4bc d633 7abd 081d 8a3b
00000110: 3fd4 d2bd 9445 a93d 7d27 65bd f687 9c3d
00000120: 5325 c33d 7afb b5bd 3dca 6dbc ab83 c2bd
00000130: ae5e 763d 0b77 7d3d 05e1 cd3d fe56 df3c
00000140: 7888 f8bc 121e 0a3e 5723 cc3d a9c5 863d
00000150: a14c bbbd 6774 453b e98d 8fbd 00d6 ebbd
00000160: 0d81 033e 6e07 d9bd fc46 433d 5692 e93d
00000170: 7597 48bd 76a1 91bd d383 4f3c 18db 963d
00000180: b09e 23bc b8c6 9e3d 927f 95bd efa5 6ebd
00000190: fee5 573d 3750 41bc 148c 833d 36aa c63c
000001a0: 75be b8bd 2ce2 40bb 76f5 0a3e 57a8 47bd
000001b0: 82b0 62bd b79b 4f3d 6432 3cbc 3701 a03d
000001c0: d28b e2bd 22e0 a9bb b34e be3d 24f5 87bd
000001d0: 230f acbd 230e 4b3d 9716 173d 9b8a 8b3d
000001e0: 466f adbc 5961 a4bc b4e9 babd b9cc 123e
000001f0: af9d b63d 62cf fdbd 8a18 adbd 4543 3cbd
00000200: c9ea fcbc 3c35 20bc f525 51bb c6e3 823d
00000210: 698a aabd 3e6b 7a3c 9b88 8bbc 3f17 2dbb
00000220: 1356 f73c a4f7 bebd 2b4d 2fbd 4894 d23c
00000230: 9f40 023e cbc8 d33b 8bb7 34bc b83d 723d
00000240: 11cc b63b e5bb 773c 13d3 af3d a625 933d
00000250: 0e35 ca3d 92fa 913d b922 1f3c c509 e03d
00000260: b42e 963c 4da3 0d3c 8ab4 13bd 786e ecbd
00000270: b65d 81bd e052 1bbd ce24 573d 1c10 903c
00000280: fe57 b53d e0c1 c63d 20f6 543d 2764 433b
00000290: 2c04 92bc ff58 dfbb 1970 d33d 28d4 d5bd
000002a0: 4a54 d8bb 31c7 bf3d 564f 97bd 4a1b 8f3d
000002b0: 2faf a53d c5a7 cc3d 02cc 91bc 764c c33d
000002c0: 1533 e43c 5cbc 1bbd 991e b7bc 2d25 c1bd
000002d0: 5cdf 3a3b 1f0e 8abd d693 373d fb23 0a3d
000002e0: 06ed a7bc 0dc8 db3c da3e 53bd 3598 edbd
000002f0: 0b55 b7bd 98ec 12bd 488a 1f3d 91fb 5a3d
00000300: e247 b93d 9823 afbc f75c fabd 5f01 fb3c
00000310: 52d1 d2bd 1381 99bd 7e83 ad3d da31 ab3d
00000320: 18eb fa3d f361 a1bd 39fb 14bd 6405 083e
00000330: 2e41 b3bd abab 103d fed2 0fbc 2302 f13d
00000340: e922 7f3d 4ec4 973a 1214 b0bb 9571 fb3d
00000350: 848d 7fbd 0514 b63d b9cb f13c 7dd1 c6bd
00000360: 4161 a4bd 63f5 ad3c 784b d23d 293d da3c
00000370: 91df b2bc 73d8 453d 3e07 a63d 7c34 8e3d
00000380: ffb9 2fbd 6712 9dbd 8309 b0bc ab9c c63d
00000390: d11e eb3d 51fc 84bd fd84 9ebd 27d4 bfbd
000003a0: 1924 073e 6535 79bd 0b17 8fbc aa80 e83d
000003b0: 972f b9bc d01d f53c cf15 cfbd a36b a63c
000003c0: 73d6 a8bd 65c8 f1bb 8583 bbbc e612 b53b
000003d0: aab5 eb3d c7ab 013e 3d67 1a3d b328 763c
000003e0: 6a3e 0dbd 86fe a6bd 9686 993c 9c4f d7bc
000003f0: 436c 843d d2f2 0fbd ceb9 a83d f605 a63d
-0.02092097 -0.106864974 -0.09776399 0.021242404 -0.047107358 -0.12365584 -0.0054168464 0.0066446112
-0.057214864 -0.042485315 -0.06257407 -0.106502354 -0.070943184 0.014042699 -0.08365118 -0.07699077
-0.06641579 0.09279151 0.08268099 0.08103223 0.110329494 0.052426368 0.030128844 -0.11028126
-0.101003654 0.08740272 0.023773694 -0.08485426 -0.08245911 -0.09708077 -0.11301249 -0.04014585
-0.0012195334 0.05665351 0.09625508 -0.09616482 0.057722278 0.08186364 -0.035617895 0.0036339487
-0.09319961 -0.049032718 -0.03148504 0.106019795 0.04838975 -0.08350705 0.025903251 -0.043722454
0.021029884 0.05847204 -0.010916974 -0.079814546 0.076011665 -0.014555928 0.015318372 0.024538925
-0.093333505 -0.044454627 0.0031963796 0.05383627 0.021079145 0.08254592 -0.09579728 0.11916943
-0.02702309 -0.029851286 -0.06108459 0.0042148866 -0.10294389 0.08265224 -0.055945862 0.0764312
0.095286034 -0.08885856 -0.014513549 -0.0949777 0.060148887 0.061881106 0.10052685 0.02726316
-0.03033851 0.13488033 0.09967678 0.065806694 -0.09145475 0.0030129196 -0.07009489 -0.11515427
0.12842198 -0.1059712 0.047675118 0.114048645 -0.048972566 -0.07110874 0.012665707 0.073660076
-0.0099865645 0.07752746 -0.07299723 -0.058263715 0.052709572 -0.01179891 0.06423202 0.024251085
-0.09020702 -0.0029431684 0.13570198 -0.048744526 -0.055344112 0.05068561 -0.011486623 0.07812732
-0.11061825 -0.0051841894 0.092923544 -0.06638554 -0.084013246 0.04957403 0.036886778 0.06813546
-0.021171223 -0.02006595 -0.091266066 0.14335908 0.089167945 -0.12393071 -0.08451946 -0.04596259
-0.030873673 -0.009778317 -0.0031913493 0.063911006 -0.08327181 0.015284358 -0.017032912 -0.002641156
0.03019241 -0.093245775 -0.042798202 0.025705472 0.12719963 0.0064631454 -0.011030088 0.05914089
0.005578526 0.015120481 0.08585181 0.07184915 0.09873401 0.071278706 0.009712868 0.109393634
0.018332817 0.008644891 -0.036060847 -0.11544508 -0.06316702 -0.037920833 0.052525334 0.017585807
0.08854674 0.097049475 0.051992536 0.0029814334 -0.017824255 -0.006816029 0.10324115 -0.10440856
-0.006601845 0.093641646 -0.07388179 0.06987627 0.08090054 0.09992937 -0.017797474 0.09536068
0.027856389 -0.03802143 -0.022353457 -0.09430919 0.002851448 -0.06740975 0.04481872 0.03372572
-0.020498764 0.02682879 -0.05157361 -0.11601297 -0.089517675 -0.035870165 0.038950235 0.05346257
0.09046914 -0.021379277 -0.12224763 0.030640302 -0.10293831 -0.07495322 0.08472346 0.08359118
0.12251872 -0.078800105 -0.036372397 0.13283306 -0.087526664 0.035319965 -0.008778332 0.11767986
0.062289152 0.0011578889 -0.0053734863 0.122775234 -0.06239082 0.08890537 0.029516088 -0.097079255
-0.08026362 0.021235174 0.10268301 0.026640492 -0.02183512 0.048302125 0.0810685 0.06943604
-0.04290199 -0.076695256 -0.02148891 0.09697851 0.11480487 -0.06493438 -0.07740209 -0.09366637
0.13197364 -0.060841937 -0.017467042 0.11352666 -0.0226057 0.029921442 -0.101115815 0.020314997
-0.08244028 -0.007378625 -0.022889862 0.0055259345 0.11509259 0.12663184 0.037696112 0.015024352
-0.03448335 -0.08154015 0.018740933 -0.026283078 0.06465962 -0.03514368 0.082385644 0.08106606
